VVG/Experiment_3 - Aggregation/Images7/model7_dif.pth (torch, 33122 bytes, 18 tensors)

conv1.fc_neigh.weight f4 [50, 6]
0	0xbe58742c	-0.21138066
1	0xbb89f368	-0.0042099245
2	0xbe45fab1	-0.19333912
3	0x3e942eb5	0.28941885
4	0xbe5a6d95	-0.21330865
5	0x3ee3c1f4	0.44483912
6	0xbdf84ecf	-0.121244065
7	0x3e7af3eb	0.2450711
8	0xbe175262	-0.1477752
9	0xbe8c6c74	-0.27426493
10	0xbed0194a	-0.40644294
11	0x3d0f5aee	0.034998827
12	0x3ec7ebc1	0.39047053
13	0x3f694a0f	0.9112863
14	0x3fde19c4	1.7351613
15	0x3ec9bbf4	0.3940121
16	0xbe9cf264	-0.3065368
17	0x3f20f35a	0.62871325
18	0xbe3c1595	-0.18367608
19	0xc05ac818	-3.4184628
20	0xbfffad13	-1.9974693
21	0x3ebdca4a	0.37068397
22	0x3e2b0482	0.16700938
23	0xbf9a1d84	-1.2040257
24	0x3ee92e82	0.45543295
25	0xbf1fce64	-0.624243
26	0xbfce5353	-1.6119179
27	0x3e8a8e93	0.270619
28	0xbebe47d0	-0.37164164
29	0x3f2064f7	0.6265406
30	0xbe274ea8	-0.16338599
31	0x3e97affe	0.2962646
32	0xbfa5c6ab	-1.2951254
33	0x3e9052e1	0.28188232
34	0xbe4608bd	-0.19339271
35	0xbdf298e8	-0.11845571
36	0x3e4d002c	0.20019597
37	0xbea1dfde	-0.3161611
38	0x3d561903	0.052269947
39	0xbe6d9226	-0.23200282
40	0xbca70c18	-0.020391509
41	0xbc49a56a	-0.012307504
42	0xbf0c7dfe	-0.5487975
43	0x3faa88b1	1.3322965
44	0x3fa90e9b	1.3207582
45	0x3d4c58b6	0.04988929
46	0x3e688455	0.2270673
47	0x3eee4669	0.46538094
48	0x3f0d68e4	0.55238175
49	0xbf3edfcf	-0.74560255
50	0x3f0867b9	0.5328327
51	0xbe6275e7	-0.22115289
52	0xbd83d0ab	-0.06436285
53	0xbdeffa0d	-0.11717615
54	0xbe95bbdc	-0.29244888
55	0x3e7d4bef	0.24735998
56	0xbedebd6f	-0.435039
57	0xbee36594	-0.44413435
58	0xbed0c1d5	-0.40772882
59	0x3ee9ddf7	0.45677158
60	0x3e92a238	0.28639388
61	0xbdb4965c	-0.08817741
62	0x3fd73f21	1.681614
63	0x3c9d2f3d	0.019187564
64	0xbd821abd	-0.06352756
65	0x3f29b0f4	0.66285634
66	0x3d3c908c	0.04603629
67	0x403c5948	2.9429493
68	0x4045defc	3.091735
69	0x3def02e3	0.116704725
70	0x3df47cab	0.11937841
71	0x3f79e120	0.9760914
72	0x3f1fc22c	0.6240566
73	0xbf22095d	-0.6329554
74	0x3fe9bc41	1.8260576
75	0xbde8d610	-0.11368954
76	0xbde2178f	-0.1103965
77	0xbfd2df7c	-1.6474452
78	0xbe6c807c	-0.23095888
79	0xbf7d36ce	-0.9891175
80	0xbf83eedc	-1.0307269
81	0x3e095326	0.13410625
82	0x3ecceb7d	0.40023413
83	0xbf012ea5	-0.504618
84	0xbf27e51f	-0.65583986
85	0xbf3067d2	-0.6890842
86	0x3f0b965b	0.545263
87	0x3eb253f1	0.34829667
88	0x3dbc2f92	0.09188761
89	0x3e1dfdca	0.15428844
90	0xbf45be75	-0.7724374
91	0xbfb8542e	-1.440069
92	0xbf370cb6	-0.7150377
93	0xbd9d8789	-0.07691867
94	0x3ea1ef26	0.31627768
95	0xbf600846	-0.87512624
96	0x3e839082	0.25696188
97	0xbfc3491a	-1.5256684
98	0xc0025948	-2.0366993
99	0x3db1a1c7	0.08673435
100	0x3d42a654	0.047521904
101	0x3e0621a5	0.13098772
102	0x3ee76686	0.45195407
103	0xbeacb939	-0.33735064
104	0xbeaf84ff	-0.34281155
105	0xbd2c3c88	-0.042049915
106	0x3dbe3909	0.09288222
107	0x3e2767e7	0.1634823
108	0xbeaa4968	-0.3325913
109	0x3ea4d6f6	0.32195252
110	0xbd80c581	-0.06287671
111	0xbeb8dc2d	-0.3610548
112	0xbec71bb8	-0.38888335
113	0xbe95e301	-0.29274753
114	0x3ede633f	0.43435094
115	0xbe26add8	-0.16277254
116	0xbe690977	-0.22757517
117	0xbdd1dd33	-0.102472685
118	0xbeabe824	-0.33575547
119	0xbf20f07e	-0.6286696
120	0x3d47fd97	0.048825826
121	0xbe4e7cef	-0.20164846
122	0xbfca940f	-1.5826434
123	0xbe9e1061	-0.3087187
124	0x3dc0cf84	0.094145805
125	0xbec61f5f	-0.3869581
126	0xbee877a7	-0.45403787
127	0x3f12650f	0.57185453
128	0x3faad765	1.3346983
129	0x3ed2c9c7	0.4116957
130	0x3e64a991	0.2233031
131	0x3e2481c8	0.16065133
132	0xbe1d866a	-0.15383306
133	0x3f4f3bf6	0.8095087
134	0xbfa74b9e	-1.3069952
135	0xbe4f2eeb	-0.20232742
136	0x3e89e366	0.26931304
137	0x3e306498	0.17225873
138	0xbdcc4a0d	-0.099750616
139	0xbf9b8169	-1.2148868
140	0xc020794d	-2.5074036
141	0xbef83e30	-0.48484945
142	0x3e9b9e31	0.30394128
143	0x3eaff590	0.34367037
144	0x3dddd227	0.10831099
145	0x3e156d07	0.14592372
146	0xbf31529e	-0.6926669
147	0xbebd8103	-0.3701249
148	0x3ef8df3c	0.48607814
149	0x3f3d65c8	0.7398343
150	0xbee42b3a	-0.4456423
151	0x3f84f40e	1.038698
152	0x40072a6b	2.111964
153	0x3e89c0e2	0.2690497
154	0x3eb84c86	0.35995883
155	0xbeb6bbda	-0.35690194
156	0xbe4d6e4d	-0.20061608
157	0xbe573830	-0.21017528
158	0x3ff07772	1.8786452
159	0x3e690cfd	0.22758861
160	0x3e96e8cd	0.29474488
161	0x3ddf5564	0.10904959
162	0xbed1d6c8	-0.40984178
163	0xbfd4d909	-1.6628734
164	0xc018a000	-2.3847656
165	0x3e21c66d	0.1579835
166	0x3eb58638	0.35453963
167	0xbf7efebb	-0.9960744
168	0x3f008020	0.50195503
169	0xbf68905d	-0.9084528
170	0xbfddf3c6	-1.7340019
171	0xbc1abe08	-0.009444721
172	0x3c7ec99c	0.015550997
173	0x3e5549a2	0.2082887
174	0xbd9d16d4	-0.0767037
175	0x3fda88ec	1.7073035
176	0x3fdbf5ad	1.7184349
177	0xbc11e085	-0.008903627
178	0x3ebcc87d	0.3687171
179	0x3e0cf20a	0.13764206
180	0xbe8f65fd	-0.28007498
181	0xbe4d10ff	-0.20026015
182	0x3e809c92	0.25119454
183	0xbe9d32d9	-0.30702856
184	0xbed79857	-0.42108414
185	0x3e184a72	0.14872149
186	0x3e0e7639	0.13912286
187	0x3d266537	0.04062387
188	0x3ed1cc7b	0.4097632
189	0xbed09034	-0.40735018
190	0xbe8de99c	-0.27717292
191	0xbdf3fbe7	-0.11913281
192	0xbf0a544a	-0.54034865
193	0xc0079913	-2.118718
194	0x3f1b2411	0.6060191
195	0xbdcd571a	-0.10026379
196	0x3dc5453a	0.096323445
197	0xbfffd8dd	-1.9988056
198	0xbea6c1b8	-0.3256967
199	0x3ea59058	0.32336688
200	0x3ef95d2d	0.487039
201	0xbe2debd3	-0.16984491
202	0x3ed1839c	0.40920722
203	0x3c669825	0.01407436
204	0xbd954a94	-0.07289615
205	0xbee9192c	-0.45527017
206	0xbec6bfd5	-0.3881823
207	0xbed63930	-0.41840506
208	0xbd8ca3d8	-0.06867188
209	0xbd60ee8a	-0.05491499
210	0x3cb63d98	0.022246167
211	0x3fa9965f	1.3249015
212	0x4004e398	2.0763912
213	0x3e022c89	0.12712301
214	0x3c13eafe	0.0090281945
215	0x3d27f44a	0.041004457
216	0xbe52bf5d	-0.20580812
217	0x3e371e66	0.1788269
218	0xbe8ac883	-0.27106103
219	0xbd7e2965	-0.062051196
220	0x3dff90c7	0.12478786
221	0x3f0016af	0.5003461
222	0x3f399b38	0.7250247
223	0x3e8e5829	0.27801636
224	0x3e726ec0	0.2367506
225	0x3db0c749	0.086317606
226	0xbdd12519	-0.10212154
227	0xbf17a7e3	-0.5924055
228	0x3f008568	0.5020356
229	0x3f8468c1	1.0344468
230	0x3fc01635	1.5006777
231	0xbe702e62	-0.23455194
232	0xbe67e811	-0.2264712
233	0x3fa49681	1.285843
234	0xbe9bd456	-0.30435437
235	0xbead4c2c	-0.33847177
236	0x3cd61427	0.026132656
237	0xbe97b4bb	-0.29630074
238	0xbed3492b	-0.4126676
239	0x3ec6449f	0.3872423
240	0xbee84b09	-0.45369747
241	0x3ebe2779	0.3713949
242	0xbe9cb578	-0.306072
243	0x3d89ef81	0.06735135
244	0xbd89f4f9	-0.06736178
245	0x3ec69ffa	0.38793927
246	0xbe194609	-0.14968123
247	0x3e378f16	0.17925677
248	0x3eab4c67	0.33456728
249	0xbddb3efa	-0.10705371
250	0xbe75a25a	-0.23987713
251	0x3e2ba32d	0.16761465
252	0x3e98ac4e	0.29818958
253	0xbd56dd4b	-0.052457135
254	0xbf346f42	-0.70482266
255	0x3ec4cb56	0.38436383

conv1.fc_self.weight f4 [50, 6]
0	0xbec48265	-0.38380733
1	0xbdcc64ec	-0.09980187
2	0xbe8e0b01	-0.2774277
3	0xbecea237	-0.40358135
4	0x3e2028e2	0.15640596
5	0xbe8e96c2	-0.27849394
6	0xbe5c8cb5	-0.2153805
7	0xbe985aec	-0.29756868
8	0xbe45721b	-0.19281809
9	0x3dcaff71	0.09912003
10	0x3e9eb118	0.30994487
11	0x3e09d348	0.13459504
12	0x3ef6befa	0.4819258
13	0xbf18880b	-0.59582585
14	0x3ef98f38	0.4874208
15	0x3df9402f	0.12170445
16	0xbe95c68b	-0.2925304
17	0xbf539310	-0.82646275
18	0xbd45800b	-0.048217814
19	0xbeff2906	-0.49835986
20	0xc07c439b	-3.9416263
21	0x3e36ab05	0.17838676
22	0xbea2b7a5	-0.31780735
23	0xbdf27856	-0.118393585
24	0x3e5ab0b4	0.2135647
25	0xbf268d7b	-0.6505963
26	0xbfecadc9	-1.8490535
27	0x3cd3ac7d	0.025839085
28	0x3e62a4f5	0.22133239
29	0xc025686b	-2.5844982
30	0x3e68fd36	0.22752842
31	0xbd057954	-0.03258641
32	0xbf392ea0	-0.7233677
33	0x3dcef497	0.101052456
34	0x3ebc3951	0.3676248
35	0xbf71f6bb	-0.94517106
36	0x3e3fef8f	0.18743728
37	0xbdd5098c	-0.104022115
38	0xbe5a08f9	-0.21292485
39	0xbead83b3	-0.3388954
40	0xbdca80a2	-0.09887816
41	0xbdb99c3e	-0.09063004
42	0xbe144ccc	-0.1448242
43	0x3ff7fa7f	1.937332
44	0x409612f2	4.6898127
45	0xbe968d84	-0.29404843
46	0x3db8316d	0.08993802
47	0x4031b8a2	2.776894
48	0x3f48c49a	0.7842499
49	0xbfcdbd4b	-1.6073393
50	0xc016c0c0	-2.3555145
51	0xbdf929e5	-0.12166194
52	0x3e4764d5	0.19472058
53	0xbec05bd9	-0.37570074
54	0x3ecafad1	0.39644483
55	0xbe882df9	-0.26597574
56	0xbeaaca4a	-0.3335746
57	0x3dc01ef3	0.09380903
58	0xbee766e4	-0.45195687
59	0x3eb2bdcb	0.34910426
60	0x3eddc998	0.43317866
61	0xbf552863	-0.8326475
62	0x3edd2f07	0.43199942
63	0x3d9113dc	0.07083866
64	0xbf240e55	-0.6408437
65	0x3f39a52c	0.7251766
66	0x3e40d354	0.18830615
67	0xbe19e695	-0.15029366
68	0x40793791	3.8940165
69	0x3d62de70	0.055387914
70	0xbd37ec97	-0.044903364
71	0xc04879d1	-3.132435
72	0x3e376e5d	0.17913194
73	0x3edda177	0.4328725
74	0x3f35c2a1	0.71000105
75	0xbf023d39	-0.5087467
76	0x3ea3ee15	0.3201758
77	0xbf0fed32	-0.56221306
78	0xbe7c082d	-0.24612494
79	0x3deb8a5b	0.115009986
80	0xbf709803	-0.9398195
81	0x3d2b9c3d	0.041897047
82	0x3ef98ebd	0.48741713
83	0xbfd45ade	-1.659023
84	0x3e2a74b3	0.1664608
85	0xbe961c7d	-0.2931861
86	0xbf9ef2e5	-1.2417876
87	0xbb3e7f12	-0.002906744
88	0xbeac15da	-0.3361042
89	0x40112b2b	2.2682598
90	0xbf363dbe	-0.7118796
91	0xbfcca8e1	-1.5989038
92	0x3f3d298a	0.7389151
93	0x3eb8e12a	0.36109287
94	0x3e583448	0.21113694
95	0xbf873c8e	-1.0565355
96	0x3e7cf91b	0.24704401
97	0xbf6ca7e6	-0.9244369
98	0xc033bf44	-2.808549
99	0x3e659a49	0.22422136
100	0x3e8b2d64	0.27183068
101	0xbfa95040	-1.3227615
102	0x3ea0f51a	0.31436998
103	0xbf40e229	-0.75345093
104	0xbfd9583e	-1.6980054
105	0xbe4e1229	-0.20124115
106	0x3eea554f	0.4576821
107	0xbfdd2985	-1.7278296
108	0x3dd05cfb	0.101739846
109	0xbb1d2a4a	-0.0023981505
110	0xbdd77b75	-0.105215944
111	0xbc001ecc	-0.007819843
112	0x3ebd90ba	0.3702448
113	0x3ee0b385	0.43886963
114	0x3ed5095c	0.41608703
115	0xc009d99c	-2.1539068
116	0xc003538c	-2.0519743
117	0xbf008194	-0.5019772
118	0x3ec93b2e	0.39302963
119	0xbea90503	-0.33011636
120	0xbe917c5c	-0.2841519
121	0x3def87cf	0.11695825
122	0xbfac309a	-1.3452332
123	0x3dc202d3	0.09473195
124	0x3ef715df	0.48258874
125	0xbed45d52	-0.41477448
126	0x3e34fd8c	0.17674845
127	0x3fa9adae	1.3256128
128	0x3f714007	0.9423832
129	0xbd1b12b9	-0.037859652
130	0xbf114077	-0.5673899
131	0x3fbeb63b	1.4899362
132	0xbb06967c	-0.0020536473
133	0xbeba9cef	-0.36447856
134	0xbc2ed2a9	-0.0106703425
135	0xbe4384ce	-0.1909363
136	0x3ebf585d	0.37372103
137	0x3f859522	1.0436137
138	0xbdc815cc	-0.097697824
139	0xbf93171e	-1.149143
140	0xbfac75bc	-1.347343
141	0x3ebdf3c5	0.37100044
142	0x3cdfac8d	0.027303958
143	0xbf9dc5dd	-1.2326008
144	0xbe7cac2e	-0.24675056
145	0x4013a0d6	2.3066916
146	0xbfd75c43	-1.6825031
147	0xbef8e877	-0.48614857
148	0x3e9e6768	0.30938268
149	0x406f32de	3.7374797
150	0x3ee8a978	0.45441794
151	0xbf053db1	-0.5204726
152	0x3fa8c9e5	1.3186613
153	0xbe9e1508	-0.3087542
154	0xbdb371e0	-0.08761954
155	0x40379ecd	2.8690674
156	0x3eed7d6d	0.46384755
157	0xbf9102d0	-1.1328983
158	0x3e5ff47b	0.21870606
159	0xbe448365	-0.19190748
160	0xbf107f6b	-0.56444424
161	0xbf4d66dd	-0.8023508
162	0xbf092c1e	-0.5358294
163	0xbfa68e1a	-1.3012116
164	0xc00d0833	-2.2036254
165	0x3e78f011	0.24310328
166	0xbe205f75	-0.15661414
167	0xc03c8b60	-2.9460068
168	0x3b6ba004	0.003595353
169	0xbe919466	-0.28433532
170	0xbfdef107	-1.7417306
171	0x3eb384b9	0.35062197
172	0xbe106fe2	-0.1410518
173	0xc0887d36	-4.2652845
174	0xbeee7a79	-0.46577814
175	0x400b9286	2.180818
176	0x40613917	3.5191095
177	0xbe68797b	-0.22702591
178	0x3d07da5a	0.03316722
179	0x402e9e43	2.7284095
180	0x3d76930d	0.060198832
181	0xbebff512	-0.3749166
182	0x3e82705f	0.25476357
183	0x3ead02a2	0.3379107
184	0xbe522029	-0.2052008
185	0x3ec396d3	0.38201007
186	0xbe663a24	-0.22483116
187	0x3e43ac47	0.19108687
188	0xbe882fe4	-0.26599038
189	0xbedd9da2	-0.43284327
190	0xbe653fde	-0.22387645
191	0x3e144aa2	0.14481595
192	0x3f14d901	0.5814362
193	0xbf7c4c30	-0.9855375
194	0xbff60dee	-1.9223001
195	0x3e21193e	0.15732285
196	0x3e3485a1	0.176291
197	0x3eb5bdd7	0.354964
198	0x3dc862c2	0.097844616
199	0xbf450cf5	-0.76972896
200	0x3f97c372	1.185652
201	0x3c69c48a	0.01426805
202	0xbdeeeba4	-0.11666039
203	0x3ffe6f92	1.9877799
204	0xbe9d8cb4	-0.3077141
205	0xbeaa9618	-0.33317637
206	0x3ec1d290	0.3785596
207	0xbe9a4a9c	-0.30135047
208	0xbad22768	-0.0016033472
209	0xbd62992b	-0.055321854
210	0xbdb20dba	-0.086940244
211	0xbfec613f	-1.8467177
212	0x404807f2	3.125485
213	0xbed0223f	-0.40651128
214	0x3e72aaa9	0.23697914
215	0xc0422be8	-3.0339298
216	0x3ee6f104	0.45105755
217	0xc01cb911	-2.4487956
218	0xbfafdc95	-1.3739191
219	0xbeb13c7e	-0.34616464
220	0x3ea50b6e	0.32235283
221	0xbfbae3e4	-1.4600797
222	0xbeecef03	-0.462761
223	0x3fb9ad74	1.4506059
224	0x3d96da5e	0.07365869
225	0x3e34df6c	0.17663354
226	0xbe2bc312	-0.16773632
227	0xc05974fb	-3.397765
228	0x3e622b69	0.22086872
229	0xbe0920c5	-0.13391407
230	0x3fce817f	1.6133269
231	0xbe994b81	-0.29940417
232	0xbdca8138	-0.09887928
233	0x3e8c9bf8	0.27462745
234	0xbe9d4685	-0.30717865
235	0xbd1fa110	-0.03897196
236	0xbe9dcd95	-0.3082091
237	0x3ed33728	0.41253018
238	0xbe81c3c0	-0.25344658
239	0x3ed6ae51	0.41929868
240	0x3d407795	0.046989042
241	0xbd326aaf	-0.043558773
242	0xbef3fdf0	-0.47654676
243	0x3ec32442	0.381136
244	0xbec87386	-0.39150637
245	0xbebfc97b	-0.37458405
246	0x3e244f70	0.16045928
247	0xbe566920	-0.2093854
248	0x3e9000bd	0.28125563
249	0xbec5e610	-0.38652086
250	0xbc94b0fa	-0.018150795
251	0xbae1d977	-0.0017230947
252	0xbead5fac	-0.33862054
253	0x3f16b5b8	0.5887103
254	0xbfbbfdde	-1.4686849
255	0x3ea9fe03	0.33201608

conv1.fc_self.bias f4 [50]
0	0xbd10236c	-0.03519003
1	0x3d9c68e4	0.07637194
2	0xbea76142	-0.3269139
3	0xbd9c5900	-0.07634163
4	0xbed2ed0a	-0.4119647
5	0xbeba6963	-0.3640853
6	0xbe8b753d	-0.27237883
7	0x3eb577db	0.35443005
8	0xbe74bb3c	-0.23899549
9	0x3e05450e	0.13014624
10	0x3db89258	0.09012288
11	0xbe6cd709	-0.23128904
12	0xbe2abbd5	-0.16673215
13	0x3df25ede	0.11834501
14	0x3e9aaff5	0.3021237
15	0xbc58fbc6	-0.013243621
16	0xbe1d24d2	-0.15346077
17	0xbe7e385a	-0.24826184
18	0xbe8c98e6	-0.27460402
19	0x3b65c7f0	0.00350618
20	0x3de666ac	0.11250052
21	0x3eb29b52	0.34884125
22	0xbdb8a0e0	-0.090150595
23	0x3d69312f	0.05693167
24	0x3e826f18	0.25475383
25	0xbe01b49d	-0.12666555
26	0x3d54079a	0.051765062
27	0x3e358892	0.17727879
28	0xbea135ef	-0.3148646
29	0x3e796fc9	0.24359049
30	0xbec7ffcc	-0.39062345
31	0xbdcc5959	-0.09977979
32	0xbe7448ac	-0.23855847
33	0x3e11776f	0.14205717
34	0xbec7261b	-0.3889626
35	0x3e509db4	0.20372659
36	0xbb7933ca	-0.0038025253
37	0xbd87a4e9	-0.06623251
38	0x3ebc2ff8	0.36755347
39	0xbe391fbf	-0.18078516
40	0xbece9b5a	-0.403529
41	0xba49fe5d	-0.00077054446
42	0xbe6ec901	-0.23318864
43	0xbd0abdbc	-0.03387235
44	0xbc81ff13	-0.0158687
45	0x3e95b574	0.2924
46	0xbd02fe80	-0.03198099
47	0x3e9eab66	0.30990142
48	0xbe92aaf4	-0.28646052
49	0xbe68737f	-0.22700308

conv2.weight f4 [50, 40]
0	0xbcb0a399	-0.021562384
1	0x3e0e56bf	0.13900279
2	0x3d83223b	0.06403013
3	0xbda49306	-0.08035855
4	0xbe82f223	-0.2557536
5	0xbe3cd5b1	-0.18440892
6	0xbdef0d82	-0.11672498
7	0xbd25bd25	-0.040463585
8	0x3afa0ebc	0.0019077878
9	0xbe1d5602	-0.1536484
10	0x3de01778	0.10941976
11	0xbe53f4b9	-0.20698823
12	0x3cb61e96	0.022231381
13	0x3a8009d5	0.0009768555
14	0x3e47cf61	0.19512703
15	0x3c0a99f3	0.008459556
16	0xbd8e2c7d	-0.06942079
17	0x3e602d7d	0.21892352
18	0xbe505271	-0.20343949
19	0x3d9db37a	0.07700248
20	0xbdb8de91	-0.09026826
21	0xbe422f34	-0.18963319
22	0xbe2ef1cd	-0.17084427
23	0xbd8e3eeb	-0.069455944
24	0x3e232213	0.15930967
25	0x3e62279b	0.22085421
26	0xbe2b2d2d	-0.16716452
27	0x3de4fb33	0.11180725
28	0x3e019965	0.12656172
29	0xbe7609bd	-0.24027152
30	0x3d929490	0.07157242
31	0xbbb754d0	-0.0055948272
32	0x3e63ad3a	0.2223405
33	0xbdf411a1	-0.11917425
34	0x3ce8fbc0	0.028440356
35	0x3d381a0b	0.04494671
36	0x3da3638b	0.07977971
37	0xbdb1be68	-0.08678895
38	0x3dbb2a4a	0.091389254
39	0xbdc07dba	-0.093989804
40	0xbe81a37c	-0.2532004
41	0x3daa315a	0.08310194
42	0x3cb32507	0.021868242
43	0x3e574c9e	0.21025321
44	0xbe199c81	-0.15001108
45	0xbe832884	-0.25616848
46	0x3e2465ce	0.1605446
47	0xbdfccdf8	-0.12343973
48	0xbd9a2458	-0.07526463
49	0xbd5c33fb	-0.05376051
50	0x3e44b443	0.1920939
51	0xbdd3e095	-0.1034557
52	0x3d05b33b	0.03264163
53	0xbde5b279	-0.112156816
54	0xbe7745e5	-0.24147756
55	0x3d7e6068	0.06210366
56	0x3e5fb3a2	0.21845868
57	0xbe4345ed	-0.19069643
58	0xbca78e32	-0.020453546
59	0xbdad7fd3	-0.08471646
60	0x3cff5f50	0.031173378
61	0x3d93ed0c	0.072229475
62	0x3d9b4938	0.07582325
63	0xbdf5c3f4	-0.12000266
64	0x3e708f70	0.23492217
65	0xbe79192a	-0.24326006
66	0x3de94af4	0.11391249
67	0x3c522ad7	0.012827597
68	0x3d9086eb	0.070569836
69	0xbe0c9383	-0.13728146
70	0xbd8ed6b9	-0.06974549
71	0xbcd1a3ac	-0.02559074
72	0xbde53c1f	-0.11193108
73	0xbe1f9b39	-0.15586556
74	0xbe1afa91	-0.15134646
75	0xbd797cb9	-0.06090996
76	0x3db3809c	0.08764765
77	0xbe61e1a8	-0.22058737
78	0x3da3cb25	0.07997731
79	0xbc0731e2	-0.008251639
80	0x3e818811	0.25299123
81	0x3e6caf7a	0.23113814
82	0xbe892e46	-0.26793116
83	0xbdaeb5ab	-0.08530744
84	0xbd926c66	-0.071495816
85	0x3ea672c5	0.32509437
86	0x3e0b62bd	0.13611884
87	0x3e315602	0.17317966
88	0x3dac63a8	0.084174454
89	0x3e0d5812	0.13803127
90	0xbe81c2f5	-0.25344053
91	0x3ca4bc1b	0.020109227
92	0xbc57c284	-0.013168935
93	0xbd1aafa8	-0.037765175
94	0xbf340425	-0.70318824
95	0xbe611d6c	-0.2198388
96	0xbc8195dc	-0.015818529
97	0xbe5a4303	-0.21314625
98	0x3e3061e1	0.17224838
99	0x3f038ed1	0.51389796
100	0x3dccdc63	0.10002973
101	0x3e499958	0.19687402
102	0xbdb35e74	-0.0875825
103	0xbe11825a	-0.14209881
104	0x3e40d595	0.18831475
105	0x3d1d98f1	0.038475934
106	0xbc458add	-0.012057033
107	0xbe6b9ca2	-0.2300897
108	0xbdf67293	-0.12033572
109	0x3e67f35d	0.2265143
110	0xbd8e7f4a	-0.06957872
111	0xbe3ee74e	-0.18642923
112	0x3ecc43cf	0.39895484
113	0x3e7293d0	0.23689198
114	0xbe87a584	-0.26493466
115	0x3dbea411	0.09308637
116	0x3e8fd8b6	0.28095025
117	0xbd96f0d1	-0.07370151
118	0x3e817b7a	0.25289518
119	0x3ea49942	0.32148176
120	0xbce2d019	-0.02768712
121	0xbd9856a8	-0.07438403
122	0xbe1e6a68	-0.15470278
123	0x3df73abd	0.1207175
124	0x3e4875c2	0.19576171
125	0x3d23064b	0.039800923
126	0xbccb7c9d	-0.024839694
127	0x3d8da78b	0.06916722
128	0x3de6f05a	0.11276312
129	0xbe7602b2	-0.24024466
130	0xbec614fb	-0.38687882
131	0xbf6712b2	-0.902629
132	0xbef18946	-0.47175044
133	0xc0083c65	-2.1286862
134	0x3e67670b	0.22597902
135	0xbe9ec22e	-0.31007522
136	0x3ebb6dcf	0.36607215
137	0xbe4a8052	-0.19775513
138	0x3e9a3ea3	0.30125913
139	0xbe53071c	-0.20608181
140	0x3d1f0408	0.038822204
141	0xbd467b4e	-0.048457436
142	0xbf219660	-0.6312008
143	0x3c547fdb	0.012969936
144	0xbdb50785	-0.08839325
145	0x3ecf81eb	0.40528807
146	0x3e3da427	0.1851965
147	0x3e61273c	0.21987623
148	0x3e602fd4	0.21893245
149	0xbeaddfcd	-0.3395981
150	0x3e012c6f	0.12614606
151	0xbdd2778e	-0.102767095
152	0xbe27eb64	-0.16398388
153	0x3e28ffd2	0.16503838
154	0xbe516b22	-0.20451024
155	0x3ea8466f	0.32866237
156	0xbb7d5447	-0.003865497
157	0xbe638a38	-0.22220695
158	0x3eb9cbd0	0.3628831
159	0xbe667799	-0.2250656
160	0xbe82115c	-0.2540387
161	0x3dd07b55	0.10179774
162	0x3eacb667	0.33732912
163	0x3e8b84d6	0.27249783
164	0xbdc515e0	-0.09623313
165	0x3f32acc8	0.69794893
166	0x3d27875c	0.040900573
167	0xbe04a487	-0.12953387
168	0xbe93746c	-0.2879976
169	0x3e862eca	0.26207572
170	0xbe8e8a27	-0.27839777
171	0xbe4541ab	-0.19263332
172	0x3e0f2c9a	0.13981858
173	0xbd213061	-0.03935278
174	0xbfa37cdc	-1.2772479
175	0xbcebd8ba	-0.028789867
176	0xbd8f66f5	-0.07002059
177	0xbe24eb9b	-0.16105501
178	0x3e564239	0.209237
179	0x3ec79b58	0.38985705
180	0x3efefeec	0.49803865
181	0xbe6fe2c2	-0.23426345
182	0x3ec7e8e4	0.3904487
183	0xbd659058	-0.05604586
184	0x3eb47709	0.35247067
185	0x3d2fdbbb	0.04293416
186	0xbdb65f67	-0.08904915
187	0x3e59934e	0.21247599
188	0x3d401ee8	0.046904474
189	0xbd4fb6aa	-0.05071131
190	0x3cebadfe	0.02876949
191	0xbe71141e	-0.2354283
192	0x3e4fc144	0.20288569
193	0x3ea1e723	0.31621656
194	0xbe0b583b	-0.13607876
195	0x3e985e0d	0.29759255
196	0x3e99b0f9	0.30017832
197	0xbe4814c3	-0.1953917
198	0xbd73d7fd	-0.059532154
199	0x3ec52226	0.38502616
200	0x3ead911e	0.33899778
201	0xbf0d6879	-0.5523754
202	0x3e5357f4	0.2063902
203	0x3e48b2fb	0.19599526
204	0x3e2b68ab	0.16739146
205	0x3d0584cf	0.03259736
206	0xbeb9d19a	-0.36292726
207	0xbd12c2b3	-0.03583021
208	0xbdba9541	-0.09110499
209	0xbc5d601b	-0.013511683
210	0xbe029410	-0.12751794
211	0xbe41f8b1	-0.18942524
212	0xbe855af1	-0.26045945
213	0x3da43f3f	0.08019876
214	0x3d3b3fa5	0.045714993
215	0x3e881bb3	0.26583633
216	0xbd08fa60	-0.0334419
217	0x3cb6dd76	0.022322398
218	0xbc88ecd9	-0.0167145
219	0x3e68b632	0.22725752
220	0x3e080f8d	0.13287182
221	0x3d16d8ea	0.03682796
222	0x3d78b518	0.06071958
223	0xbc075140	-0.008259118
224	0xbd00ee86	-0.031477474
225	0x3e1baa81	0.15201761
226	0x3dc0ccba	0.094140485
227	0xbd2d4452	-0.042301483
228	0xbdbc24a4	-0.09186676
229	0xbc9b8ea3	-0.018988913
230	0x3d9f686d	0.077835895
231	0xbb709dfe	-0.0036715264
232	0x3c6cfe4e	0.014464928
233	0x3e219e32	0.15783003
234	0xbe418ea6	-0.18902072
235	0xbe1c1b6f	-0.1524484
236	0xbce01867	-0.027355386
237	0x3ed7c39c	0.42141426
238	0x3ea7d05a	0.32776147
239	0x3e0cbf0f	0.13744758
240	0x3d88072c	0.06641993
241	0xbdbc5c8c	-0.091973394
242	0x3d930e6a	0.07180484
243	0xbd9fe9a1	-0.07808233
244	0x3d1f90cf	0.03895646
245	0xbd5ba0f8	-0.05362031
246	0xbdfa0c96	-0.12209432
247	0xbe2bb51c	-0.16768306
248	0x3e0ebe97	0.13939892
249	0xbd883ba6	-0.06652002
250	0xbe662e5e	-0.22478625
251	0xbdf8fb07	-0.12157255
252	0xbe5f8bad	-0.21830626
253	0x3e1e7627	0.15474759
254	0x3dabf675	0.08396617
255	0x3e805f30	0.25072622

conv2.bias f4 [40]
0	0xbdd3d646	-0.10343604
1	0xbc63c2d3	-0.01390143
2	0xbd1e499e	-0.038644426
3	0xbdddf502	-0.10837747
4	0xbced867e	-0.028994795
5	0xbe4e03c6	-0.20118627
6	0xbdc777c6	-0.09739642
7	0xbd2e94b6	-0.04262229
8	0xbd559556	-0.05214437
9	0x3d8eb797	0.06968611
10	0xbd92e91e	-0.0717337
11	0xbcddac46	-0.027059685
12	0x3e2bfd16	0.16795763
13	0xbe05e3b2	-0.1307514
14	0x3d0fa7db	0.03507219
15	0x3e4c99de	0.1998057
16	0x3d955e2e	0.07293354
17	0xbc92c97d	-0.017918343
18	0x3df3f3a2	0.11911704
19	0xbeebb7fb	-0.46038803
20	0x3cff2a6a	0.031148154
21	0xbcbdced0	-0.023169905
22	0xbdfb3ff5	-0.12268058
23	0xbe34c430	-0.17652965
24	0x3c04521f	0.00807622
25	0xbf255ca4	-0.64594483
26	0xbd0654a4	-0.032795563
27	0xbd666636	-0.05624982
28	0x3e2a263c	0.16616148
29	0x3dad9c47	0.08477073
30	0x3dfe23ce	0.12409173
31	0x00000000	0.0
32	0x3de38081	0.111084945
33	0xbc7b0e85	-0.015323286
34	0xbd36bcbd	-0.04461359
35	0xbe0a6a44	-0.135171
36	0xbcdb4345	-0.026765475
37	0xbd8a6f3d	-0.06759498
38	0xbd8dc714	-0.06922737
39	0x3e0178ed	0.12643786

conv3.fc_neigh.weight f4 [30, 40]
0	0x3eeb7369	0.45986488
1	0xbf14846a	-0.5801455
2	0x3dd03989	0.10167224
3	0x3da667eb	0.081252895
4	0xbdc9c92e	-0.09852825
5	0xbee201cd	-0.44142
6	0x3d94758a	0.07248981
7	0xbed7b4dd	-0.42130175
8	0xbeb64d0e	-0.35605663
9	0x3e946e43	0.28990373
10	0xbeba6c72	-0.36410862
11	0xbf01e3c1	-0.5073815
12	0xbf47f6fe	-0.78111255
13	0xbc0a28f9	-0.00843262
14	0x3e465b62	0.19370797
15	0x3e16f726	0.14742717
16	0xbf6963e5	-0.9116805
17	0xbdf6558e	-0.12028037
18	0xbef6d9fe	-0.4821319
19	0xbebd1cb9	-0.36935976
20	0xbf4c2eee	-0.7975911
21	0x3d392073	0.04519696
22	0xbef44e6c	-0.4771608
23	0xbd3ccbc2	-0.046092756
24	0xbe0aa5eb	-0.13539855
25	0x3e89aaec	0.26888216
26	0x3eaa9232	0.33314663
27	0x3ec032b3	0.3753868
28	0xbd368d86	-0.04456856
29	0xbdb676f8	-0.0890941
30	0xbef54899	-0.4790695
31	0xbe9f8077	-0.31152698
32	0xbf39ba16	-0.7254957
33	0x3f0a61de	0.54055583
34	0xbc900b12	-0.017583404
35	0x3d35b136	0.044358455
36	0xbea27539	-0.3173006
37	0xbec1308c	-0.3773235
38	0x3e3bda43	0.18344979
39	0x3ebd3818	0.3695686
40	0x3e98a79f	0.29815385
41	0x3ddf00e6	0.10888843
42	0xbe8eba7e	-0.27876657
43	0x3da767bc	0.08174083
44	0xbc36442a	-0.01112465
45	0xbf11b95e	-0.5692347
46	0xbdd4af15	-0.10384957
47	0xbc1cfd98	-0.009581946
48	0xbe83af3d	-0.25719634
49	0x3e3739a4	0.17893082
50	0xbec8630b	-0.39138064
51	0xbf134eec	-0.575423
52	0x3f45184d	0.76990205
53	0xbe9e53c3	-0.3092328
54	0xbeb78aa3	-0.3584796
55	0x3d86eb66	0.065878674
56	0xbe744130	-0.23852992
57	0xbea97cf2	-0.33103138
58	0xbf15d24e	-0.58524024
59	0xbe9976ff	-0.299736
60	0xbe8ef5d0	-0.27921915
61	0xbd8dfae7	-0.069326214
62	0x3d84c56a	0.06482966
63	0xbe371988	-0.17880833
64	0x3ca21526	0.019785475
65	0xbee9fcd7	-0.45700714
66	0xbec6f401	-0.38858035
67	0xbeaf8580	-0.3428154
68	0x3ee034ee	0.43790382
69	0x3ea58504	0.32328045
70	0x3e874a0f	0.2642369
71	0xbe879af3	-0.26485404
72	0xbf1436e2	-0.57896245
73	0xbd4fc0aa	-0.05072085
74	0xbe8159fb	-0.25263962
75	0xbf277691	-0.6541529
76	0xbedd6dfe	-0.4324798
77	0x3e1a89e9	0.15091671
78	0x3e8f0864	0.2793609
79	0x3ed9c4ed	0.42533055
80	0xbee5f36a	-0.44912273
81	0x3eaaf36a	0.33388835
82	0xbd5ef092	-0.054428644
83	0xbe42c5da	-0.19020787
84	0xbe0a4f07	-0.13506709
85	0xbe63e409	-0.22254957
86	0x3ebd48b5	0.36969534
87	0xbea8eaa4	-0.32991517
88	0x3ea6600a	0.32495147
89	0xbedd8581	-0.43265918
90	0x3e1dc5ba	0.15407458
91	0x38b7184a	8.730644e-05
92	0x3d5cc260	0.053896308
93	0x3e61e119	0.22058524
94	0xbea7e7a0	-0.32793903
95	0x3e8dbfe6	0.2768547
96	0xbe06ec3c	-0.13176054
97	0x3d5127c3	0.05106331
98	0xbe896621	-0.2683573
99	0xbdab63a9	-0.08368618
100	0x3c5990c8	0.013279147
101	0x3eab8ba7	0.33504984
102	0xbd00ccdf	-0.03144538
103	0x3e97ae11	0.2962499
104	0xbe0a085a	-0.13479748
105	0xbe86cb36	-0.26326913
106	0xbe925813	-0.2858282
107	0xbe6514ee	-0.22371265
108	0x3dd5fb5a	0.10448332
109	0x3e3ad812	0.18246487
110	0xbec5fb7b	-0.38668427
111	0x3d7101de	0.05883967
112	0xbdd94286	-0.106083915
113	0xbe43225c	-0.19056076
114	0xbe0583e8	-0.130386
115	0x3e34f272	0.1767061
116	0xbdee9849	-0.1165014
117	0x3da6aaa2	0.081380144
118	0x3ea2441a	0.31692582
119	0x3d9a92f4	0.0754756
120	0xbe39ac09	-0.18132032
121	0xbe940dbb	-0.28916726
122	0xbec41918	-0.38300395
123	0xbec2db58	-0.3805797
124	0x3e7eb0a0	0.24872065
125	0xbea52eab	-0.32262167
126	0x3e76d53c	0.2410478
127	0xbee1e8e1	-0.44122985
128	0x3de199e8	0.110156834
129	0xbddd22dc	-0.107976645
130	0x3e5af2c2	0.21381667
131	0xba8ed155	-0.0010896126
132	0xbc86511f	-0.016396103
133	0xbe8b0c31	-0.2715774
134	0x3ec517ec	0.38494813
135	0xbe91e3a7	-0.28493997
136	0xbed8a757	-0.4231517
137	0x3ecbac23	0.39779767
138	0xbccc5c6a	-0.02494641
139	0x3eb1a31d	0.34694758
140	0x3e3f9c47	0.18711959
141	0xbec268d3	-0.379706
142	0xbec3676f	-0.3816485
143	0x3dd33f90	0.10314858
144	0xbeca31d4	-0.3949114
145	0x3e365f49	0.17809786
146	0x3e404f4f	0.18780254
147	0x3e142a1b	0.14469187
148	0xbdc3e59c	-0.09565279
149	0x3e2e6356	0.17030081
150	0xbbcf071b	-0.0063179857
151	0x3e96ce8b	0.29454455
152	0x3e15c8f4	0.14627439
153	0xbd9f758c	-0.07786092
154	0x3e154715	0.14577897
155	0x3e519c2a	0.20469728
156	0xbe0f5f1d	-0.14001127
157	0x3e0736a0	0.13204432
158	0x3db81edb	0.0899026
159	0xbe96e7ac	-0.29473627
160	0xbe95206e	-0.29126304
161	0xbe19e708	-0.15029538
162	0xbef0072d	-0.46880475
163	0xb8c600fc	-9.441559e-05
164	0x3e8e52fd	0.2779769
165	0x3ec95e18	0.393296
166	0x3f1128d6	0.56702936
167	0x3e8a3275	0.2699162
168	0xbe53e90d	-0.2069437
169	0x3f447e67	0.76755375
170	0x3cca42f5	0.02469013
171	0x3ec75b32	0.38936764
172	0x3ea32230	0.3186202
173	0xbe1f82c1	-0.15577222
174	0xc00e71b2	-2.2256894
175	0xbe3206d1	-0.17385413
176	0x3ecaeb29	0.39632538
177	0x3e7bf99f	0.24606942
178	0x3e29b7df	0.16574048
179	0x3ec097fc	0.37615955
180	0x3e9d1241	0.3067799
181	0x3e39f220	0.1815877
182	0x3e42b21b	0.19013254
183	0x3e018f93	0.12652425
184	0x3ea8c662	0.32963854
185	0x3eb66277	0.35621998
186	0x3ebae25b	0.3650082
187	0xbec4da9a	-0.3844803
188	0x3e17ce06	0.14824685
189	0xbeea4096	-0.457524
190	0xbebf0b60	-0.37313366
191	0x3daa85e0	0.08326316
192	0x3e8a97ed	0.27069035
193	0x3eeaa1fd	0.45826712
194	0x3e09c335	0.13453372
195	0x3e6bb7d0	0.23019338
196	0x3e0aa42a	0.13539186
197	0xbeb8b800	-0.3607788
198	0x3d88b669	0.06675417
199	0x3e3db6c9	0.18526758
200	0x3d392b8b	0.04520754
201	0x3df08f4c	0.11746082
202	0xbd3c7874	-0.04601331
203	0x3e4b7130	0.19867396
204	0xbe7fd41f	-0.24983262
205	0xbea0eec4	-0.31432164
206	0x3e232433	0.15931778
207	0xbe2adcda	-0.1668581
208	0x3e435fae	0.19079468
209	0x3ea81023	0.3282481
210	0xbebbc73b	-0.36675438
211	0xbebb0dff	-0.36534116
212	0xbf2b8046	-0.66992605
213	0x3df1c7d6	0.11805694
214	0xbeb1d266	-0.34730834
215	0xbf92f367	-1.148053
216	0xbe9fe20b	-0.31227145
217	0xbe66104c	-0.22467154
218	0x3e831000	0.25598145
219	0xbfab841f	-1.3399695
220	0xbf22b6b4	-0.6356003
221	0xbe070694	-0.13186103
222	0xbeb62e24	-0.35582078
223	0xbd806d85	-0.06270889
224	0x3e1ca566	0.1529747
225	0xbf06916a	-0.52565634
226	0x3ebbdbbd	0.36691085
227	0xbeb7efe5	-0.35925213
228	0x3ec64b23	0.387292
229	0x3e7d1fb4	0.24719125
230	0x3e559fc5	0.20861728
231	0xbe3382cc	-0.17530364
232	0xbe857052	-0.26062256
233	0xbec21e99	-0.3791397
234	0xbec59a8f	-0.3859448
235	0x3dc28703	0.09498408
236	0xbf5022a1	-0.8130284
237	0x3e24e584	0.16103178
238	0x3ecbbf61	0.39794448
239	0x3e29ca28	0.16581023
240	0x3e4da8e2	0.20083955
241	0xbf3b8a82	-0.7325822
242	0xbdd6c56e	-0.104868755
243	0xbb957360	-0.004560873
244	0x3e5ea378	0.21742046
245	0xbd9f9598	-0.077922046
246	0x3e7adec8	0.24499047
247	0x3ea163f9	0.31521586
248	0xbea3cff5	-0.31994596
249	0xbe30cfee	-0.17266819
250	0x3efc9a6b	0.49336562
251	0x3efc2f6b	0.49254927
252	0xbece122f	-0.40248248
253	0xbca125e6	-0.019671392
254	0x3d8f2b41	0.06990672
255	0x3df58225	0.11987714

conv3.fc_self.weight f4 [30, 40]
0	0x3e692e89	0.22771658
1	0x3e3a4458	0.18190134
2	0xbd498a02	-0.04920388
3	0x3e2ae5c0	0.16689205
4	0x3d707a10	0.058710158
5	0x3e4e8be3	0.2017055
6	0x3f2ab1f8	0.6667781
7	0x3e8a9459	0.27066305
8	0xbc0a75b4	-0.008450914
9	0xbede87a9	-0.43462875
10	0x3dd3da26	0.10344343
11	0x3e7e3483	0.24824719
12	0xbe1dc471	-0.15406968
13	0x3d206f96	0.039168917
14	0xbfb2382a	-1.392339
15	0xbd8be8ad	-0.06831489
16	0xbf519540	-0.8186836
17	0x3da25b78	0.079276025
18	0xbf60cb50	-0.8781023
19	0x3ef5b10d	0.47986642
20	0xbee6f7ed	-0.45111027
21	0xbd1892fd	-0.037249554
22	0x3e9f4e80	0.31114578
23	0xbd9c1f13	-0.076231144
24	0xbe976a24	-0.29573166
25	0xbeb57089	-0.3543742
26	0xbe62aba0	-0.22135782
27	0xbe83ff42	-0.25780684
28	0xbe8d8104	-0.27637494
29	0xbda4b039	-0.08041424
30	0xbe6b9254	-0.23005038
31	0xbeb04f18	-0.34435344
32	0x3e796780	0.24355888
33	0x3e8d829a	0.27638704
34	0x3da367c4	0.07978776
35	0x3d82a0dd	0.063783385
36	0xbe616295	-0.22010262
37	0x3dc1a06b	0.094544254
38	0x3ecc9012	0.39953667
39	0x3e59922e	0.2124717
40	0xbe0b994d	-0.13632698
41	0x3e459a32	0.19297102
42	0x3ec7c885	0.39020172
43	0x3f015a77	0.50528663
44	0x3e1c837b	0.15284531
45	0xbd0c027f	-0.034182068
46	0x3ea7c40e	0.32766765
47	0x3e9a20c3	0.3010312
48	0xbee7a5e9	-0.45243767
49	0xbe60b2bc	-0.21943182
50	0x3e9c356d	0.3050951
51	0xbe939b35	-0.2882935
52	0xbf0317ca	-0.51208174
53	0x3e64c15f	0.2233939
54	0xbf672166	-0.90285337
55	0x3de8b388	0.11362368
56	0xbea78b82	-0.32723624
57	0x3ec164a6	0.377721
58	0xbf02a4f1	-0.5103293
59	0x3ee7d7b3	0.45281753
60	0x3d84bc3c	0.06481215
61	0xbe59d453	-0.21272402
62	0x3cbc7313	0.02300409
63	0x3e48ccd7	0.1960939
64	0xbd953862	-0.07286145
65	0xbd9ec1d0	-0.077518106
66	0xbe55b637	-0.2087029
67	0x3ee93236	0.4554612
68	0xbebd4bb7	-0.36971828
69	0x3eb35961	0.35029128
70	0xbed45525	-0.4147121
71	0xbe9b5f33	-0.3034607
72	0x3d8c6adb	0.068563186
73	0x3e926425	0.2859203
74	0xbe93c919	-0.28864363
75	0xbe6659e6	-0.22495231
76	0x3e86ca38	0.26326156
77	0x3eb132d7	0.346091
78	0xbe4127c7	-0.1886283
79	0x3edcac13	0.43100032
80	0xbd45c190	-0.0482803
81	0x3ebe2a57	0.37141678
82	0xbec3b11e	-0.38221067
83	0x3e856f86	0.26061648
84	0x3c611b72	0.013739454
85	0xbe5b9e48	-0.21447098
86	0x3ec3f3ea	0.3827203
87	0xbe88d505	-0.2672502
88	0x3e404731	0.18777157
89	0x3e8715a5	0.263837
90	0xbdf2fcde	-0.11864637
91	0xbed8af15	-0.42321077
92	0x3e656703	0.22402577
93	0x3dd841e7	0.10559445
94	0xbea6df35	-0.32592168
95	0xbd91c980	-0.07118511
96	0x3e90a1ea	0.2824853
97	0x3ec419ee	0.38301033
98	0xbe098205	-0.13428505
99	0xbe6f900e	-0.23394796
100	0x3def002c	0.11669955
101	0xbdd7e291	-0.10541261
102	0xbe47f15d	-0.19525667
103	0xbea53c34	-0.32272494
104	0xbec8b125	-0.3919765
105	0x3cc06f6f	0.023490636
106	0xbd8d8fd4	-0.06912199
107	0xbcb4e316	-0.02208094
108	0x3e54f1b8	0.20795333
109	0x3eb9744b	0.36221537
110	0x3e821ed4	0.25414145
111	0x3ebddcef	0.3708262
112	0x3d7b5542	0.061360605
113	0xbebf6d9c	-0.37388313
114	0xbe64108e	-0.2227194
115	0x3e758fea	0.2398068
116	0xbeae64c3	-0.3406125
117	0xbe72c459	-0.23707713
118	0xbeac5f51	-0.3366647
119	0x3eaa4e7b	0.33263
120	0xbea7df42	-0.3278752
121	0x3e8e5221	0.27797034
122	0xbe985223	-0.29750165
123	0x3ea97ccc	0.33103025
124	0x3e488ef0	0.19585776
125	0x3de2ca32	0.11073722
126	0xbeb9245f	-0.3616056
127	0xbea33d58	-0.3188274
128	0xbec3b9a5	-0.38227573
129	0x3ba53788	0.00504202
130	0xbed557bd	-0.41668501
131	0xbe956c07	-0.2918398
132	0xbeb58814	-0.35455382
133	0x3e505ee3	0.20348696
134	0x3e87950b	0.26480898
135	0xbea494d0	-0.32144785
136	0x3dcc6bab	0.099814735
137	0xbe12363e	-0.14278504
138	0xbcc35c19	-0.023847627
139	0x3e74a65f	0.2389159
140	0xbdd5564d	-0.10416851
141	0x3ec025b6	0.3752877
142	0x3d66952d	0.05629461
143	0x3dff8588	0.12476641
144	0x3dc1adc6	0.09456973
145	0xbe8cc2fd	-0.27492514
146	0x3d8c314b	0.068453394
147	0xbe9ed448	-0.31021333
148	0xbea36ac5	-0.31917396
149	0x3d3522b4	0.04422255
150	0x3daa8a84	0.08327201
151	0xbdca2240	-0.09869814
152	0xbd450f15	-0.048110086
153	0xbdf1ad44	-0.11800626
154	0x3d2f7706	0.04283812
155	0xbe87fb15	-0.26558748
156	0xbe2a030f	-0.1660273
157	0xbe89841f	-0.26858613
158	0xbe96bcc0	-0.2944088
159	0x3e4948b1	0.19656636
160	0xbfee316d	-1.8608834
161	0xbec1dd23	-0.37864026
162	0xbf7e0d5a	-0.9923912
163	0xbf797ea9	-0.97458893
164	0xbebd35c0	-0.3695507
165	0x3e00378d	0.12521191
166	0x3e7a4013	0.24438505
167	0xbee21431	-0.4415603
168	0x3c698376	0.014252534
169	0x3d202287	0.039095428
170	0xbefd5a6e	-0.49483055
171	0x3b8b4bd6	0.0042509837
172	0x3e714a53	0.23563509
173	0xbeb25085	-0.34827057
174	0xbf2c1e14	-0.67233396
175	0xbf995c08	-1.1981211
176	0xbe0edc03	-0.13951115
177	0xbe553033	-0.20819168
178	0x3d98e8bd	0.07466266
179	0xbeb2dfb1	-0.34936288
180	0x3eee2687	0.4651377
181	0x3e6c0c36	0.23051533
182	0xbe4180db	-0.1889681
183	0xbf9ccf31	-1.225073
184	0x3ed30309	0.41213253
185	0xbf0d1270	-0.5510626
186	0xbec930c4	-0.39295018
187	0x3d619a6c	0.05507891
188	0x3ec77206	0.3895418
189	0x3e3b419f	0.18286751
190	0x3f4202b6	0.75785387
191	0xbe441476	-0.1914843
192	0x3e88565e	0.26628393
193	0x3ec60272	0.3867374
194	0x3e33a5fc	0.17543787
195	0x3f2b796c	0.6698215
196	0x3e7585f6	0.23976883
197	0xbf24dca9	-0.643992
198	0xbe9fc278	-0.31203055
199	0x3eec1d6a	0.4611619
200	0xbca85a47	-0.02055086
201	0xbe064ad0	-0.13114476
202	0x3eb2261b	0.34794697
203	0xbe0dd3b9	-0.13850297
204	0x3e71e5b1	0.23622777
205	0xbee8a5e4	-0.45439065
206	0xbec88884	-0.39166653
207	0xbeb0d2f8	-0.34535956
208	0xbd9a7148	-0.07541138
209	0xbf61a565	-0.88143
210	0xbf9e79c8	-1.2380915
211	0x3e4d8ad8	0.20072496
212	0x3e04fc20	0.12986803
213	0xbebacf4c	-0.3648628
214	0xbfd4b891	-1.6618825
215	0xbf23aa81	-0.63932043
216	0x3e5f66d3	0.21816568
217	0xbe8b3af3	-0.27193412
218	0xbec93717	-0.39299843
219	0xbe026ccf	-0.1273682
220	0xbe85cc9c	-0.26132667
221	0xbe2c3ee3	-0.16820864
222	0xbed1c301	-0.4096909
223	0xbf2bf7d8	-0.67175055
224	0x3d3e0e3e	0.0464003
225	0x3e62fcfc	0.22166818
226	0x3e6ca8eb	0.23111312
227	0xbe9e636b	-0.30935225
228	0xbe1b20f5	-0.15149291
229	0x3e33c8db	0.17557089
230	0xbe7b7f72	-0.24560335
231	0x3c99afad	0.018760527
232	0xbdcb9732	-0.099409476
233	0x3f16057e	0.5860213
234	0xbe7af438	-0.24507225
235	0xbe348d15	-0.17631944
236	0xbf1fd065	-0.6242736
237	0xbe264097	-0.16235577
238	0xbe9b2121	-0.30298713
239	0xbe67085c	-0.22561783
240	0xbed77882	-0.42084128
241	0xbe0f275f	-0.13979863
242	0x3e0d5a25	0.13803919
243	0xbe9bd02e	-0.30432266
244	0xbd261968	-0.040551573
245	0xbdccc4d5	-0.0999848
246	0x3e244794	0.1604293
247	0xbe485080	-0.19561958
248	0x3ec43687	0.3832285
249	0xbe8abc27	-0.27096674
250	0xbf061ad2	-0.52384675
251	0x3d45197d	0.04812001
252	0x3e1dd335	0.154126
253	0xbeac23d7	-0.33621094
254	0x3c9892eb	0.018624743
255	0x3e3e88c9	0.18606867

conv3.fc_self.bias f4 [30]
0	0xbe2ca0d0	-0.1685822
1	0x3e69a1d0	0.22815633
2	0xbdd67b41	-0.104727276
3	0xbdd09603	-0.101848625
4	0x3d43d63b	0.047811728
5	0xbc222cba	-0.009898359
6	0xbd4b4673	-0.049627732
7	0x3d95b3f8	0.07309717
8	0xbe675439	-0.22590722
9	0xbe110b57	-0.14164482
10	0xbd60e25e	-0.05490338
11	0xbadff1ad	-0.0017085575
12	0xbda688d4	-0.08131567
13	0x3a57da1a	0.0008234099
14	0x3e342b0f	0.1759455
15	0xbc4b0f56	-0.012393793
16	0x3d310e00	0.043226242
17	0xbe167355	-0.14692433
18	0xbe34ddb4	-0.17662698
19	0x3ddc679b	0.10761949
20	0xbe553c3b	-0.20823757
21	0x3d72b39d	0.059253324
22	0x3d7e95d9	0.062154625
23	0xbe061623	-0.13094382
24	0x3d08d7ed	0.033409048
25	0xbe14242a	-0.1446692
26	0xbe21eb2c	-0.15812367
27	0x3e383cfd	0.17992015
28	0x3dff3a97	0.12462347
29	0x3de61eea	0.11236365

conv4.fc_neigh.weight f4 [20, 30]
0	0xbf039bc3	-0.5140955
1	0x3deb21a7	0.11481028
2	0xbe81ec86	-0.25375766
3	0xbe49a094	-0.19690162
4	0xbdcebc78	-0.10094541
5	0xbf44c84a	-0.76868117
6	0xbee0078b	-0.43755755
7	0xbe1cb0dc	-0.15301841
8	0xbcce06c0	-0.025149703
9	0xbe4465a7	-0.19179402
10	0x3ebb09fd	0.36531058
11	0x3ee0583b	0.43817315
12	0x3d8cd02b	0.068756424
13	0x3ea325a9	0.3186467
14	0x3e82cfa2	0.25549036
15	0xbe0645b2	-0.13112524
16	0xbf2e1aee	-0.6800984
17	0x3c983f44	0.018584855
18	0xbebfb545	-0.37442985
19	0xbe57f04f	-0.21087764
20	0x3e0826b3	0.13296013
21	0x3f03e9c4	0.51528573
22	0x3f09d313	0.538377
23	0x3da2ea85	0.07954887
24	0xbd091a32	-0.033472247
25	0xbea04b11	-0.3130727
26	0x3d29c260	0.041445136
27	0x3ea9a273	0.3313175
28	0x3ee898bc	0.45429027
29	0x3eaa9451	0.3331628
30	0xbed919f5	-0.42402616
31	0xbe6613d1	-0.22468497
32	0x3ecbf9f0	0.39839125
33	0x3e89aa74	0.26887858
34	0x3e6d30b9	0.23163117
35	0xbc4bc02b	-0.012435953
36	0xbe54acc7	-0.20769034
37	0x3e40ce7c	0.18828768
38	0xbe6321b4	-0.22180825
39	0xbea201f8	-0.31642127
40	0xbeb58cdd	-0.35459033
41	0x3e599801	0.21249391
42	0xbe84e28c	-0.25954092
43	0x3e514be1	0.20439102
44	0xbd781072	-0.06056256
45	0xbe483cf7	-0.19554506
46	0xbefe84b9	-0.49710634
47	0x3e9f19f4	0.31074488
48	0xbd02023d	-0.031740416
49	0xbc9fa577	-0.01948808
50	0xbe862fb4	-0.2620827
51	0x3ce2835f	0.027650533
52	0x3c3cb9bc	0.011518892
53	0xbd28765c	-0.0411285
54	0xbec391c9	-0.38197163
55	0xbe96a4eb	-0.29422697
56	0x3ee1132c	0.4395994
57	0x3e4dbe15	0.20092042
58	0xbecea438	-0.40359664
59	0x3d1db10e	0.03849893
60	0xbdf222e9	-0.11823065
61	0xbe6f9a49	-0.23398699
62	0x3cb63ce1	0.022245826
63	0x3eee7928	0.4657681
64	0x3d2a4bec	0.04157631
65	0xbee78444	-0.45218098
66	0x3f558112	0.8340007
67	0x3f06db2b	0.52678174
68	0x3cdbad5d	0.026816064
69	0x3e2049fd	0.15653224
70	0xbd37eef3	-0.044905614
71	0xbf198659	-0.59970623
72	0xbf2c67d0	-0.67345905
73	0xbc9fd8e7	-0.019512607
74	0x3f3513fa	0.70733607
75	0x3eb7b102	0.35877234
76	0xbdecda7f	-0.11565112
77	0xbd8776b5	-0.066144384
78	0x3dd2ca64	0.10292509
79	0xbc2f88f2	-0.010713803
80	0x3ea09348	0.31362367
81	0xbe58436e	-0.21119472
82	0x3f26ad6e	0.6510838
83	0x3d7b2e95	0.06132372
84	0x3f222543	0.63338107
85	0x3eda1fdd	0.42602435
86	0x3e7da2e8	0.24769175
87	0x3f1e32db	0.6179635
88	0x3d4fafbe	0.05070471
89	0x3ef5c81c	0.48004234
90	0xbe40b293	-0.1881812
91	0xbe088262	-0.13330987
92	0xbe661c44	-0.2247172
93	0x3ede6a68	0.43440557
94	0xbf692994	-0.9107907
95	0xbf80de85	-1.0067908
96	0x3ec27474	0.37979472
97	0xbea6821d	-0.32521144
98	0x3f12c59f	0.57332796
99	0x3ed309e1	0.41218475
100	0xbe0fa22a	-0.14026704
101	0xbe9b57a0	-0.3034029
102	0x3f0d939b	0.55303353
103	0x3f17729f	0.5915927
104	0xbe9f598f	-0.31123015
105	0xbe71b6e6	-0.23604926
106	0x3e971aa4	0.29512513
107	0xbce25efa	-0.027633179
108	0x3e177b18	0.1479305
109	0x3ec14646	0.37748927
110	0x3d9dcefe	0.07705496
111	0x3e4f8ef8	0.20269382
112	0xbeba83c9	-0.3642867
113	0xbef923c7	-0.48660108
114	0x3e1e9ca9	0.15489449
115	0x3e4b8097	0.19873272
116	0xbe97031c	-0.2949456
117	0x3ecd4c6c	0.40097368
118	0xbdbf7134	-0.09347764
119	0xbe605add	-0.21909662
120	0xbec9f6c5	-0.39446083
121	0xbeb3b24f	-0.35096976
122	0x3e378976	0.17923531
123	0xbdf91535	-0.12162248
124	0xbf9c2226	-1.2197921
125	0x3e9f915d	0.3116559
126	0x3ec53024	0.3851329
127	0xbdf89806	-0.12138371
128	0xbe3b6189	-0.18298925
129	0xbf1673b3	-0.58770293
130	0xbd873b91	-0.06603158
131	0x3eaea9a2	0.34113795
132	0xbf7dcaf9	-0.99137837
133	0x3e0458bf	0.12924479
134	0xbed1986a	-0.40936595
135	0xbed77298	-0.42079616
136	0x3e8e6c70	0.27817106
137	0xbeaee2cd	-0.3415741
138	0x3de29aaf	0.1106466
139	0x3ed17d27	0.40915796
140	0x3e3ef17d	0.18646808
141	0x3e43a09c	0.19104236
142	0x3e4dbcfc	0.20091623
143	0x3ebab752	0.36467987
144	0x3ea6a783	0.32549676
145	0x3ef2f78e	0.47454494
146	0xbe83bc2f	-0.2572951
147	0x3f43a2bb	0.7642018
148	0xbeb34a34	-0.3501755
149	0x3ed81546	0.4220373
150	0xbf4318ca	-0.762097
151	0xbe5635cf	-0.20918964
152	0x3eddb8b3	0.43304977
153	0x3ed0b43e	0.40762514
154	0x3ad60d84	0.0016330932
155	0xbe64c56f	-0.2234094
156	0x3ead8c49	0.33896092
157	0xbed884bd	-0.4228877
158	0xbee4f69a	-0.44719392
159	0xbeea5ec3	-0.45775422
160	0x3ea15e81	0.31517413
161	0x3e675728	0.22591841
162	0xbef16735	-0.47149053
163	0x3f36257c	0.71150947
164	0x3ef3380c	0.47503698
165	0xbeda565a	-0.42644006
166	0x3e156b16	0.14591631
167	0x3bb17516	0.005415569
168	0x3ed85c5a	0.4225796
169	0xbdfadada	-0.12248774
170	0xbf1c8656	-0.6114248
171	0x3e2cec59	0.16887034
172	0x3f7c869a	0.98642886
173	0xbe495f3a	-0.19665232
174	0xbf1c8bb5	-0.61150676
175	0xbe992b8c	-0.29916036
176	0xbd9e1b60	-0.07720065
177	0x3ecaf956	0.39643353
178	0xbeda8c5d	-0.42685214
179	0xbeb9db35	-0.36300054
180	0xbeaa9e26	-0.33323783
181	0x3dac2293	0.08405032
182	0xbd622e51	-0.055219952
183	0x3e98c19f	0.2983522
184	0x3f52c3fb	0.8233029
185	0x3f3b30fa	0.7312161
186	0x3f31e5bb	0.69491166
187	0x3d97ed64	0.074183255
188	0x3f046bee	0.5172719
189	0xbe6c268a	-0.23061576
190	0xbe786f44	-0.24261194
191	0xbe87ea4d	-0.26545945
192	0x3f2a0380	0.6641159
193	0xbf034331	-0.512744
194	0xbe6f1517	-0.23347889
195	0x3e092d5f	0.13396214
196	0xbd88c769	-0.066786595
197	0xbed0fd84	-0.40818417
198	0x3eb08f6d	0.34484425
199	0x3eac65bf	0.33671376
200	0x3f1c64bb	0.610912
201	0xbe3bf009	-0.18353285
202	0xbec203be	-0.3789348
203	0x3ea91b3d	0.33028594
204	0x3e83a223	0.25709638
205	0x3e8ccd98	0.27500606
206	0x3ce29afa	0.02766179
207	0x3f3fde79	0.7494884
208	0x3d2ae1ed	0.041719366
209	0x3ef3bced	0.47605076
210	0xbe924e57	-0.28575394
211	0xbf4c5309	-0.798142
212	0xbe7c237f	-0.24622916
213	0x3eee01c5	0.46485725
214	0x3ca8b537	0.020594222
215	0xbec08ea7	-0.37608835
216	0x3dd776a7	0.10520678
217	0x3ec91e07	0.39280722
218	0xc0334cd9	-2.8015654
219	0xbefe17d9	-0.4962757
220	0xbdc6201f	-0.09674095
221	0x3a56ac77	0.00081891514
222	0xbf981d68	-1.1883974
223	0x3e4330f6	0.19061646
224	0xbeeee947	-0.4666235
225	0x3e02e6f0	0.12783408
226	0x3ea59542	0.32340437
227	0x3e8fff93	0.28124675
228	0xbdcaff51	-0.09911979
229	0xbdd4ca81	-0.10390187
230	0x3cfacd06	0.03061534
231	0x3f173036	0.5905794
232	0xbdde0d1d	-0.10842345
233	0x3e4337f1	0.19064309
234	0xbe3d1ef4	-0.18468839
235	0x3e9b7906	0.3036577
236	0x3d31eb38	0.043437213
237	0x3d88e02c	0.066833824
238	0x3eb7f538	0.35929275
239	0x3d419baa	0.047267593
240	0xbf6eb6c7	-0.93247646
241	0x3e3fea17	0.18741642
242	0xbeb0600a	-0.34448272
243	0xbe72ee8b	-0.2372381
244	0x3e98f7bd	0.2987651
245	0xbf64b99a	-0.89345706
246	0x3b506da0	0.0031803623
247	0xbedcc904	-0.43122113
248	0xbe6595cf	-0.22420429
249	0xbef5c204	-0.47999585
250	0x3d82b674	0.063824564
251	0x3e1bc246	0.15210828
252	0xbf4afa94	-0.792886
253	0xbdaab73c	-0.083357304
254	0x3e26798d	0.16257305
255	0x3e4fe734	0.2030304

conv4.fc_self.weight f4 [20, 30]
0	0x3e9d02a8	0.3066609
1	0x3e9a9389	0.30190685
2	0xbe3e8315	-0.18604691
3	0x3ee6c984	0.4507562
4	0x3dfd7e2f	0.12377583
5	0xbdb3bfbb	-0.08776804
6	0xbdda6624	-0.10664013
7	0x3edce215	0.43141237
8	0xbe03690d	-0.12833042
9	0xbf01cd8c	-0.50704265
10	0x3ddee604	0.10883716
11	0xbe29c4a3	-0.16578917
12	0xbe4739c8	-0.19455636
13	0x3e542852	0.20718506
14	0xbec00fca	-0.37512046
15	0xbe2bd38b	-0.16779916
16	0x3f249eee	0.6430501
17	0x3e7d84ee	0.2475774
18	0x3f07e6a3	0.530863
19	0xbe89f023	-0.26941022
20	0xbeef731d	-0.46767512
21	0xbeda692a	-0.4265836
22	0x3f4e2d11	0.80537516
23	0xbee08bf4	-0.43856776
24	0xbdde7d4d	-0.10863743
25	0xbe591fc1	-0.2120352
26	0xbe27435e	-0.16334292
27	0xbef1dd0c	-0.47238958
28	0x3eb16756	0.34649152
29	0x3ed14fe8	0.40881276
30	0xbea3f915	-0.32025972
31	0xbdf5a0f5	-0.11993591
32	0xbe0f0c58	-0.13969553
33	0xbd8a74e9	-0.0676058
34	0x3dbffd65	0.09374503
35	0xbdbb920d	-0.09158716
36	0xbef23102	-0.47303015
37	0xbd787990	-0.060662806
38	0x3e919295	0.28432146
39	0xbedc4a13	-0.43025264
40	0xbeacbbd1	-0.33737043
41	0x3e583b85	0.21116455
42	0x3e982f84	0.29723752
43	0x3ee1da45	0.4411184
44	0xbecd1bb0	-0.40060186
45	0xbe8a4785	-0.2700769
46	0x3e5c7618	0.21529424
47	0x3ef9795c	0.48725402
48	0xbeec0a66	-0.46101683
49	0xbe8c6e7a	-0.27428037
50	0x3cca83ea	0.024721105
51	0x3e533bd0	0.20628285
52	0x3d1d109e	0.038345926
53	0xbe80e6e0	-0.25176144
54	0xbd87175c	-0.06596252
55	0xbd4ea23d	-0.05044769
56	0x3ea7e5e8	0.32792592
57	0x3df69bd6	0.12041442
58	0xbe5cd00d	-0.2156374
59	0xbbe934ee	-0.0071169054
60	0x3d98273e	0.0742936
61	0xbf0737ef	-0.5281972
62	0xbe410160	-0.18848181
63	0xbdee1153	-0.11624398
64	0xbc9c42d5	-0.019074837
65	0x3f974c5b	1.1820177
66	0xbe0be8b9	-0.13662995
67	0xbee6643c	-0.44998348
68	0x3e1c630f	0.15272163
69	0xbea3928d	-0.31947747
70	0x3ed319ea	0.41230708
71	0xbf86dd71	-1.0536329
72	0xbf4828a3	-0.78187007
73	0xbea02d1f	-0.31284425
74	0x3e93341c	0.28750694
75	0xbe9642a2	-0.29347712
76	0x3e7dc592	0.24782398
77	0xbebf3abf	-0.37349507
78	0xbd9b49ee	-0.0758246
79	0xbef28b55	-0.47371927
80	0x3f01c205	0.50686675
81	0xbe72c605	-0.23708351
82	0x3f6ab2bd	0.9167898
83	0x3e4a2411	0.1974032
84	0x3e423e74	0.18969136
85	0x3e413986	0.188696
86	0xbf294fd5	-0.6613744
87	0x3f03051b	0.51179665
88	0xbec215cf	-0.37907264
89	0xbea03226	-0.3128826
90	0x3f6302e9	0.88676316
91	0x3ed6a127	0.41919824
92	0xbe687046	-0.22699079
93	0x3ecc3d15	0.39890352
94	0x3e652f9a	0.2238144
95	0xbefa8ae7	-0.489341
96	0xbf661896	-0.89881265
97	0xbe5407e6	-0.20706138
98	0x3eb8c5f2	0.3608852
99	0x3e9d404e	0.30713123
100	0x3f025a6b	0.50919217
101	0xbdd7c0f5	-0.105348505
102	0x3eb843f7	0.35989353
103	0xbc1ee53e	-0.00969821
104	0xbf153c10	-0.58294773
105	0xbe0e9ec0	-0.13927746
106	0xbef5bcd2	-0.4799562
107	0x3e9d9268	0.30775762
108	0x3e995878	0.2995031
109	0x3ea28193	0.31739482
110	0x3ea03b70	0.31295347
111	0xbe6ad0c0	-0.22931194
112	0x3e29fc7c	0.16600221
113	0xbdd68ea4	-0.10476425
114	0xbe07a820	-0.13247728
115	0x3c59a08c	0.013282906
116	0xbdd5825b	-0.10425254
117	0x3e5a1560	0.21297216
118	0xbef2fb7f	-0.474575
119	0xbf16353c	-0.5867498
120	0x3dfecbf4	0.12441245
121	0xbe198c8a	-0.14995018
122	0xbdd8fe16	-0.10595338
123	0x3e165d74	0.14684087
124	0xbe81838e	-0.2529568
125	0x3e80cbe4	0.25155556
126	0x3f042025	0.5161155
127	0xbefc804f	-0.49316642
128	0xbf046cbd	-0.5172842
129	0x3e49b62e	0.19698402
130	0xbf3ab7a3	-0.7293646
131	0x3c4526d0	0.012033179
132	0xbe25b12c	-0.16180867
133	0xbd8d8af1	-0.069112666
134	0xbe10a368	-0.14124835
135	0xbfc1d23d	-1.5142285
136	0xbed5bfe1	-0.41747954
137	0xbeeaea07	-0.45881674
138	0xbe216a43	-0.15763192
139	0xbe8de93d	-0.2771701
140	0xbf0d074d	-0.55089265
141	0x3ede9269	0.43471077
142	0x3f2dde4a	0.6791731
143	0x3edee2b8	0.43532348
144	0x3d1aa7c9	0.03775767
145	0x3da32869	0.07966692
146	0x3e0f9035	0.14019854
147	0x3dff72ac	0.12473044
148	0xbe277b8a	-0.1635572
149	0xbef30890	-0.4746747
150	0x3ec97490	0.39346743
151	0x3e0002aa	0.12501016
152	0xbccbdb8a	-0.024884958
153	0xbddca37d	-0.107733704
154	0xbc87b591	-0.01656607
155	0xbe5ec185	-0.2175351
156	0x3bd32561	0.006443665
157	0x3e90d8c8	0.2829039
158	0xbe584d26	-0.2112318
159	0x3e66522f	0.22492288
160	0xbd15506c	-0.03645365
161	0x3f06749f	0.525217
162	0xbe79bd81	-0.24388696
163	0x3f0deb62	0.5543729
164	0x3be6bf19	0.0070418236
165	0xbe539aee	-0.2066457
166	0x3d88f11c	0.06686613
167	0xbd88b496	-0.06675069
168	0x3e7e12ba	0.24811831
169	0x3d9243e2	0.07141854
170	0xbe0465c1	-0.12929441
171	0xbdef0a7a	-0.1167192
172	0x3fbf31d6	1.4937084
173	0xbec6a317	-0.38796303
174	0x3d9a8d67	0.075465016
175	0x3d04ec1e	0.03245174
176	0x3ed5c516	0.41751927
177	0xbeaa6506	-0.332802
178	0x3e9172ea	0.28407985
179	0xbdc55cb2	-0.09636821
180	0xbf1c3c31	-0.61029345
181	0xbe925152	-0.28577667
182	0x3e48de73	0.19616108
183	0x3e55af70	0.20867705
184	0x3ed75dc9	0.4206374
185	0xbd934008	-0.07189947
186	0x3e418f6a	0.18902364
187	0xbf0ae67a	-0.5425793
188	0x3e067465	0.13130338
189	0x3e5a20a9	0.21301521
190	0x3e61d57f	0.22054099
191	0x3e44b820	0.19210863
192	0xbc0d84c0	-0.008637607
193	0x3da3f5eb	0.080058895
194	0xbd965c80	-0.07341862
195	0x3d79d165	0.06099071
196	0x3e9816e6	0.2970497
197	0xbe05d127	-0.13068067
198	0x3e43959a	0.19100037
199	0xbda14364	-0.07874182
200	0x3eb238d2	0.34808975
201	0xbdd6bb21	-0.10484911
202	0xbf824074	-1.017592
203	0x3f63cdf1	0.88986117
204	0x3e777fd4	0.24169856
205	0xbf18dccb	-0.59711903
206	0xbe549d06	-0.20763025
207	0x3eaee6c8	0.34160447
208	0x3e877001	0.2645264
209	0x3e6aead2	0.2294114
210	0xbe4f44b5	-0.20241053
211	0xbe2217e5	-0.15829428
212	0xbeaf8c1d	-0.34286585
213	0xbed368ac	-0.41290796
214	0xbef8c053	-0.48584232
215	0xbded2bb1	-0.11580599
216	0x3e8f8e69	0.28038338
217	0x3e55fad7	0.20896469
218	0xbf39fea4	-0.72654176
219	0x3e0c81cd	0.1372139
220	0x3e75bc33	0.23997574
221	0x3e41c81a	0.18923989
222	0xbe404c8c	-0.187792
223	0x3e248615	0.16066773
224	0x3ef8aab7	0.48567745
225	0x3e9706f2	0.29497486
226	0xbf6f3ae6	-0.93449247
227	0xbd1dcfe8	-0.038528353
228	0x3e5f0da8	0.21782553
229	0x3ec74d68	0.38926244
230	0xbe89ef37	-0.2694032
231	0xbd4787d9	-0.04871354
232	0x3eebabb8	0.46029449
233	0x3ebdf997	0.37104484
234	0x3ea86186	0.32886904
235	0xbef30a35	-0.47468725
236	0xbedc867e	-0.4307136
237	0xbe5bd640	-0.21468449
238	0x3e98bfb5	0.2983376
239	0xbff0a53d	-1.8800427
240	0xbe3865cb	-0.18007581
241	0xbdb780c5	-0.08960108
242	0x3e442e80	0.19158363
243	0xbe65d61f	-0.22444962
244	0xbe1371d8	-0.14398897
245	0xbe19abcc	-0.15006942
246	0x3e8c697d	0.2742423
247	0x3ddd0b94	0.10793224
248	0xbf6a78dd	-0.9159067
249	0xbf0f6a11	-0.5602122
250	0xbeedaf2c	-0.46422708
251	0x3c746849	0.014917442
252	0xbeb641e1	-0.35597137
253	0xbe857646	-0.26066798
254	0xbe88768a	-0.26652938
255	0x3dfb90a2	0.12283446

conv4.fc_self.bias f4 [20]
0	0x3e1fbcf7	0.15599428
1	0xbe46edda	-0.1942667
2	0x3d3cec4c	0.046123788
3	0x3d4aab33	0.049479675
4	0xbdf2542e	-0.11832462
5	0x3d8f88f8	0.070085466
6	0x3af4d129	0.0018678057
7	0xbcb77c36	-0.022398096
8	0xbde822fa	-0.11334796
9	0xbe7de15e	-0.24793002
10	0xbe159da4	-0.14610916
11	0xbd529089	-0.05140737
12	0xbe31fd68	-0.17381823
13	0x3dcca710	0.09992802
14	0x3da80df8	0.08205789
15	0xbd2b8a78	-0.0418801
16	0x3e3cc0cf	0.18432926
17	0x3dd6b6b5	0.10484067
18	0x3e637e8e	0.22216246
19	0x3e354dcc	0.17705458
