VVG/Experiment_3 - Aggregation/Images7/model7_stats.pth (torch, 39630 bytes, 18 tensors)

conv1.fc_neigh.weight f4 [50, 22]
000000 17 be d7 3e d7 ee e7 3e 96 c2 f2 38 e9 0a 8f be
       0.42137215 0.45299408 0.00011575704 -0.2793801
000010 53 d2 5c 3e 1d 8f 3c 3d bb 33 1d be 59 4d bf bb
       0.21564607 0.04603492 -0.15351765 -0.005838078
000020 c5 4f de be fe f4 d3 be d9 10 3a bd 12 35 c6 3e
       -0.43420234 -0.41397852 -0.045426223 0.38712364
000030 3b 66 43 3e 63 78 f2 be 9a be 37 3f de 5e c4 be
       0.19081967 -0.47357473 0.7177521 -0.38353628
000040 61 ba 2e 3e 9a c6 32 3c 79 4d 49 3e b9 36 96 3e
       0.17063285 0.010911608 0.1965846 0.29338625
000050 c2 6b 3b bf cb 90 5f 3e 36 31 90 bf 9d 44 3d be
       -0.732113 0.21832578 -1.1265018 -0.18483205
000060 7a ef 3e 3e 8f 90 e1 bd 78 30 3c 3e be 4b 45 3e
       0.1864604 -0.110139005 0.18377864 0.19267175
000070 51 d8 f0 be 33 13 bf be f0 13 98 3e b0 ed 03 3e
       -0.47040036 -0.37319335 0.2970271 0.1288364
000080 df e6 4c 3e aa 8e 7a bd 84 9e e7 bc f6 14 86 be
       0.20009945 -0.06117121 -0.028273828 -0.26187867
000090 52 1a 07 3e c2 cd 56 be 07 97 e4 bd 2f 86 29 bd
       0.13193634 -0.20976928 -0.11161619 -0.041387733
0000a0 66 ab 90 be 04 b1 4e be ea d3 35 3f a8 99 61 3e
       -0.28255767 -0.20184714 0.7102648 0.22031271
0000b0 8b 3f b1 bd 28 22 c7 3d 37 08 af 3e 92 44 d2 3c
       -0.08654698 0.09723312 0.34185955 0.025667462
0000c0 9b 9d ee 3d 3a 68 8a bc 5b 62 10 3f 65 b8 95 bd
       0.116511546 -0.016895402 0.5640008 -0.07310561
0000d0 62 b0 07 3e a6 1f 8c 3c 97 d6 de 3e ea 66 8c bc
       0.13250878 0.017104935 0.43523094 -0.017138917
0000e0 f5 8b 9e be 46 f2 5c be a3 2e c6 3e 2f 2a 66 3d
       -0.30966154 -0.21576795 0.38707456 0.056192573
0000f0 fe 74 c2 3e 1f 1e d0 3e f3 63 93 be c0 6f d0 3e
       0.37979883 0.4064798 -0.28787193 0.40710258
000100 01 fb 32 be ea 21 e0 3e cd 16 39 3e ee 0c 0e 3e
       -0.17478563 0.43775874 0.18075104 0.1387212
000110 35 be e2 3b 31 bf 96 3d 38 31 a1 be ec b5 7f bb
       0.006919647 0.073606856 -0.31482863 -0.0039018346
000120 b7 ba 55 3e 4d f4 09 3e af 58 4c bc b9 33 ce 3d
       0.20872007 0.134721 -0.012472316 0.10068459
000130 09 b4 81 be 8a f8 76 3d 87 c9 16 be bd e9 a6 3e
       -0.25332668 0.06029562 -0.14725314 0.32600203
000140 fa fb 1b bf a3 9a d7 3d 70 33 a5 3e 9e 26 85 3e
       -0.6093136 0.105275415 0.32265806 0.26006025
000150 03 18 02 bf f7 ba e5 bd 92 5d 80 3f 27 ea 93 3e
       -0.5081789 -0.11217301 1.0028555 0.28889582
000160 47 7a 0d 3e 05 19 87 3e f8 02 2b 3e 44 9d 70 3e
       0.13816176 0.26386276 0.16700351 0.23497492
000170 69 11 8f be 08 40 4d 3d 1a d8 9d be d9 35 30 3e
       -0.2794297 0.050109893 -0.30828935 0.17208041
000180 e6 12 af 3e ef de 5c be b8 c3 c3 3e 16 6f ad be
       0.34194106 -0.21569417 0.3823526 -0.33873814
000190 26 d6 2d be 61 3c 0b bf 89 54 c6 3e c7 fe d6 bb
       -0.16976222 -0.54389006 0.3873637 -0.0065611335
0001a0 2d cf 41 be 85 6b 03 3e d8 9a 50 3e 3a cb 85 be
       -0.18926688 0.12833984 0.20371568 -0.26131612
0001b0 5c b8 ef be e1 97 ef 3c 9e 78 cc be cf 46 85 3e
       -0.46820343 0.029247226 -0.39935774 0.26030585
0001c0 17 8e 39 3e 00 e2 68 bd 39 b9 a0 be 75 cf 76 be
       0.18120609 -0.056856155 -0.31391314 -0.24102576
0001d0 e9 82 b4 3e e7 39 a8 3e 55 4d 94 3e 68 e6 ec 3e
       0.35256127 0.32856676 0.2896525 0.46269536
0001e0 bb 80 be 3e c4 49 79 be 67 20 89 bd 84 0d 56 be
       0.3720759 -0.24344546 -0.066956334 -0.20903593
0001f0 cd 04 bb 3e 67 bd a8 3e fc 8f 35 3e 2c d7 6b 3e
       0.365271 0.32957003 0.17730707 0.230313
000200 64 45 88 3e e6 ba 52 3e ae 4a 95 3e e9 93 27 bd
       0.2661544 0.20579109 0.2915854 -0.040912542
000210 d1 54 eb bd 34 3d f1 bd ac 99 df 3e 40 3e 01 3b
       -0.11490787 -0.11779252 0.4367193 0.0019720942
000220 a6 9d 0b be 7f c4 dc be ad 2a 9b be 4a cf b8 3e
       -0.13634357 -0.43118665 -0.30305997 0.3609565
000230 e6 12 af 3e 2a 44 13 3d 8f 52 28 3c 8e 5d 15 bf
       0.34194106 0.03595368 0.01027359 -0.5834588
000240 0a d4 8a bd 6b 62 04 3f ca 27 8a be e9 71 cc 3e
       -0.067787245 0.51712674 -0.26983482 0.39930657
000250 a1 ee b8 3e 81 b8 93 be 9a 4b aa be 6e 64 d7 3e
       0.3611956 -0.28851703 -0.33260804 0.4206881
000260 05 10 31 3f 9e 03 3d bf 22 be 6d 3e 32 d8 cf 3e
       0.6916507 -0.73833644 0.23217061 0.4059463
000270 81 fb 6a be d2 16 c4 3d 17 49 09 3e ae 22 d7 3e
       -0.22947504 0.09574665 0.13406788 0.42018646
000280 0e 4a 96 3d 06 1c 63 bd 29 6c f2 be 9a 0b ab be
       0.073383436 -0.055446647 -0.47348145 -0.3340729
000290 53 40 e1 bc a9 e8 57 3f 32 b7 b9 bd 44 f7 4b be
       -0.027496492 0.84339386 -0.09068145 -0.19918543
0002a0 84 a8 fb be 1b 7c 7b be d9 d1 8e be 04 cc 92 be
       -0.49152005 -0.24559061 -0.27894476 -0.28671277
0002b0 7a 8c 06 bf f8 a5 45 be e3 6f a6 be 17 55 7a 3f
       -0.525581 -0.19301593 -0.32507238 0.97786087
0002c0 22 28 04 3f 50 49 c3 3d 62 97 c9 be 2f a6 a8 be
       0.5162374 0.095354676 -0.39373308 -0.32939288
0002d0 9b ac a0 be 57 17 d5 bd 2b ba 32 be 43 2c 3f 3e
       -0.31381688 -0.10404842 -0.1745383 0.18669228
0002e0 d2 31 02 3e 8b 4a bc be d6 6f 3c be 14 aa 52 3d
       0.12714317 -0.36775622 -0.18402037 0.05143173
0002f0 2b 2a a9 be bd 7c c7 3d 35 40 04 3e 65 4b 6f be
       -0.33039984 0.09740589 0.12915118 -0.23368604
000300 03 d6 43 3e e1 4e 96 3e da 29 af be 7b 57 96 be
       0.19124608 0.29357055 -0.34211618 -0.29363617
000310 39 39 74 3f ef b3 e1 bd 97 db 36 bd 7d c2 54 be
       0.95399815 -0.11020648 -0.04464301 -0.20777316
000320 0b 2b fc 3c 63 3d 12 be 34 02 8a 3e ed 2a 31 3d
       0.030782243 -0.1428123 0.26954806 0.043253828
000330 b4 19 42 bf 43 8d ab be 9e c9 2c 3e f0 13 80 be
       -0.7582047 -0.33506212 0.16873786 -0.2501521
000340 1d 4e a0 be 99 f9 44 be ef fa ff be 12 35 07 bf
       -0.31309596 -0.19235839 -0.49996135 -0.52815354
000350 29 ec 94 3e 90 f7 1d bc c9 f2 07 bf 06 7a ec be
       0.29086426 -0.009641543 -0.53104836 -0.46186846
000360 3a 67 ab bd 33 79 fc 3d 35 3a 48 bf 53 f5 9c 3e
       -0.08369298 0.123278044 -0.78213817 0.30655918
000370 c4 7a ca 3d 24 3b 50 3e 51 21 0e 3e fd bf 8a 3e
       0.09886697 0.2033506 0.13879897 0.270996
000380 af d3 8c 3d cb 8e 98 be 10 ad 0f bf d8 22 da 3e
       0.06876313 -0.29796442 -0.5612345 0.4260471
000390 18 c6 02 bb 1c b3 09 bd 76 89 03 3f 07 40 6e be
       -0.00199545 -0.033618078 0.51381624 -0.23266612
0003a0 ed ee a9 3e 4b 28 96 be 11 16 c9 bd 7b 3c 77 3e
       0.33190098 -0.29327616 -0.09818662 0.24144165
0003b0 6f 47 cb 3d 02 21 91 3e ba 59 54 be 0f ff 60 3e
       0.09925734 0.28345495 -0.20737353 0.21972297
0003c0 1e 6c 71 bf f4 a6 81 be 34 af 25 bf 3d 95 55 be
       -0.943056 -0.25322688 -0.64720464 -0.20857711
0003d0 58 5a 1c be 6a 0d 37 3e a2 28 ed 3d e6 cf d0 3d
       -0.15268838 0.17876211 0.11580016 0.101959035
0003e0 72 2f f5 3c 09 fc 87 bb 6a bd 80 bb 89 82 f4 bd
       0.02992985 -0.004149918 -0.00392883 -0.1193896
0003f0 b3 93 22 3a 12 1a c8 3e 81 59 bd 3e 62 70 cd bd
       0.00062018185 0.3908239 0.3698235 -0.10031201

conv1.fc_self.weight f4 [50, 22]
000000 fe 66 d0 be f0 1d 7a 3d bb c9 df 3c a2 0b a2 3e
       -0.40703577 0.061063707 0.027317872 0.316495
000010 a1 e2 e1 3d 9b f7 41 be c0 ec 8a 3d de 8c 87 be
       0.11029554 -0.1894211 0.06783438 -0.2647466
000020 7d e8 7c be a6 e9 88 be c4 3f a4 be bb c6 91 3e
       -0.24698062 -0.2674076 -0.320799 0.28471932
000030 f3 20 05 bf 7f b4 1e be d8 5f 0f 3f ba 4e 27 3d
       -0.520034 -0.15498541 0.5600562 0.040846564
000040 05 c9 7b bd 1b d8 50 be 52 be 02 3f 3e 1d 9f be
       -0.061471004 -0.20394938 0.51071656 -0.31076998
000050 0b 98 db be 13 42 74 3f b8 d6 d9 be fa 74 81 3d
       -0.42889437 0.9541332 -0.4254663 0.0632114
000060 49 81 bd be 63 5d 25 be 3c 3b 6e 3e f6 b2 86 3e
       -0.370127 -0.16148905 0.23264784 0.2630841
000070 1e 1d 21 3e c9 22 25 be e8 53 9f 3e 0b c0 71 3d
       0.15733764 -0.1612655 0.31118703 0.059021037
000080 bf b1 95 be ae 1b ef 3d 14 e6 19 be 2f c5 96 3e
       -0.29237172 0.11675201 -0.15029174 0.29447314
000090 95 7a 81 be cc 1a 93 bc ce f6 e7 be ec ce 74 3d
       -0.25288835 -0.017957114 -0.45305485 0.05976765
0000a0 8c 52 70 bd 1d 31 83 3e 8a dd 23 3f a9 83 29 3e
       -0.058672473 0.25623408 0.64009917 0.1655413
0000b0 6e 12 72 3d 89 81 b0 bf 55 5d a9 bf 7a 20 f2 bd
       0.059099607 -1.3789531 -1.3231608 -0.11822601
0000c0 04 56 8f bd e0 41 3c bf 5b 52 ac 3e 94 25 22 bf
       -0.06998828 -0.7353802 0.33656582 -0.6333859
0000d0 a8 e6 52 bd 93 2d d0 be 30 70 dd bd 8a 20 16 bf
       -0.051489502 -0.4065977 -0.10812414 -0.586434
0000e0 30 63 b3 bf ac cb 03 bf 82 c9 91 bf 5c 55 b7 bf
       -1.4014645 -0.51482654 -1.138962 -1.4322925
0000f0 12 de ac bf d7 b6 40 bf 8d c4 4d bf 06 7f 42 bf
       -1.350527 -0.7527899 -0.8037804 -0.7597507
000100 b3 c6 ba bd 8c f3 51 be 9e 69 54 3e 02 b2 8b be
       -0.0911993 -0.20503062 0.20743415 -0.27284247
000110 1b 7d 9a be 33 2f 81 be 66 0b 98 3e 8f ae 35 be
       -0.30173573 -0.25231323 0.29696196 -0.1774237
000120 b4 45 9e be b5 f9 f7 3e 17 e2 98 bc e7 68 64 be
       -0.30912554 0.484327 -0.018662496 -0.22305642
000130 db b7 99 be ad 55 ec bd 10 94 25 3e 7a d4 02 be
       -0.30023083 -0.11539779 0.16169763 -0.12776366
000140 5f 40 62 bf 42 74 55 3e 1c 75 e8 bd 4c b5 2b 3e
       -0.8837947 0.2084513 -0.11350462 0.16768378
000150 63 7f 0e bf e0 69 78 be de 72 8b 3f 67 a6 87 3e
       -0.55663127 -0.24259138 1.089443 0.26494142
000160 ce 67 07 3f c7 b4 9b 3d d9 39 39 3e 74 f2 92 be
       0.5289277 0.0760284 0.18088473 -0.28700602
000170 c6 33 90 be 96 c8 98 be b3 d3 39 3e 76 20 4a bd
       -0.281645 -0.29840535 0.18147163 -0.049347363
000180 72 d8 a5 3e 97 08 af bd e0 f6 ed 3d 44 1d fc bd
       0.32391697 -0.0854656 0.11619353 -0.123102695
000190 55 92 a2 bd b2 da 36 3e ec dc 88 3e 90 ce 07 3d
       -0.07938067 0.17856863 0.2673105 0.033155978
0001a0 38 7b 00 bc 47 a2 96 3e 0d 1c cb bd 3b da a1 3e
       -0.007841878 0.29420683 -0.0991746 0.3161181
0001b0 c9 9d d9 be ff b4 3b be f3 c2 87 bd 7d 0e a5 3a
       -0.42503193 -0.18330763 -0.066289805 0.0012592819
0001c0 5d bc 21 bd e1 59 b8 be 07 c3 c6 be 7b db de bd
       -0.039486278 -0.36006072 -0.3882067 -0.10881706
0001d0 71 c4 67 3e 06 12 2a 3e 8c e1 4b 3e 14 fd a6 3d
       0.2263353 0.16608438 0.19910258 0.081537396
0001e0 74 19 64 bc d2 fb ab 3e 65 12 86 be ce 7e f2 bd
       -0.013922084 0.3359056 -0.2618591 -0.11840592
0001f0 29 f6 94 3e d2 67 a8 be 3e 6f 5e 3e 97 3c c4 3e
       0.29094055 -0.3289171 0.21722123 0.38327476
000200 73 c2 46 be f8 f3 20 3e 99 5a c2 3e 1e c6 be 3d
       -0.19410114 0.15718067 0.37959746 0.093151316
000210 03 b5 ce 3e 18 3b 9c be 7f 8b 43 bf 64 cf ab bd
       0.40372476 -0.30513835 -0.7638473 -0.08389166
000220 53 cd 4a be 7f 76 02 3f c3 16 e0 be b1 1a 37 be
       -0.19804887 0.5096206 -0.43767366 -0.17881276
000230 65 2f fc 3d 94 33 99 3d a3 07 90 be 18 ce 16 bf
       0.12313727 0.07480541 -0.28130826 -0.58908224
000240 f9 0a b5 3e a3 78 0c bd c8 4c 6e 3d 9f aa f0 3e
       0.35359934 -0.034294736 0.058178693 0.47005174
000250 c0 87 42 3e 1b 0a 77 bd b9 f2 55 bd 4f 04 ae be
       0.18997097 -0.06031237 -0.05223343 -0.33987662
000260 5f 8f e7 3e 17 76 7a bf b7 2e 85 be 17 83 cd be
       0.4522657 -0.9783644 -0.26012203 -0.40139076
000270 49 e8 03 3f 9d d0 bd bd 23 7a c6 3b a0 e5 06 bf
       0.51526314 -0.092683055 0.0060570403 -0.5269413
000280 1a 9a 89 3e a5 c3 3b 3d 5f 53 18 bf fc 62 82 be
       0.26875383 0.045840878 -0.59502214 -0.25466144
000290 04 f4 96 bd 75 25 90 3f 81 30 7d 3e af e9 47 bd
       -0.07370761 1.1261431 0.24725534 -0.048806842
0002a0 75 82 44 bf b0 46 29 3e cb f1 b5 3e 2d e9 7e be
       -0.7676156 0.16530871 0.35536036 -0.24893637
0002b0 6b e5 46 be a1 de 31 be a9 3b ed be 3a 90 c0 3f
       -0.19423454 -0.17370082 -0.4633458 1.5044014
0002c0 c8 75 98 be 88 3f ad 3e 26 a4 a7 3e d2 d0 d7 3e
       -0.2977736 0.33837533 0.32742423 0.42151505
0002d0 ae aa d9 3e 17 ed 19 be 41 08 5c bf 55 63 81 be
       0.4251303 -0.15031849 -0.85950094 -0.25271097
0002e0 ed c5 cf 3d 6c e3 2e bd 3e b6 53 be bf cc ac be
       0.10145173 -0.042697355 -0.20674989 -0.3374996
0002f0 57 f6 e7 be e0 43 34 3c 1d c9 3e 3d 3a 09 fa be
       -0.4530513 0.011002511 0.046578515 -0.48835164
000300 a1 64 93 3e 15 a6 98 bd c8 53 cd bd 8c 01 dd be
       0.2878771 -0.07453553 -0.10025746 -0.43165243
000310 f3 c7 4e 3f a9 89 e7 bd ca 24 ba 3d 24 15 8a bd
       0.8077385 -0.113055535 0.09089048 -0.067423135
000320 be 1d c4 bd a3 24 11 be cc 86 c0 3d 90 3c a7 3e
       -0.09575985 -0.14174132 0.094007105 0.32663393
000330 4f d6 2f 3e 80 fd 20 3e bc cf 69 3e 42 1c 0c bd
       0.17171596 0.15721703 0.2283315 -0.034206636
000340 3e 99 a6 3b 68 2a 02 3f b1 6e 24 be 8b 5e 98 bd
       0.005084186 0.50845957 -0.1605785 -0.07439908
000350 25 0f 65 3f e8 72 74 be 98 91 04 3e a3 3c fd 3e
       0.89476234 -0.23871958 0.12946165 0.49460325
000360 c2 e7 10 3f 85 00 c7 3d cd 50 3f bf 54 c2 31 3f
       0.56603634 0.09716896 -0.7473267 0.69437146
000370 20 6c 8e 3e 3c a0 8c be 36 25 a2 3e 66 d9 96 3d
       0.27816868 -0.27466 0.31669015 0.07365684
000380 c3 2b e3 bd ff 25 ad 3d 31 8a b7 3d 5d 51 d0 3e
       -0.11092331 0.08454513 0.08961905 0.40687075
000390 00 bd be 3d 02 ff cc be ff e1 6f 3f b3 79 8a be
       0.09313393 -0.40038306 0.9370422 -0.27045974
0003a0 f4 86 c3 3e 9a e7 e6 be cc 9a 3d be 49 7d 0f 3e
       0.381889 -0.45098573 -0.18516082 0.14012636
0003b0 1f c1 61 3e 84 77 00 3e 66 21 d5 3e c1 c9 72 be
       0.22046326 0.12545592 0.41627043 -0.23709776
0003c0 5f 76 c2 be 44 ee 84 be ca f8 d2 be d4 40 1b 3e
       -0.37980935 -0.25963032 -0.41205436 0.15161449
0003d0 ac 1a ca bd 87 e7 b8 3e f0 1c 7b 3e 95 4b a8 bd
       -0.098683685 0.3611414 0.24522758 -0.08217541
0003e0 f1 d2 a2 bd fd a5 e5 bb 58 b6 92 be 47 eb 98 3e
       -0.0795039 -0.0070083127 -0.28654742 0.29867002
0003f0 9a 10 0f bd 2f 2d 2a 3d 80 a6 86 3e a1 85 c3 3e
       -0.03492794 0.041546997 0.26298904 0.38187888

conv1.fc_self.bias f4 [50]
000000 f3 0a 29 be a3 ed 91 3e 05 d6 81 bd 53 a7 6d 3d
       -0.16508083 0.28501615 -0.06339649 0.0580209
000010 85 11 c1 3c 4f e5 ac be 4d 1d 6a 3e 8f 29 05 3e
       0.023567924 -0.337687 0.2286274 0.13004135
000020 ea f1 54 bd a7 ff a3 3d 7e a7 a3 be fc a3 eb 3d
       -0.05198852 0.08007746 -0.31963724 0.11505887
000030 6e fc 82 3d eb 47 8f be 32 5b 9a 3c f8 a9 b7 bd
       0.063958034 -0.27984557 0.018842313 -0.08967966
000040 be 5e 86 be 78 46 24 3e c7 1d b1 bc fe 4a a2 3c
       -0.26244158 0.16042507 -0.021620644 0.01981115
000050 c0 9e 32 be cf 4e 0f bd 5c cd cc bc 9f dd b3 3b
       -0.17443371 -0.034987267 -0.025000267 0.005489066
000060 64 b6 47 3e f1 00 e3 bd bb d0 2a bd a0 e6 dc 3d
       0.1950317 -0.11084164 -0.041702967 0.10786176
000070 57 47 52 bd 32 de 8f 3d 95 cf 97 3e 95 ad 0c be
       -0.051337566 0.07024802 0.2965056 -0.13738091
000080 86 27 18 be cd b4 87 3c 20 5b 2c be e7 fe 42 be
       -0.14858827 0.016565705 -0.16831636 -0.1904255
000090 6a a2 24 3d 71 3f b7 3e b1 3f d5 3d e6 5e 7c bc
       0.040193953 0.3579059 0.10412539 -0.015403485
0000a0 b4 d6 0c 3e d8 47 20 bd b8 03 40 3e 42 80 b8 3d
       0.13753778 -0.039131016 0.18751419 0.09008838
0000b0 25 6c 13 3e 9a a7 51 be 72 5c 38 be c2 06 50 3c
       0.14396723 -0.20474091 -0.18004015 0.012696924
0000c0 b9 1b 37 3d b4 7c 49 3d
       0.044704173 0.04919119

conv2.weight f4 [50, 40]
000000 4a 42 ca 3d d2 e2 0f bf cf 41 0a 3f 2c 4d 19 bd
       0.09875925 -0.56205475 0.54006666 -0.037427112
000010 ef 24 83 be 01 e3 34 3d 5c 53 df be c2 b2 77 be
       -0.25614116 0.0441618 -0.43618286 -0.24189284
000020 25 eb e8 be ab 3b 9d be 6d bb 9b 3e 83 a8 20 3c
       -0.454919 -0.30709586 0.30416432 0.009805801
000030 4e 05 16 bf b0 46 57 bb da 51 a2 3d de c2 19 3e
       -0.58601844 -0.003284853 0.07925768 0.15015742
000040 33 84 20 bb 69 fb cf be b0 d8 ac be 55 1b fe 3d
       -0.002449286 -0.40621498 -0.3375907 0.12407557
000050 54 47 7d be 39 f8 3a 3d f8 8d 44 be 7c a2 ea 3e
       -0.24734241 0.04564688 -0.19194782 0.4582709
000060 a7 74 a6 3e f3 51 a4 be 85 40 ea be d3 49 02 3c
       0.32510874 -0.32093772 -0.4575235 0.007952171
000070 28 78 cf 3d 3b 23 af be e3 16 42 3d 52 a6 63 bc
       0.1013034 -0.34206566 0.047385108 -0.013894634
000080 d3 1e 2a 3f 2a 29 51 be 3d fc 7d 3f 65 0a 14 be
       0.66453284 -0.20425859 0.9921301 -0.1445709
000090 eb f8 98 3d 1d 73 2d bd 58 f2 89 3e d2 6b dc bd
       0.07469352 -0.04234611 0.26942706 -0.107627526
0000a0 78 18 93 be 6c 99 d2 3e a3 23 2d bf 1c 81 42 3d
       -0.28729606 0.41132677 -0.676325 0.04748641
0000b0 62 2f fd 3d d6 b0 56 3e d3 ef 91 be 73 87 c0 be
       0.12362553 0.20965895 -0.28503284 -0.3760334
0000c0 27 52 58 bf d4 72 43 bf 14 10 92 be ee ed 5d be
       -0.84500355 -0.7634709 -0.28527892 -0.21672794
0000d0 86 59 46 3f 68 e1 27 3e 0b 93 5b 3f 32 8c b5 3d
       0.7748035 0.1639458 0.85771245 0.08864631
0000e0 07 d9 c7 be 36 6c 2f 3f 4e 97 02 bf 7d fc 4c 3f
       -0.39032766 0.6852449 -0.5101212 0.80072767
0000f0 66 89 3a 3f 9e 45 e0 be a2 45 2b be 69 9c 91 3d
       0.72865903 -0.43803114 -0.16725782 0.07109911
000100 9e 00 50 3e f8 2f 50 3f 1b 4b 74 3f d4 7e af 3e
       0.20312735 0.81323195 0.954271 0.3427645
000110 43 37 63 3f 49 0c 8d 3e ef 17 16 3f c8 9e e4 bd
       0.887562 0.27548435 0.5863027 -0.111630976
000120 10 e7 1b 3d 93 d7 fd 3d 1c 6a b7 be 87 19 15 3f
       0.038062155 0.12394633 -0.35823143 0.58242077
000130 73 46 38 be 21 55 93 bd d5 6c 62 bd c1 32 3e 3f
       -0.17995624 -0.071939714 -0.05527957 0.74296194
000140 91 ac 44 3e fb 2c e0 3e d4 69 16 3e 23 42 85 be
       0.19206454 0.43784317 0.14688808 -0.2602702
000150 67 23 58 3e a3 ce ac bd 98 f7 70 be 03 24 a4 bd
       0.21107255 -0.0843785 -0.2353195 -0.08014681
000160 f3 e1 cf be 86 98 a1 be 65 2e db 3e 1d 83 57 3d
       -0.40602073 -0.3156168 0.42808834 0.052615274
000170 61 ac 95 3e 78 1f 27 be 6a 6c 26 3c 37 af 1e be
       0.29233077 -0.16320598 0.010157684 -0.15496527
000180 7b 30 5a 3e 54 d9 44 3e aa e2 b5 3e d2 b6 af 3d
       0.21307556 0.19223529 0.35524493 0.08579792
000190 96 6f 48 be 6a 51 4f 3e 16 d2 10 3e 50 1e 01 3f
       -0.19573817 0.20245901 0.14142641 0.5043688
0001a0 31 72 22 3b ae 4a 9d 3e 79 6d d1 3d f6 02 3c be
       0.0024787302 0.3072104 0.102259584 -0.18360505
0001b0 e2 5f 85 3e 0b 32 8b 3d d7 37 9d 3e f0 76 12 3e
       0.26049715 0.06796654 0.30706665 0.14303184
0001c0 f4 2b c8 3c a4 99 3e be 12 3e b0 be 54 60 50 3d
       0.024435021 -0.18613297 -0.34422356 0.050873116
0001d0 2b 45 a2 3d da 1c b2 3e ce fb 71 3d 3d 32 52 3e
       0.07923349 0.34787637 0.05907803 0.20526977
0001e0 d0 dd 60 bd d1 17 75 bd fa 8f 9c be 93 50 3e 3c
       -0.054899037 -0.059837166 -0.30578595 0.01161589
0001f0 7c ee 18 bd a3 97 c6 3d 59 1b 14 be 0e d8 e2 3d
       -0.03733681 0.09696891 -0.14463557 0.110763654
000200 55 98 13 be e2 73 09 be ce 6b 17 3e 9d eb ef bb
       -0.14413579 -0.13423112 0.14787218 -0.0073217885
000210 4e 10 c5 bd b1 ec 4b 3e c9 92 b9 3e f2 99 e5 bc
       -0.096222505 0.1991451 0.362448 -0.028027508
000220 de 75 b1 3d c3 55 61 3e fe d4 4b 3e 6e 2c be 3e
       0.086650595 0.22005372 0.19905469 0.37143272
000230 55 62 3f 3e da 37 c7 bd 0d 37 a5 3c c0 8e a2 be
       0.18689854 -0.0972745 0.020167852 -0.31749535
000240 be 95 2c 3e a0 f6 aa 3e ac be 6d 3d 6c 31 cc 3d
       0.16853997 0.33391285 0.058043167 0.09970364
000250 f4 8a 6c 3d db 32 70 3e 99 49 98 3b 64 96 53 be
       0.057749704 0.234569 0.0046474454 -0.20662838
000260 f5 b0 fb be 3b f2 88 3e 8b 3e 65 3d 1f 20 e9 bd
       -0.49158445 0.26747307 0.05596785 -0.1138308
000270 11 f2 f1 bd 8a 47 87 be b0 65 5e 3e 42 86 98 3d
       -0.11813749 -0.26421767 0.21718478 0.07447483
000280 9e 31 06 3b 18 27 47 be a4 d0 4d 3e 14 ce 9b be
       0.0020476351 -0.19448507 0.20099121 -0.30430663
000290 74 17 83 be f7 ac 3d be f5 36 54 3e c2 c4 41 be
       -0.2560383 -0.18523012 0.2072409 -0.18922713
0002a0 48 36 a8 bd 1d e3 44 3e a1 01 3b 3e 7d 60 c1 bd
       -0.08213478 0.19227262 0.1826234 -0.09442232
0002b0 e5 e9 f3 bd c4 a6 45 bf aa 26 db 3c 42 e8 1f be
       -0.11909846 -0.7720759 0.026751835 -0.15615943
0002c0 73 66 67 bf 70 d5 1a bf 04 0e ad be 33 da 0f bf
       -0.903907 -0.6048193 -0.33799756 -0.5619232
0002d0 df bc a6 3e f4 05 5d bf ef 53 96 3c 09 ed 59 be
       0.32565972 -0.8633721 0.01835057 -0.21281828
0002e0 72 3f a7 3e c3 e1 bc 3e f8 38 9c be fb a4 e2 bd
       0.32665592 0.36890993 -0.30512214 -0.11066624
0002f0 86 27 33 bf 83 8b 96 be ed 80 0d bf d8 1d bf bd
       -0.6998218 -0.29403314 -0.5527485 -0.09331864
000300 c4 0e a4 3e ad b8 08 be ba 93 0e bf e6 01 3d bf
       0.32042515 -0.13351698 -0.5569416 -0.7383102
000310 2f 68 13 3f ec bb 27 3c e5 6f b9 be 32 46 23 3e
       0.57580847 0.010237675 -0.3621818 0.15944746
000320 82 ad 8f 3e c4 ba 6e bf 41 b0 b9 be e3 46 06 3d
       0.28062063 -0.9325373 -0.36267284 0.032782447
000330 f2 5e d0 bd 10 b5 2d be b6 44 29 3e cc 5f c1 3d
       -0.101743594 -0.16963601 0.16530117 0.094421
000340 b4 20 8b be 9c 76 84 3e e0 57 10 3e 6c 42 fa 3c
       -0.27173388 0.25871742 0.14096022 0.03054925
000350 a1 3d e8 bc 3f d1 7c be 26 30 6e be e2 3c 19 bd
       -0.0283497 -0.24689196 -0.23260555 -0.037411578
000360 42 2c ff 3d 47 f5 66 be 5c 4f 38 be e3 e5 02 bd
       0.124596134 -0.22554503 -0.17999023 -0.03195752
000370 d9 22 35 3e 33 74 7f 3e ab 53 dc bd db cf 7a be
       0.17689075 0.2494667 -0.10758146 -0.24493353
000380 78 e3 88 3e 2c 87 3a 3c 8d 52 73 3d 2c 27 90 3e
       0.26736045 0.011384767 0.0594049 0.28154886
000390 10 ad a3 3d ec d7 3b bd 84 8c 61 3e 11 23 9b 3d
       0.079919934 -0.045860216 0.22026259 0.07575048
0003a0 55 82 7c be dc ee 3c b9 a7 85 94 3e 0a 20 80 bf
       -0.24659093 -0.00018018059 0.2900822 -1.0009778
0003b0 60 1d 94 be b8 33 23 3e e4 76 3e be fd da c8 bd
       -0.2892866 0.15937698 -0.1860004 -0.09807394
0003c0 b6 71 fc 3d 4f 5b e3 3d b8 32 ef be be 02 97 3d
       0.12326376 0.111014 -0.46718383 0.0737357
0003d0 eb 49 61 be cf 68 30 be 04 b8 e1 3e 1f 9c 0e bf
       -0.22000854 -0.17227481 0.44085705 -0.5570697
0003e0 35 1e b2 3e 9b e2 c6 3e 74 56 37 be 7d 70 85 3b
       0.3478867 0.3884476 -0.17904073 0.0040722475
0003f0 9b 35 08 bd 5a 87 31 bf ca 2a 20 3a 68 92 43 be
       -0.033254247 -0.69347155 0.00061098917 -0.19098818

conv2.bias f4 [40]
000000 66 28 43 3c 56 5c 1c 3c 56 4f 44 3d 8b b8 37 bd
       0.011911487 0.009543499 0.047927223 -0.04485373
000010 a2 c7 dc bc 00 00 00 00 f2 0a 88 ba a4 9f f5 bd
       -0.026950661 0.0 -0.0010379239 -0.1199334
000020 47 53 3a 3d 90 14 4b bd 02 b9 0b be bd 5a 6b bd
       0.045489576 -0.049580157 -0.13644794 -0.05745958
000030 b9 3c 4c bc 35 a4 0c be 4e 63 db bd 1b 72 c4 bb
       -0.012465649 -0.13734515 -0.107123 -0.0059950477
000040 0d d7 fe bb 9e 3e 0c be 40 8b d1 bc 52 7b b6 bd
       -0.007777101 -0.13695762 -0.025579095 -0.0891024
000050 ba 70 2f bd d0 31 7b be 5e 72 37 bd 9a 1f ee bd
       -0.042832114 -0.2453072 -0.044786803 -0.11627121
000060 9b c1 69 bd 13 5e 9c be dc 70 1a be 94 ac a4 bd
       -0.057069402 -0.30540523 -0.15082115 -0.08040729
000070 2b f8 bd bd 04 25 bd bd 95 41 85 bd 17 1f e5 3c
       -0.0927585 -0.09235576 -0.065066494 0.027968926
000080 c6 fa c8 3d 6e 3f 0b be e5 66 d4 bd 28 b3 ad bc
       0.09813456 -0.13598415 -0.10371188 -0.021203592
000090 95 98 36 3d 9a ed fe 3c 4e 8e 12 be 8b 42 5f bd
       0.044579107 0.031119157 -0.14312097 -0.05450682

conv3.fc_neigh.weight f4 [30, 40]
000000 71 73 e8 3d a8 6d c1 3d 7e 67 c9 3c 68 2c 08 3e
       0.11350144 0.094447434 0.024585482 0.1329819
000010 32 a8 91 3e 02 a0 ed bc bb a3 81 be 79 a9 c8 bd
       0.28448635 -0.029006962 -0.2532023 -0.09797949
000020 b7 d6 84 be bb 86 96 be a8 ae 85 be e6 b6 57 3e
       -0.25945064 -0.29399666 -0.26109815 0.21065864
000030 9a 4c a4 3d db 80 77 bc 49 63 1e bc e5 6e e9 bd
       0.08022423 -0.015106405 -0.009667226 -0.113981046
000040 8a 04 ae bd c7 09 52 3e ef 8a cc 3d 53 d2 b2 be
       -0.084969595 0.20511542 0.09987437 -0.3492609
000050 f6 ab 5b bd 5f 56 a8 be 0e 95 9f bd 53 c5 83 be
       -0.05363079 -0.32878396 -0.07792102 -0.25736484
000060 2a 69 70 3e 52 15 3e be 22 a1 54 3c 6e ca 9d 3d
       0.23477617 -0.1856282 0.01297787 0.07704626
000070 ca bb 13 be 18 86 55 3c 05 fe ba be 1a d3 a9 be
       -0.14427105 0.013032459 -0.36521927 -0.3316887
000080 2d 31 a5 be c8 d3 8e be 8b bd 2b 3d ac d5 9d 3e
       -0.3226408 -0.2789595 0.04192881 0.3082708
000090 4a 04 d9 3d c7 79 a5 be 5c d2 c6 be 74 4b 6b 3e
       0.10596521 -0.3231947 -0.38832366 0.22978002
0000a0 08 e2 6d bd e5 89 e5 3d 66 61 47 bd 1f c3 72 3e
       -0.05807689 0.11207942 -0.04867687 0.23707245
0000b0 ad 51 3f be 88 8b 88 bd a9 2e 78 be 53 cc b8 be
       -0.186835 -0.066672385 -0.2423655 -0.36093387
0000c0 c3 70 9b be 21 4c 63 3e 41 82 0d 3e d0 bd ba 3c
       -0.30359468 0.2219701 0.13819219 0.022795588
0000d0 a9 97 74 3f cb 35 7f bc 44 35 aa be 66 18 b6 be
       0.95543915 -0.01557679 -0.33243763 -0.3556549
0000e0 f5 99 9a be d3 df fd 3e 30 e1 f7 bd ab 6f ed be
       -0.30195585 0.49584827 -0.12103498 -0.46374258
0000f0 56 d6 fe 3d 3a 42 9f be fd ac de bd 09 15 eb 3c
       0.12443225 -0.31105214 -0.10872839 0.028696554
000100 32 3c 6d be 90 d1 1f 3e 8a 90 f3 be 8a e2 59 be
       -0.23167494 0.15607285 -0.47571212 -0.21277824
000110 0d f7 15 bf 68 4c 06 be c3 78 a4 3d a2 ec 8a 3e
       -0.58580095 -0.13115084 0.08030846 0.27133662
000120 17 06 8b be 54 bb e2 be 07 25 b3 be 15 80 06 bf
       -0.27153084 -0.44283545 -0.34989187 -0.5253919
000130 26 57 1b bd b8 5c 44 be b6 70 93 bd 53 64 dc 3e
       -0.037924908 -0.19175994 -0.07199232 0.4304529
000140 35 22 9b be b4 16 49 be 41 e9 44 3f ac 43 15 3e
       -0.30299535 -0.19637567 0.7691842 0.14576596
000150 91 db b9 3e 29 4b 31 be 88 cd 94 3e d4 e8 35 3e
       0.36300328 -0.17313828 0.29063058 0.17764598
000160 7e ee c3 3e e1 d1 b8 bd 1b fe b6 3e ad a0 d6 3a
       0.38267893 -0.09024406 0.35740742 0.0016374789
000170 82 85 2d bf ba 63 eb bf 75 cb 77 bb 85 49 60 3e
       -0.6778184 -1.8389809 -0.0037810479 0.21903045
000180 e8 26 1e bf 2c fd 9e bd 27 37 aa 3e 9b ea d4 bf
       -0.61778116 -0.077631325 0.33245203 -1.6634096
000190 27 11 7e 3b 13 b5 6f bf 0d b4 c6 be 3f e0 a1 be
       0.0038767548 -0.9363567 -0.38809243 -0.316164
0001a0 4a 60 7d 3e 04 5f 67 be 64 fe 37 bf fe c8 c8 be
       0.24743763 -0.2259484 -0.71872544 -0.39215845
0001b0 a5 b5 57 bf 7d 93 af be 07 b3 12 3e b8 e6 42 3d
       -0.8426154 -0.34292212 0.14326106 0.04758331
0001c0 ff cb 0b bf e0 0d 5e bf 99 ac 4e 3e d1 11 d6 be
       -0.5460815 -0.8673992 0.20183028 -0.41810468
0001d0 e8 94 c8 3e 19 f9 8d be 05 89 1a bf c6 e1 64 be
       0.39176106 -0.2772911 -0.60365325 -0.2235175
0001e0 d7 a8 dc 3d 6d 4f 44 3f 23 d2 18 bf e6 93 8c 3e
       0.10774391 0.76683694 -0.59695643 0.27456588
0001f0 2f 67 a8 3e 1c ef ec ba b4 67 8a 3e c3 eb 8d be
       0.32891223 -0.0018076631 0.27032244 -0.27718934
000200 f0 11 b9 bc 95 c7 52 3e 78 97 69 be 0e ab 4b be
       -0.022591561 0.20583947 -0.22811687 -0.19889471
000210 56 1c d4 3e 9a 4b 7f 3e 65 df 1f bf 48 57 6d 3e
       0.4142787 0.24931183 -0.6245025 0.23177826
000220 bc 7b d4 be aa d6 e3 be 3e e2 33 3d 69 74 3b bf
       -0.41500652 -0.44499713 0.043916933 -0.732245
000230 3c 27 18 be 44 e3 5d bf 87 21 99 be 7d b2 5c 3e
       -0.14858717 -0.86674905 -0.29908392 0.21552463
000240 e3 58 28 3d 60 78 f3 be 37 d4 dd be ca 3a 2c be
       0.041100394 -0.47552776 -0.4332597 -0.16819301
000250 3d 33 03 bf 58 38 0f bf 51 18 da 3c 71 c6 79 be
       -0.5125006 -0.5594535 0.026622923 -0.24392106
000260 0a 2b ca be 26 93 ab bd 64 58 4b 3f 8a f0 d8 3e
       -0.3948596 -0.08377676 0.7943175 0.42371017
000270 dd ed 17 bc c7 fa 71 bd ed bf 0d bf 54 8a 1f bf
       -0.00927302 -0.05907705 -0.5537098 -0.62320447
000280 6d e5 f1 bc 9f f3 db be a0 78 44 3d ac 2d 10 3e
       -0.029528344 -0.42959306 0.0479666 0.14079922
000290 bc 68 8b be 71 99 c2 3e 93 c5 6d be 88 39 a8 be
       -0.27228343 0.38007692 -0.232199 -0.32856393
0002a0 22 ef cf 3e 4b c8 93 3e d0 e2 0a bf fe 7b 16 39
       0.4061213 0.2886375 -0.5425234 0.00014351305
0002b0 57 69 41 3f dc e7 38 3e c5 63 ac bc d5 85 50 3e
       0.7555136 0.18057197 -0.021043668 0.20363553
0002c0 31 e8 df 3b cd 88 39 bf 67 60 aa be f3 f1 b1 3e
       0.0068330993 -0.72474366 -0.33276674 0.34754905
0002d0 6a f6 9b be 34 72 46 3e 07 47 52 bc 95 f1 43 3d
       -0.30461437 0.19379503 -0.012834317 0.047837812
0002e0 c4 f3 d0 be 32 c9 71 be 75 18 96 3d b5 f5 b1 3e
       -0.40810978 -0.23611906 0.073288836 0.34757772
0002f0 cb 6c 12 3f 0b 97 48 be 09 bb c4 3e 91 57 b0 be
       0.57197255 -0.19588868 0.38423946 -0.34441808
000300 92 90 b5 3e 1b 00 93 3e b8 84 08 be 1c 58 e5 be
       0.3546186 0.28711018 -0.13331878 -0.44793785
000310 bd a7 85 be c6 1e 4e 3e 86 63 bc 3d 4b 87 53 3e
       -0.26104537 0.20128927 0.0919867 0.20657079
000320 f7 66 01 3e 6f d8 71 be 68 5a d6 3e 06 2a 89 3e
       0.12636934 -0.23617719 0.4186585 0.26789874
000330 c9 a5 96 bd 04 e9 73 be 75 2f f6 bb 52 99 a8 3d
       -0.0735584 -0.23819357 -0.0075129815 0.082323685
000340 03 5e d2 3e 4a e3 b0 3e 0e 5c 63 bd 24 bc 1c be
       0.4108735 0.34548408 -0.055507712 -0.15306145
000350 8a 75 5a bf 4e a2 1d bb 93 72 7b be 18 95 88 3e
       -0.853356 -0.002405304 -0.24555425 0.2667625
000360 98 db d6 3e 01 8a e6 be 40 32 d5 3e c0 cb da bd
       0.41964412 -0.45027164 0.416399 -0.106833935
000370 1c 2d 02 3e 3e dc 41 3e f6 9a 59 3e 46 52 d6 3c
       0.1271252 0.18931672 0.21250519 0.026162278
000380 98 cc b5 be ac 63 65 be 83 a3 2e be 60 5c 85 be
       -0.35507655 -0.22401303 -0.17054562 -0.2604704
000390 9a a2 aa 3e 8d d9 b3 be 67 90 e3 be 92 6e e2 3d
       0.3332718 -0.35126916 -0.44446108 0.11056246
0003a0 b9 46 a0 3e 57 5d 18 bd 3f 68 08 bd db de 84 be
       0.31303957 -0.03719839 -0.03330254 -0.25951275
0003b0 aa 52 0b 3d 5e 36 0b 3f 8c a5 6f 3e 13 17 ad be
       0.03401438 0.5437983 0.23402995 -0.33806667
0003c0 8a 68 41 3e 54 8b 64 3f 57 94 20 3e 24 ea 03 be
       0.18887535 0.892751 0.15681587 -0.12882286
0003d0 5e ec b9 3e ff 27 1d 3c 66 b1 25 bf 1b 90 b2 3e
       0.36313146 0.009592055 -0.64723814 0.3487557
0003e0 8d 22 24 bf 14 16 16 bf 3a ba f5 be 37 a3 8d 3e
       -0.6411522 -0.5862744 -0.47993642 0.27663586
0003f0 34 87 94 bf 2b 9d 92 be 78 8a 39 bf 73 8a bc be
       -1.1603761 -0.28635535 -0.7247691 -0.36824378

conv3.fc_self.weight f4 [30, 40]
000000 00 8b 41 bd c3 8e a6 3e ba 7c 57 be 7a ea d2 be
       -0.0472517 0.32530794 -0.21043673 -0.41194516
000010 93 26 26 3d 29 7c 9e be 37 8a 22 be c2 ca f2 3c
       0.04056413 -0.30954102 -0.15873037 0.029637698
000020 88 58 7f be 40 af ad be 39 1b 33 3e b4 bc 07 3e
       -0.24936116 -0.33922768 0.17490853 0.13255578
000030 9b a4 3a 3d 83 26 76 bc 4f 05 46 be 12 b0 a1 3e
       0.045567136 -0.01502383 -0.19337963 0.31579643
000040 42 3e ae be bc 78 9e 3e b4 30 95 be 6f cf 87 be
       -0.34031874 0.30951488 -0.2913872 -0.26525447
000050 a1 0a 7d 3e 75 c8 81 be 69 1d 6a 3e 92 14 5e bd
       0.24711086 -0.2534825 0.22862782 -0.054218836
000060 42 64 a5 be f2 b1 7e 3e 5b 92 22 3e 0e 9b bc 3e
       -0.32303053 0.24872568 0.15876143 0.36837047
000070 7b be cf be ec 65 54 3c 43 24 60 bd 3b c6 0c 3e
       -0.40575013 0.012963753 -0.054722082 0.13747494
000080 97 5b c7 be 7b f4 83 be 72 42 ce be 18 31 36 be
       -0.38937065 -0.2577246 -0.4028507 -0.17792165
000090 35 6f bc bc a6 89 8e be 36 c6 78 be 5b d0 d0 be
       -0.023002246 -0.27839392 -0.24294361 -0.40783963
0000a0 59 2e 40 be df 26 19 bf eb 5a ce be 0b b5 99 bd
       -0.1876768 -0.5982494 -0.4030374 -0.07505234
0000b0 f3 bc d1 3e 77 7d 35 3e e8 10 e9 3e 70 61 1e bd
       0.4096447 0.17723642 0.4552071 -0.038667142
0000c0 31 67 10 3f 31 8e ec bd ae 37 b1 bd e7 4a 6e be
       0.5640746 -0.11550558 -0.08653198 -0.2327076
0000d0 99 36 8e 3f e6 03 c9 3d 03 cd 06 3e b7 23 ad 3d
       1.1110412 0.09815197 0.13164143 0.08454078
0000e0 ba 21 46 be f7 38 a2 be a4 aa ad 3e 65 49 3c be
       -0.19348803 -0.31684086 0.3391925 -0.18387373
0000f0 8c bf c4 3e d0 5d d8 bd 9a f1 ce 3d 9b 34 7a bd
       0.3842739 -0.10564768 0.101046756 -0.061085325
000100 88 6e 4f bf 1f 96 08 3f a4 3e 4d 3e 46 e3 30 be
       -0.8102803 0.53354067 0.20043427 -0.17274198
000110 0b 5a 7a bf d7 40 0b 3f 59 86 15 be 13 12 2c be
       -0.97793645 0.5439581 -0.14602031 -0.1680377
000120 47 3f 80 be e2 a8 e1 bd 43 aa cd 3d e8 cf 0d bf
       -0.25048277 -0.1101854 0.100422405 -0.55395365
000130 b2 5b b4 3d 10 ed 9d 3e 1f 7c a1 3d 47 05 6a 3e
       0.08806552 0.30844927 0.07885002 0.22853576
000140 16 b1 64 bd 10 08 71 be 54 95 bf 3e b1 24 f2 3e
       -0.055832945 -0.23538232 0.37418616 0.47293618
000150 b2 bf 9d 3c 72 ea 79 bd 52 51 d4 3d f4 5d 96 3e
       0.019256447 -0.0610146 0.10367073 0.29368556
000160 8e e9 c0 3e 6f 00 8e 3e a7 05 0d 3e d4 53 90 3e
       0.37678188 0.27734706 0.13771687 0.28188956
000170 e9 bb 07 3e a9 0c 1a bf 60 26 a0 3e 5e 84 c3 3e
       0.13255276 -0.6017557 0.31279278 0.38186926
000180 f0 1c 16 3f 9d a7 f2 3d e6 96 ea 3d ca 24 60 bf
       0.58637905 0.11848376 0.11454563 -0.87556136
000190 b1 34 ad 3d 97 2b 05 bf 34 83 1b be 50 5f 87 be
       0.08457316 -0.5201964 -0.15186769 -0.26439905
0001a0 05 65 49 3e da 1f ad 3d c8 ca 1a bf 7a 14 a4 be
       0.19667442 0.08453341 -0.6046567 -0.32046872
0001b0 cc 55 c8 be 02 b0 9b 3d 60 ad 85 3e 4a 76 aa be
       -0.39127958 0.0760193 0.26108837 -0.33293372
0001c0 52 a4 52 bd 45 c5 81 bf 6b 88 13 be 88 05 4d be
       -0.05142624 -1.0138327 -0.14407508 -0.20021641
0001d0 83 f8 b7 3d 95 ae 43 3e 8e c8 0f be 7d 3a 74 3e
       0.08982947 0.19109567 -0.1404135 0.23850437
0001e0 98 06 eb be 5e 0a 16 3f db 70 d2 be 77 5e 38 bd
       -0.45903468 0.5860957 -0.41101727 -0.045011964
0001f0 e9 ad ac 3e 6b 7d 66 3d f3 f6 01 be f3 ca 41 be
       0.33726433 0.05627195 -0.1269186 -0.18925075
000200 dc f3 b7 bd 37 1d 82 3e 57 e0 4b bd d0 8c ce be
       -0.08982059 0.25412914 -0.049774494 -0.40341806
000210 ba a3 10 3e bd 16 d4 3c 9a 43 4d bf 3c cd 8e 3e
       0.14124957 0.025889749 -0.80181277 0.27890956
000220 7a b3 0c 3e 9d 51 26 3f 0a b1 66 3c db 75 e3 bd
       0.1374034 0.6496828 0.014080295 -0.111064635
000230 1f b0 d4 3e 6b c8 16 3f b9 e9 6b be a9 f7 9a 3e
       0.4154062 0.58899564 -0.23038377 0.30267075
000240 07 92 8b 3e c5 a5 98 3e 6a c9 22 3d 2c f9 da bc
       0.27259848 0.29813972 0.039742865 -0.026730143
000250 b6 dc 3e 3f c2 93 d8 3e 57 1c 68 3e c0 3e 77 be
       0.7455553 0.4230023 0.22667061 -0.24145031
000260 81 d3 a6 be 79 04 a1 3e df 37 4a bf 4d 1e 45 3f
       -0.3258324 0.31448725 -0.789915 0.7699936
000270 0e d1 c5 3e 33 68 ee 3e a6 9f 1a 3e 0b a8 83 3e
       0.3863606 0.46563873 0.15099964 0.25714144
000280 a6 39 0d 3f 04 7e e7 be aa d1 19 bf 30 4f 7b 3c
       0.5516609 -0.4521333 -0.60085547 0.015338704
000290 98 5e 72 be fd d6 b5 be 81 48 94 be c2 a0 6d 3e
       -0.23668897 -0.35515586 -0.28961566 0.23205855
0002a0 72 63 49 3e dd 2a 1e be 08 1e dd be 14 47 26 be
       0.19666842 -0.15446039 -0.43186975 -0.16238052
0002b0 a0 ca 5b 3f f3 9f 73 bd 07 1b a3 bd c5 36 43 be
       0.85856056 -0.05947871 -0.079641394 -0.19063862
0002c0 a0 6b 4c be 80 58 03 3f 88 2f ff 3e fd b7 aa 3e
       -0.1996293 0.51306915 0.4984095 0.33343497
0002d0 40 9d 8a 3e a0 11 a9 3e 77 89 7f be 93 be a6 3e
       0.27073097 0.3302126 -0.24954782 0.32567272
0002e0 4c 92 80 3e cd 2e 00 3f 17 bd b6 be e8 71 1c 3e
       0.25111616 0.5007141 -0.3569114 0.15277827
0002f0 a8 fa 34 3f 1b 22 27 3e c2 80 e2 3c fd 0d 36 be
       0.7069497 0.16321604 0.027649287 -0.17778774
000300 f4 b3 bc 3d 59 73 15 3d d0 ea 02 3e 1d 06 f8 be
       0.09214011 0.036486957 0.12784886 -0.48442164
000310 a8 f2 e8 be 2d ed 67 3e bf f7 bb 3e 53 93 7b be
       -0.45497632 0.22649069 0.36712453 -0.24567918
000320 33 7c 0a 3e b8 e1 c8 be 27 e2 32 be e1 ce 76 bd
       0.1352394 -0.3923471 -0.17469083 -0.06025589
000330 92 50 e1 3d bf df 93 3e da 45 f6 3e 9c da a3 be
       0.11001696 0.28881642 0.48100168 -0.32002723
000340 d9 ba d2 3e fc 7c cd 3e 20 87 03 3e 49 ec 08 3e
       0.41158178 0.40134418 0.12844515 0.13371386
000350 76 bf 77 bf 74 65 3b be 9d fd b6 3c 75 19 a0 be
       -0.9677652 -0.1830042 0.02233773 -0.31269422
000360 23 b9 eb 3e f1 4b 0f be 88 a2 14 3e 06 57 48 3c
       0.46039686 -0.13993813 0.14515126 0.012227779
000370 fb 49 a6 bd ba 6b cf 3d c4 7c 7f be e1 d0 f1 3e
       -0.081195794 0.10127969 -0.24949938 0.47229674
000380 d3 45 10 3c 41 59 8e 3e 67 23 85 3e 21 4e a4 be
       0.00880571 0.2780247 0.26003572 -0.32090858
000390 ef 2f 09 bf 11 9c 3f be d8 ff 05 be 49 91 4c be
       -0.53588766 -0.18711878 -0.13085878 -0.19977297
0003a0 cc b0 0f 3e 12 25 c4 bd f5 87 19 bf 8f d0 1a be
       0.14032286 -0.09577383 -0.5997308 -0.15118621
0003b0 d3 b6 ff 3e 32 bf 31 be b1 1e 96 be 38 b3 f2 3e
       0.4994417 -0.17358091 -0.2932029 0.47402358
0003c0 73 2c 74 be f0 18 1b 3e 10 81 60 bd fe 6a 78 3e
       -0.23845081 0.15146232 -0.054810584 0.24259564
0003d0 8f 17 f5 bc 0e 12 d3 be 5a 3b c2 be 60 b3 1b 3f
       -0.02991846 -0.41224712 -0.37935907 0.6082058
0003e0 9d dc 7a 3e b6 b3 fa 3e e5 04 54 3c 2a d1 78 3d
       0.2449822 0.48965234 0.01294062 0.06074635
0003f0 47 cd bf 3b 9b 35 fd 3e 9d 65 df be ca ca 08 3e
       0.0058533284 0.4945496 -0.43632212 0.13358608

conv3.fc_self.bias f4 [30]
000000 f9 b2 8a 3d 5f a5 d1 3b 4c 68 5e 3d 5a 70 4a be
       0.067724176 0.0063978876 0.054298684 -0.19769421
000010 33 a4 b6 bd 32 5c 96 3e b0 33 8f bd 66 3f 43 3d
       -0.08918037 0.29367214 -0.069922805 0.047667883
000020 82 56 a2 3d 24 5f 94 bd eb 4a 04 3d b7 2c 25 3d
       0.07926656 -0.07244709 0.03229801 0.040325847
000030 92 c5 bf 3d bb 5f ad be 15 02 9a 3d a7 99 d8 bd
       0.093638554 -0.338621 0.07519928 -0.10576182
000040 d4 24 12 be 3c a1 4e bd d1 7e c3 3d e9 b2 4a be
       -0.14271861 -0.050446734 0.09545673 -0.19794811
000050 16 b7 8e 3d 89 6c 16 bd a3 49 21 be ec a4 1d bd
       0.069685146 -0.0367246 -0.15750746 -0.03848736
000060 5c e4 c2 be ef dd f3 3c ae e8 c8 bc 1b eb bc bd
       -0.3806485 0.029768912 -0.024525013 -0.0922453
000070 ad 47 f2 3b 08 7b 8d 3e
       0.0073937983 0.27632928

conv4.fc_neigh.weight f4 [20, 30]
000000 a7 0a 70 3d 84 10 87 3e db 3d 84 bf a0 69 71 3f
       0.05860391 0.26379788 -1.0331377 0.94301796
000010 b3 d5 a1 3d af 89 35 be 4b 1b c7 be 26 91 5e be
       0.07902088 -0.17728303 -0.3888801 -0.21735057
000020 ca f4 2f be c7 ed 45 3e 77 3c 9f be 81 26 c5 be
       -0.17183223 0.19328986 -0.3110082 -0.3850594
000030 27 8b bb 3e 03 14 8e bc d6 57 c6 bf e0 ad e1 3e
       0.36629602 -0.017343527 -1.5495555 0.4407797
000040 9c 8e 3a bc 68 ee 8c be b2 76 70 3d 94 e2 76 bf
       -0.01138654 -0.2752564 0.058706947 -0.9643948
000050 5f d3 51 3e 5d 72 0f be d8 35 d8 3e 46 98 22 3f
       0.20490788 -0.1400847 0.4222858 0.635136
000060 00 46 13 3e f2 d8 10 bf de 5b 09 3f 7b 16 53 3c
       0.14382172 -0.5658103 0.53655803 0.012883778
000070 85 9f 49 3f 5b 3d 1c bf d3 a1 91 3e e9 56 b8 3e
       0.7875903 -0.6103112 0.28443775 0.36003807
000080 9c b4 33 be d3 dd 98 be 7f d0 df 3e b3 16 14 3e
       -0.17549366 -0.29856738 0.43713757 0.14461784
000090 72 0b d4 3e 19 29 f7 be 43 3a a4 be 0b 93 24 3e
       0.41414982 -0.48273543 -0.320757 0.16071717
0000a0 8e 7b 19 be 53 8c 88 3e 5a 30 e0 be 0b c2 28 3e
       -0.14988539 0.2666956 -0.4378689 0.16480272
0000b0 21 82 02 3f 60 bd aa 3e 2b 1a 72 bf 47 cf 48 3e
       0.5097981 0.33347607 -0.9457118 0.1961032
0000c0 f0 89 df 3e 5b 5a d6 3d 96 b9 7d 3e 77 1c 58 3e
       0.43659925 0.10466453 0.24777827 0.21104608
0000d0 6a 58 d2 bd 4e 5b 86 3e 6d 78 1e 3f d3 ea f0 3e
       -0.1027077 0.26241535 0.61902505 0.47054157
0000e0 ca 1f 78 be 81 bf 98 3e 7f 16 04 be 90 81 5a 3e
       -0.24230877 0.29833606 -0.12899207 0.21338487
0000f0 da 52 0c 3e df 99 a6 3d db 6b 36 be 58 59 00 be
       0.1370348 0.08134817 -0.17814581 -0.12534082
000100 91 1f 22 3e f1 bb 33 bf 3d bf 8b 3d 17 97 b9 3d
       0.15832354 -0.7020865 0.06823585 0.09062021
000110 fe 31 3b be be 7f 74 be a9 5a 2a 3e cc 93 0d 3f
       -0.1828079 -0.23876855 0.16636147 0.55303645
000120 72 6f e0 3e 69 7d 9a 3e e5 a2 a0 be 8c 21 e1 be
       0.43835026 0.30173805 -0.3137428 -0.43970907
000130 6c f9 43 3f b1 4a 7f 3e ab 7c fb be 18 58 43 3e
       0.7655246 0.24930836 -0.49118552 0.19076574
000140 4b 73 61 3e aa 26 dd 3d 17 51 24 bd 2a 52 e0 3e
       0.22016637 0.1079839 -0.040116396 0.43812686
000150 e5 b3 bd 3c aa e7 0a 3e 8d 99 46 be d3 a5 dc be
       0.02315707 0.13564935 -0.19394512 -0.43095264
000160 b9 de 24 bf 5e a5 4b bf 53 90 f2 be c3 73 e2 bf
       -0.6440235 -0.79549205 -0.47375736 -1.7691578
000170 95 81 14 3f d5 e2 ae 3f 18 1d ad 3e 9b cd cc be
       0.58010226 1.3662974 0.3381126 -0.40000615
000180 d9 a7 0e 3d ce 76 d0 bd 90 92 0c c0 8f 3c f9 3d
       0.03482804 -0.1017891 -2.1964455 0.12169754
000190 19 a0 18 3e 2a c8 46 be d3 76 41 bf 7e 80 55 3b
       0.14904822 -0.19412294 -0.75571936 0.0032577808
0001a0 f7 ff 6d 3e 79 a0 c1 3e ce 37 42 3f a1 ac 12 bf
       0.23242174 0.37817743 0.758664 -0.5729466
0001b0 2c 1f 76 be 27 ce c4 bd fc 21 7f 3e a7 0d 91 bc
       -0.24035329 -0.09609633 0.24915308 -0.017706705
0001c0 1a d5 40 3e 8d 5f d7 bf d5 ff b7 3e f3 01 27 3f
       0.18831292 -1.6826035 0.35937372 0.6523735
0001d0 e5 6b 0d 3e e4 12 96 bb a0 68 2f 3e 4f c4 be be
       0.1381069 -0.0045798887 0.17129755 -0.37259147
0001e0 bd 25 a1 be 7e 2c 2e 3d 0d e8 bf 3e a5 35 38 bf
       -0.31474105 0.0425229 0.37481728 -0.71956855
0001f0 45 6a 19 bd 09 dc ac be fd 1a 9d be 03 5e 82 3e
       -0.037454862 -0.33761624 -0.30684653 0.2546235
000200 71 9c 61 3e 00 3e 09 bf 8a c3 6d 3c 2a 9d 2f 3e
       0.22032334 -0.5361023 0.014511952 0.17149797
000210 b9 97 f6 be 66 23 94 3d 36 30 90 3d 65 67 5e be
       -0.4816263 0.07233314 0.070404455 -0.2171913
000220 74 40 c1 3e 1e 5a 29 be b3 64 63 be 07 7c 78 3d
       0.37744486 -0.16538283 -0.22206382 0.060665157
000230 14 2b 3c 3d 4f 29 88 3e 1a fe 96 3e 1e 5a 80 3d
       0.04593952 0.26594016 0.2949074 0.062671885
000240 78 6e fd be 50 37 30 be 79 33 74 be f3 02 b0 be
       -0.49498343 -0.172086 -0.2384776 -0.3437725
000250 94 24 86 3d 66 60 54 bd b6 4b e0 3e 65 d5 cc 3e
       0.065499455 -0.051849745 0.43807763 0.40006557
000260 ca d9 00 3f 64 88 25 3e a2 f2 4b 3d f9 23 a5 be
       0.5033232 0.1616531 0.04979194 -0.32254007
000270 4b ff 5e be 4d 7e 71 3e 40 0c 29 3e 09 06 1e bf
       -0.21777074 0.23583336 0.16508579 -0.6172796
000280 ad 0d d8 3e 78 b5 71 3e da 84 52 3e 71 39 bd bd
       0.42197934 0.23604381 0.20558491 -0.09239472
000290 3b 97 df be c2 4a 8c 3c 37 1b e2 3d 9f 31 58 be
       -0.43670067 0.017125491 0.11040347 -0.21112679
0002a0 7f 50 01 be 1d c9 ce be 94 f1 ea bd 9f 41 ca 3e
       -0.12628363 -0.40387812 -0.114718586 0.3950319
0002b0 0f fa c4 bc 7c c3 83 3e 08 6f 5a 3e 9f 5a e7 bd
       -0.024045018 0.2573508 0.21331418 -0.112965815
0002c0 08 87 30 be a3 20 9f 3e ee 1c 61 3f 15 a2 25 3f
       -0.1723901 0.31079587 0.8793477 0.6470044
0002d0 49 28 6c 3e 63 2d da 3e af f8 4c be bf 21 d6 3e
       0.23062243 0.42612752 -0.2001674 0.4182262
0002e0 8c 4e 0a 3e d8 8f ee ba 0b 39 bb 3d 47 6e d1 3e
       0.13506526 -0.0018200828 0.091417395 0.40904447
0002f0 1a b3 39 3e 84 b5 ec be 77 ef 4e bf 1a c2 a8 3e
       0.18134728 -0.46232235 -0.80834144 0.32960588
000300 2f e9 f4 bd 7d 2d 07 bf b0 79 92 be 92 49 c2 bd
       -0.11958539 -0.52803785 -0.28608465 -0.09486689
000310 d2 ef 4c 3f 31 f5 bf be 5f b6 69 be fe 60 e0 bf
       0.80053437 -0.37491754 -0.22823475 -1.75296
000320 3a 4b 6d bf e3 49 a9 3e 1a e2 c2 3e 4d 4e 94 3e
       -0.9269291 0.33064184 0.38063127 0.2896599
000330 b8 26 08 bf 05 e5 02 bf 1d ce ae 3e cd 61 ae 3e
       -0.5318408 -0.51130706 0.34141627 0.3405899
000340 1c 69 37 bf 42 32 08 3f f6 07 21 be f5 f9 59 3e
       -0.7164476 0.5320169 -0.15725693 0.21286757
000350 49 a0 c8 bd ec 56 e8 3e 05 7f 0a 3f db 17 ee bd
       -0.09796197 0.45378816 0.54100066 -0.11625644
000360 0c 47 83 3d ba 32 e6 3e 54 65 16 3d c7 4e 2e 3e
       0.064100355 0.44960576 0.036717728 0.17022239
000370 8a 60 0e bf 5b f8 45 bf 43 b5 4f bd 70 ca df be
       -0.55616057 -0.77332085 -0.050709974 -0.43709135
000380 8f 3f d1 bd bd 08 f8 3e eb 3d 8a be d7 c0 05 be
       -0.10217201 0.48444167 -0.27000365 -0.13061844
000390 4c 79 78 3e e0 2c 43 3f b6 c5 43 3e dd f8 20 3e
       0.24265021 0.7624035 0.1911839 0.15719934
0003a0 6e 8a 2b 3e b1 4c d0 3e 57 25 62 bf 85 8a 44 3f
       0.16752025 0.4068351 -0.88338226 0.76773864
0003b0 90 1a d6 be 5b b8 21 3e 3f f4 92 bf 2a 3d 13 3f
       -0.4181714 0.15792982 -1.1480788 0.57515204
0003c0 ca 21 1a bd f6 10 6f be 06 66 31 3e ef 7d 61 be
       -0.03762988 -0.23346314 0.17324075 -0.22020696
0003d0 4c 0c db be be 29 96 3e ea 1b 88 bd 26 69 18 3d
       -0.4278282 0.29328722 -0.06645949 0.037209652
0003e0 03 a0 84 be 0e 19 7c 3d 3a 20 18 bf 2f eb 65 be
       -0.2590333 0.06154733 -0.59424174 -0.22452997
0003f0 f8 75 88 3e 64 aa 2a 3d d0 a6 3b 3f 25 3e 34 3d
       0.26652503 0.041666403 0.7330141 0.04400458
