VVG/Experiment_3 - Aggregation/Images7/model7_rr.pth (torch, 32716 bytes, 18 tensors)

conv1.fc_neigh.weight f4 [50, 5]
00000000: 8a6a c23e 1e6d e23f f81c 4e3e 4deb b9be
00000010: 9680 ea3e 2dc9 f43b ffb0 cabe 5df8 d03e
00000020: 6eac be3d 0c63 983e 1077 d7be b1fd c13e
00000030: 481e 91be 84cc 56bd eda6 82be 5dfb 9a3e
00000040: 1f3c 553f 4ecf 04c0 4a55 b2be 3177 8b3e
00000050: 4464 5a3e 3a5c 60be b72c 8b3f 46d9 8c3e
00000060: 8cbe eabe 539c 063d 6745 f1bf 309e 253f
00000070: 102d 693c 3e3d fdbe fd74 1d3e 97a5 d6be
00000080: 79bf f1bf 08ae 1d3e d0ec c63e 35f1 88be
00000090: 5d12 58be 80df b23e 6955 01bd 2679 dcbe
000000a0: d4f8 9dbe 3a7e 5ebe a24e 54bd d544 b43e
000000b0: ae42 713d 5344 583f 8fef a03f 70a3 f53f
000000c0: dba9 f93c e1e6 d2be 996f c63e 88e7 83be
000000d0: 00ab bf3f 1fa2 ddbe 6f23 943d 1c98 253e
000000e0: fcca 813e 7636 2540 4721 8a3b 37ee cfbe
000000f0: c208 0abf 01cb a1bf 200b 5fbf 2d8c a03e
00000100: aa43 dfbd 9590 25be 577a d9be 539b b93e
00000110: 699f edbe 1663 20bd 5e0b 5cbd bf9e 1cbe
00000120: 60c1 b4be 5cb0 23bd 621b babe a92f 1bbd
00000130: cf0d 4e3f 3db0 0540 76d5 293e 5a4d 8c3e
00000140: 6308 d2bd a145 4d3f f683 72be 7b70 f43d
00000150: af8c debe f64b 83be 5bf9 283e 5871 01be
00000160: a200 9abe 1853 0dbe 092b 65be 008a 443f
00000170: 24c1 8f3f df9e 34bd e279 723e b29c bebe
00000180: 11f2 9d3e 5656 bb3e f7a8 c9bd 2921 9bbe
00000190: d0cc bdbe c297 fcbf de81 07c0 f095 633e
000001a0: 19b5 4e3e 8a56 e43d ebba 45bd cf9a a2be
000001b0: d94f 85be 9271 62be d07a 83bf a212 793f
000001c0: 45f1 22c0 5aa4 abbe 0bc1 acbe 3773 cfbd
000001d0: e157 7f3e f73a 203f e414 433d b835 43bc
000001e0: 326e ce3e 3a87 b8bf f8c4 bdbf ecc6 4e3e
000001f0: da43 29be 7df9 0c3f 6d62 3140 e051 9f3e
00000200: b86d 93be 88cd b83e 61a8 34bf 1e33 a6be
00000210: 5797 b23d 8d39 f63e 20e6 b7bd 1949 2cbe
00000220: 6a9c 75bf 9ea1 e13f cee7 f83e e020 773e
00000230: 6a65 bebc 2a58 1d3e a7d7 87bf ba04 95be
00000240: 3cb9 903e 98cd b3be 543a db3f c5ff 0740
00000250: d26f 73be dc1c 963e 7bdc 96be 2e52 c0bf
00000260: 4135 023e a5ec 3f3e 3d30 ffbe f301 913e
00000270: 6d22 053f 706e 66bf 073c 81be b307 713e
00000280: 1b66 783e c1bc 7d3f 111b 823f 6a93 98be
00000290: 8383 e2bd 95c0 86be d17a 64be 1cb1 0440
000002a0: 960c ab3e 8733 1fbe 679e 093f df64 033f
000002b0: a32b 0940 df06 883d 3b1e 643e 8aaf b33e
000002c0: a44e 0dbf 8dcf 08bf 92e3 00bf 99db 2f3e
000002d0: decc d53e 979a 9abc f0f5 af3d 6dac 33be
000002e0: 79ce 94be 18a9 63bd cc1c 9ebe 1303 1ebd
000002f0: a66e 3c3e 751d 893d 4599 853e 9a0b 13be
00000300: ce6f eabf 60f7 c53e 0d42 a6be 8f11 663e
00000310: a51e 4abd 9f29 043f be73 43be 92eb 81be
00000320: 703c a93e 0291 593f f1f0 65bf c26a 05be
00000330: f441 913e e605 e0be fba6 103f eada de3f
00000340: 38ec 0f3e c4a2 e9bd ca4a 0dbf 1c62 c2be
00000350: e238 5dc0 826f d83d 0767 063f 27c4 ba3e
00000360: a9f3 34bf 796f 11c0 93f6 52be 04cc c0be
00000370: 5c01 9dbe aebd 08be cd23 2440 19e4 853c
00000380: 938a c4bd 1b2e fe3e af55 96be 03d3 49be
00000390: 4304 cabe 2c6c 44be 42dc 48bf 7ea4 a43d
000003a0: 1adc bbbf 7311 9c3e bb14 4ebb f256 943c
000003b0: 28f6 c93e 0c54 c03e e780 06be 869d ba3b
000003c0: 92f0 623d 18f0 9abf 6e6e e03f d2df ba3e
000003d0: 3ad8 893e 6675 ce3e e86a b7bf 3419 7abf
000003e0: 9382 07be cdac 823e
0.37971908 1.768955 0.20128238 -0.36312333 0.45801228 0.007470271 -0.39588162 0.40814486
0.09310232 0.29763067 -0.42083025 0.37888864 -0.28343415 -0.052441135 -0.2551798 0.302699
0.8329486 -2.0751529 -0.34830695 0.27239373 0.21327311 -0.21910182 1.0873021 0.27509516
-0.458485 0.032863926 -1.8849305 0.646945 0.014231935 -0.49460787 0.15376659 -0.4192321
-1.8886558 0.15398419 0.3885255 -0.26746526 -0.21100755 0.34936142 -0.031575594 -0.4306118
-0.30853903 -0.21727839 -0.051832803 0.35208765 0.05890148 0.84479254 1.2573107 1.9190502
0.030476501 -0.41191772 0.38757017 -0.25762582 1.497406 -0.4328775 0.07233321 0.16171306
0.25350177 2.581449 0.0042153927 -0.4061143 -0.53919613 -1.2640077 -0.8712635 0.31356946
-0.10901578 -0.16168435 -0.4247615 0.36251315 -0.46410683 -0.039156996 -0.053721778 -0.15294932
-0.35303783 -0.03996311 -0.36349016 -0.03788725 0.8048982 2.0888817 0.16585335 0.27402765
-0.10255506 0.8018437 -0.23683152 0.119355164 -0.43466708 -0.2564389 0.16501372 -0.12640893
-0.30078608 -0.13801229 -0.22379698 0.7677307 1.1230817 -0.044096824 0.23679307 -0.37228924
0.30848745 0.36589307 -0.098466806 -0.30298737 -0.37070322 -1.9733813 -2.1173015 0.22225165
0.20186271 0.111493185 -0.048273962 -0.31758735 -0.2603748 -0.22113636 -1.0271854 0.97294056
-2.545976 -0.33523828 -0.3374103 -0.10129397 0.24935867 0.62589973 0.047627345 -0.011914663
0.40318447 -1.4416268 -1.4825735 0.2019307 -0.1652979 0.5506819 2.7716324 0.31117153
-0.28794646 0.36094308 -0.70569426 -0.32460874 0.08720272 0.48090783 -0.0897944 -0.1682476
-0.95941794 1.7627447 0.48614353 0.24133635 -0.023241717 0.15365663 -1.0612687 -0.2910517
0.28266323 -0.35117793 1.7127175 2.124986 -0.23773125 0.29318893 -0.29465088 -1.5025079
0.12715627 0.18742616 -0.4984149 0.283218 0.52005655 -0.90012264 -0.2524111 0.23538093
0.242577 0.9911614 1.016451 -0.29799968 -0.1106024 -0.26318803 -0.22312476 2.07331
0.3340804 -0.15547 0.5375733 0.5132579 2.1432884 0.066419356 0.22277157 0.35094863
-0.5519812 -0.534417 -0.50347245 0.17173614 0.41757864 -0.018872542 0.08591831 -0.17546244
-0.29063776 -0.055581182 -0.30881345 -0.03857715 0.18401584 0.066950716 0.26093498 -0.14359894
-1.831537 0.38665295 -0.32472268 0.22467636 -0.04934563 0.5162601 -0.19087121 -0.25375038
0.33053923 0.8498689 -0.8982077 -0.13029006 0.2837063 -0.437545 0.5650479 1.7410557
0.14054954 -0.11407998 -0.55192244 -0.37965477 -3.4565969 0.105681434 0.5250096 0.36477777
-0.70684296 -2.2724288 -0.20601873 -0.37655652 -0.306651 -0.13353607 2.564685 0.016344117
-0.095967434 0.4964455 -0.29362246 -0.19709401 -0.39456376 -0.1918189 -0.78461087 0.08039187
-1.4676545 0.30482063 -0.0031445462 0.018107865 0.39445615 0.37564123 -0.1313511 0.005695048
0.055405207 -1.2104521 1.75337 0.36498886 0.2692278 0.40323943 -1.43295 -0.97694707
-0.13233404 0.25522462

conv1.fc_self.weight f4 [50, 5]
00000000: 98bf 333e b999 9c3f e9f4 ff3f 11c8 c4be
00000010: e3bb ab3d 76b7 663e d887 28c0 6231 a2bf
00000020: af70 ca3e 9a77 163e ce7f 0ebe 80b2 5b3d
00000030: 2e21 9ebe 6d91 dcbe 4da1 95bd 5fa1 03be
00000040: a618 1fc0 fb28 1dc0 2163 22bc 9a94 6abb
00000050: 8132 8a3e 55f8 803e 7a1f bb3e 5c24 66bd
00000060: 91a7 d8bd a4c1 413d b36b 303f 89c2 e93f
00000070: fa99 d13e d1f5 313e ef4b 133e 0771 3cc0
00000080: 2c7a 3fc0 4f67 863d 727a bdbe 13fa 93be
00000090: a4c5 a43e 9fbf febe 6ae9 d63e 6fd1 16be
000000a0: c695 dbbc 60c9 2e3d 16c3 ce3d c058 a6be
000000b0: b870 4bbe da9d 72bf 5d10 dbbf 83cd 0540
000000c0: 235b 09bc 65f5 d43e 5a46 383f b9df 303f
000000d0: 989a d5bf 2cbb 7fbe 9dca 0d3e 5661 ccbe
000000e0: 1a4b 0b40 b12f 2f40 76c9 013f 76de 0c3e
000000f0: 1b99 afbe 2d37 f4bf a813 fabe 53f6 f0bd
00000100: cbb8 7fbe a848 8ebe 8447 e63e 7ace 1bbe
00000110: 4211 823e 476d 3c3e 8ef0 a93d 2ec5 453e
00000120: 2d9e c03e 7575 31be 63fc 8dbd 5fbf 38bc
00000130: e99d c0bf 624f c440 8147 9b3e 258f 8bbe
00000140: 057a 4abe 3bbc bc3f e642 c8bd c594 a73e
00000150: 7b54 00bf 756c 9cbd a477 703e 2c19 3abe
00000160: 0525 a03d 428e abbe d498 c6be 36cd 8cbf
00000170: fe7b c240 5ff5 cfbe cd56 c93e 426d 763c
00000180: 423b c73e cb4b 9a3e 058c 8c3d aaab fd3d
00000190: 3718 813e d96f 5abf 6ef7 c2c0 8c12 473e
000001a0: 925d ddbd 85a4 babe 9365 07bc 2310 b83e
000001b0: db95 9a3e 0162 21bc 89e1 c5be f53b 1bbf
000001c0: e578 92bf 08a6 673c 8c6d c33e a8d5 2f3e
000001d0: be02 3c40 bd0a 8ac0 4d45 2c3e 6f4c 89be
000001e0: b4b1 923d ffaf 11c0 c2f0 efbf a75e 7b3d
000001f0: 2f06 78be ff18 9bbe 7116 0ac0 42a6 9840
00000200: f3fb 98bd 6604 fa3d 7717 c3be e773 c1bf
00000210: 647b 06be 8ccb d43e 1027 9abe 9d1e a8bb
00000220: 3dff 1740 8c22 59bf 2f1e 75be 570d 03bf
00000230: 4930 a23e 077b dfbf 65d1 a8bf b60a eabc
00000240: df85 a23e d5fd 183e c075 df3f af45 6740
00000250: f237 b83e 8a4c 3b3e 5879 f73e 981c cbbf
00000260: 4b2f 89bf 5e2f c83e f1e4 99bd 3756 95be
00000270: 3855 04c0 a601 13bd 99e5 bc3e 8fc3 c53e
00000280: 41c1 99be f59c 0040 38f4 b13f 77ca 003f
00000290: 5860 81be f801 893e 9628 2b40 4852 fd3f
000002a0: 5279 babe ca5e 9bbb 1561 36bf a246 fdbe
000002b0: 0d5b 7c3f 17e1 46be 0a57 4fbe 4563 92be
000002c0: f29e 39bf c6a0 85c0 34db 843e a8d6 a03e
000002d0: 170f a93d 8bfa db3d a89f 403e 2a78 d7be
000002e0: 101e f4be 7fe1 333e 0195 b5be ef05 a7be
000002f0: aa1e 8dbe 1552 1ebe 3a4c 0a3f e1a0 17c0
00000300: cf7d 50c0 1794 f9bd 9d01 2abe be09 e0bd
00000310: f914 263e 83ba 7f3f ea1a e83e de90 ebbe
00000320: 6bf3 7ebe 20aa 18bf 8b1b 7fbf 8d4b 2abe
00000330: e5f7 bf3e bf1a 0b3e f1e7 4640 829c bd3f
00000340: fdf3 9dbd a91e 8a3e b4bd d1be 4c31 a3bf
00000350: 9e7a c5c0 2429 5b3e 2bd5 07bd 8680 acbe
00000360: ceaa 0ac0 4f91 52c0 01d7 1a3e 59e9 423e
00000370: 1dab 073f 0a1e fb3d 21a3 3640 7ea2 813d
00000380: 1b35 94bb 4c30 fe3e ed1e 9b3e 9426 923f
00000390: e053 e6bd 117a bdbe c284 5dbe e094 3ebe
000003a0: 6a4f 8a3e 8423 2b3d 787e 8d3e 6e18 5fbe
000003b0: 2a4b 44be cda2 ddbe de9d 873e e930 84be
000003c0: d3f3 d0bd 29e2 fa3f b255 bfbf e36e 1cbf
000003d0: ebdd adbe cff0 cd3e f9de 48c0 da38 b0bf
000003e0: 6915 3a3b e6ce ab3c
0.17553556 1.2234412 1.9996616 -0.3843389 0.08385446 0.22530922 -2.6332912 -1.267132
0.39539096 0.14694062 -0.13915941 0.053637028 -0.3088469 -0.430797 -0.07306156 -0.12854527
-2.4858794 -2.4556262 -0.0099113295 -0.003579414 0.26991656 0.25189462 0.36547452 -0.05618702
-0.10578836 0.04730381 0.68914336 1.8262492 0.40937787 0.17378928 0.14384435 -2.9443986
-2.9918318 0.06562673 -0.3700748 -0.2890173 0.32182038 -0.4975557 0.41974956 -0.1472833
-0.026804816 0.042672515 0.100958034 -0.32489586 -0.19867218 -0.9477211 -1.7114369 2.0906684
-0.008383545 0.4159347 0.7198235 0.69091374 -1.6687803 -0.24973744 0.13846822 -0.3991801
2.1764588 2.7372859 0.5069803 0.13756737 -0.34296498 -1.9079338 -0.48843122 -0.117657326
-0.24972837 -0.27789807 0.44976437 -0.15215483 0.25403792 0.18401061 0.08297835 0.193135
0.3762068 -0.17329963 -0.069329046 -0.011276095 -1.504819 6.1346903 0.3032799 -0.27257648
-0.1977311 1.4744943 -0.09778385 0.3273069 -0.50128907 -0.07637874 0.2348314 -0.18173665
0.07819561 -0.33506972 -0.38788474 -1.1000125 6.077636 -0.4061689 0.39324036 0.0150406975
0.38912398 0.3013595 0.06862644 0.12386258 0.25213787 -0.85326916 -6.092704 0.19440669
-0.10808863 -0.36453643 -0.008263963 0.3594981 0.30192456 -0.009850026 -0.38648632 -0.6063836
-1.1443144 0.014138706 0.38169515 0.17171347 2.9376674 -4.313811 0.16823311 -0.26816127
0.071628004 -2.276367 -1.8745348 0.061369564 -0.24221109 -0.30292508 -2.1576197 4.770295
-0.074699305 0.1220787 -0.3810384 -1.5113496 -0.13133007 0.41561544 -0.30107927 -0.0051306025
2.3749535 -0.8481834 -0.23937295 -0.5119223 0.31677464 -1.745942 -1.3188902 -0.02856956
0.3174276 0.14940579 1.745781 3.6136281 0.35980183 0.18290916 0.48334765 -1.5868101
-1.0717558 0.39098638 -0.0751437 -0.2916734 -2.0677013 -0.035890244 0.3689392 0.38625762
-0.30030254 2.00958 1.3902655 0.50308937 -0.25268817 0.26759315 2.6743522 1.9790735
-0.36420685 -0.0047415243 -0.71241885 -0.4946795 0.9857643 -0.19421802 -0.20248047 -0.28591362
-0.72508156 -4.1758757 0.2594849 0.3141377 0.08254831 0.10741147 0.18810904 -0.42083865
-0.47679186 0.17566489 -0.35465243 -0.32621714 -0.27562457 -0.15461 0.5402256 -2.3691943
-3.2576787 -0.12186449 -0.16602178 -0.10939358 0.16218938 0.9989397 0.45333034 -0.46008962
-0.24897544 -0.5963459 -0.996514 -0.16630383 0.37493816 0.13584422 3.1079066 1.4813387
-0.07712553 0.26976517 -0.40965044 -1.2749419 -6.171218 0.21402413 -0.033162277 -0.33691806
-2.166675 -3.290119 0.1512108 0.19034328 0.52995473 0.12261589 2.8537066 0.06329821
-0.004522932 0.49646223 0.30297032 1.1418023 -0.11246467 -0.37007192 -0.21632674 -0.18611479
0.27013713 0.041781917 0.2763555 -0.21786663 -0.19169298 -0.4328827 0.2648763 -0.25818565
-0.10202756 1.9600269 -1.4948027 -0.611067 -0.33958372 0.40222785 -3.1386092 -1.376735
0.002839411 0.02097268

conv1.fc_self.bias f4 [50]
00000000: bc7d 3dbe 9775 bdbe a2b6 763c f3ab 643e
00000010: 03ba 48bd c2b3 2cbe fc65 8abe 4cd0 2a3e
00000020: b733 58be c1a6 45bd e90a a5be be0e 4ebe
00000030: b445 903e ec1e a2be 1f1a 7c3d cb92 a6be
00000040: 30a0 453e be46 983d 3152 893e 0cdb 4a3d
00000050: e79f 793e 6033 95be 77a1 ff3e 125b d03d
00000060: c988 6d3c 6b54 cebd 4f5c b7be 3c94 0b3e
00000070: 502e 57bd 9614 81be 0cd7 843d 2c88 5d3b
00000080: 6457 903e 60cb 1c3e caa5 043e a505 1abe
00000090: 2bcb 4bbe 0813 2abe 73c3 4cbe fc5d c63e
000000a0: b98d 8fbe e5be 9d3e 1a41 a33d fa92 b13e
000000b0: e2c7 dabc 80fc c93e c53b a5be 97c1 a6be
000000c0: ac2a 893e 14c6 89be
-0.18504995 -0.37003776 0.0150581915 0.22331218 -0.04900552 -0.16865447 -0.27030933 0.16681021
-0.21113478 -0.048254732 -0.32234886 -0.20122811 0.2817818 -0.31664217 0.06154835 -0.3253387
0.19299388 0.07435368 0.2682052 0.049525306 0.24377404 -0.2914076 0.49927875 0.1017362
0.014497944 -0.10074695 -0.35812613 0.13630766 -0.0525344 -0.25211018 0.064863294 0.0033803089
0.28191674 0.15311956 0.12953869 -0.15041216 -0.19901721 -0.16608822 -0.19996433 0.3874358
-0.28037813 0.30809703 0.079714015 0.34682447 -0.02670664 0.39450455 -0.32272163 -0.32569572
0.2679037 -0.26908934

conv2.weight f4 [50, 40]
00000000: 8894 8cbe ae0e 953e 181d 6bbe 7266 5b3e
00000010: 1112 ac3e 4a7e c8be 4ac6 173f 96df 49be
00000020: ade6 b6be 9754 f7bc 74cd 2cbe 5ec3 8cbf
00000030: 5e91 3bbf 6f78 1d3f 752e a2bc 4c01 2c3e
00000040: a097 413f b09f bbbe 24b2 a13e 9644 38bf
00000050: 0032 003e daf7 8e3e 3f6e 3b3e 19f2 fd3d
00000060: 174d 053d 6b34 2d3e 639a ca3e a4f8 933e
00000070: 454e babe 8940 24be 60c9 d43e ba2b 14be
00000080: 1af1 06bd 25b3 f43d f5e2 0d3d 9515 6bbe
00000090: ff84 073f 4424 053e f1d7 803c 877c a5be
000000a0: f990 8f3d 7d12 483e c5e9 583e d982 4bbe
000000b0: db52 41be 1bd0 14bd 15fc f43d 688f b3bd
000000c0: 7d0d 123e 9939 e23d e94d b73e 56a6 fb3c
000000d0: 6bee 60bc 5661 c3bd 79e5 f9bc 0baa 803e
000000e0: 0211 343d 681f 8d3d e29b 1f3e 5a8d 603e
000000f0: 8bcd cbbd 3e5f 24bd 8c6b 9d3d 10a2 30be
00000100: c1a7 953e b956 32be ea6c dabd 2447 8abd
00000110: 4605 353e e1b6 b0bd f1e9 c23d 0353 033e
00000120: 6c73 41be 9400 86be 7918 3f3e 8d61 383e
00000130: 96b3 453e bb76 78bc 3ad0 62be 5904 813e
00000140: d1f3 3b3d e3a5 98bc e913 a13d 48d5 e53d
00000150: 5b4a 85bd 83a2 61bd 3d6a 3e3e b8ff 3a3e
00000160: 0040 923d b658 173e 749f bcbd fafb f83d
00000170: e73d 72be bb63 07be 9f10 213e 0d55 d5bd
00000180: 61da 01be 7d22 1e3d 420b 7e3e afcc 0a3c
00000190: d5f4 f13d 31b8 d7bd eed9 2c3d 3505 173e
000001a0: f5d1 f4bd 6390 b63c 290c 24be 4abc a93b
000001b0: 88a9 53be ee3e 753e 1344 7f3c 691c 16be
000001c0: ac35 16be 76b7 9c3b 16d6 3c3e 68dc 333e
000001d0: cbe5 d63d f985 33be a417 533d 97d9 903d
000001e0: 2e65 34be d765 92be 9aae 06bd 0ad2 4a3e
000001f0: db12 4b3e a83f 863d d46f 9d3e 6f12 87be
00000200: a01c c63d 0de7 8fbd 0de2 2b3e 3282 1bbe
00000210: 86d1 273e e4c3 04be 1afb 0bbe 806c 6a3e
00000220: 8c07 f1bd 466f edbc e2f4 2dbe a604 c23d
00000230: 5dd0 7a3e b20e 103e 744e 023e 039b 7a3d
00000240: ddcf 063e 4fd2 48be b52f 6b3e 3603 22be
00000250: 0408 eebb cf41 463d f79c 503e 0d25 47be
00000260: 940a 183e 6d70 bdbd e310 4cbe 1fd9 c3bd
00000270: 93c2 60be 0301 2dbd cab5 653e 6cae 09be
00000280: 6fa8 213e df30 1cbd 104b 163e 393b 113e
00000290: 8f08 a6be c1fd 2abe 2898 b93e ac29 dabd
000002a0: fe24 a83d 2a61 933d 9c93 013e fc00 9c3e
000002b0: 716b edbd fd29 87bd 8a78 4dbc 7520 7cbd
000002c0: 48ed babd 2cc7 fa3e bf11 a03c c77f c0bd
000002d0: 9f1f f2bd f8de 3ebe 1254 fa3d 805d 5ebe
000002e0: cf7b 05bd 1a39 c3bd 509e ae3d b8cd 77be
000002f0: be91 4a3d f6b8 f4be 04be bfbc ced4 2a3e
00000300: 8e7d a13d a155 fb3b 48a1 82be a935 7a3e
00000310: f0d9 4dbe 2bae ba3c 0511 5e3c b037 02bd
00000320: 073d 16be 0151 eb3e eec3 0bbe c1c7 31be
00000330: 3d66 4cbf 65e5 a4be 3e27 753d 63a9 5ebe
00000340: e2c3 293c b3b7 0c3e 00b8 d2bd bc2d 963e
00000350: 16e4 8cbd 3c1c dd3e 20cc 333e 5b15 0f3e
00000360: 5ac1 1bbe 069f 29bf 33e6 423e bd7b 0fbd
00000370: 02c3 9abe 1dfe 84bd ee72 3d3e d690 623d
00000380: ba3a 32bd a578 5cbe 30a8 66be 4825 9eba
00000390: eb67 bdbe 98f9 ebbc 3a92 2c3d 7c42 3cbe
000003a0: ec61 bcbd 8448 85bd e21e b73d 334f 7dbe
000003b0: 5b34 6a3e 870a 323c 64f8 98bd 747d b03d
000003c0: e893 17be ef67 46bd 7400 36be 9362 b2be
000003d0: 9148 813d 86fc b33e 9987 083f cb35 1fbe
000003e0: 92e6 99be cbdb 5ebe c09b 8a3e f203 56bd
000003f0: ea08 0b3f 4850 bc3c c631 1d3e a2bc ce3e
-0.2745707 0.29112762 -0.22960317 0.21425799 0.33607534 -0.3915885 0.5928694 -0.19714198
-0.35722867 -0.030191703 -0.16875249 -1.0997121 -0.7326869 0.6151189 -0.019797543 0.1679737
0.75621986 -0.3664527 0.31581223 -0.71979654 0.12519073 0.2792347 0.18303774 0.12399692
0.03254422 0.16914527 0.39570913 0.28900635 -0.3638784 -0.16040243 0.41559887 -0.14469805
-0.032944776 0.119482316 0.03464027 -0.22957452 0.5293731 0.13002115 0.015727969 -0.3232157
0.07010073 0.19538303 0.21182926 -0.19874133 -0.18879263 -0.036331277 0.11962143 -0.08767587
0.14262958 0.11046142 0.35801628 0.030718964 -0.013728718 -0.0954005 -0.030504929 0.25129732
0.043961532 0.06890756 0.15586808 0.21928921 -0.099513136 -0.040129893 0.076865286 -0.17249322
0.2922955 -0.17415895 -0.10665305 -0.0675185 0.17677793 -0.086286314 0.09517277 0.12824635
-0.18891686 -0.26172316 0.1866168 0.18005963 0.19306788 -0.015165026 -0.22149745 0.2519863
0.04588682 -0.018633788 0.07865126 0.11222321 -0.06508323 -0.055086624 0.18595214 0.18261611
0.07141113 0.14779934 -0.09210101 0.12157436 -0.23656426 -0.13221638 0.15728997 -0.10416613
-0.12680961 0.03860711 0.24808982 0.008471652 0.11814276 -0.105331786 0.04220002 0.1474808
-0.119541086 0.022285646 -0.16020264 0.0051799165 -0.2067014 0.23949787 0.015580195 -0.14659275
-0.14668912 0.0047826124 0.18441042 0.17564547 0.10493048 -0.17531575 0.051536217 0.07072752
-0.17616722 -0.28593323 -0.032881357 0.19806686 0.19831412 0.0655511 0.3074938 -0.2638125
0.096734285 -0.07026491 0.1678545 -0.15186384 0.1638852 -0.12965351 -0.13670006 0.22892952
-0.117690176 -0.028983723 -0.16987947 0.09473543 0.24493547 0.14068106 0.1272524 0.061182987
0.13165231 -0.19611476 0.22967418 -0.15821537 -0.007264139 0.048402604 0.20372377 -0.19447728
0.14847785 -0.09249959 -0.19928317 -0.09562897 -0.21949224 -0.042237293 0.22432628 -0.13445443
0.15786909 -0.038132545 0.14677072 0.14182748 -0.32428405 -0.16698362 0.36248899 -0.106524795
0.08210181 0.07196267 0.12653965 0.304695 -0.115927584 -0.065998055 -0.012540946 -0.06155439
-0.09127289 0.4898008 0.019539712 -0.093993716 -0.118224375 -0.18639743 0.122230664 -0.21715355
-0.032588776 -0.09532376 0.085262895 -0.24199569 0.049455397 -0.47797364 -0.023406036 0.16682741
0.07885276 0.00767012 -0.25513673 0.24434532 -0.20102668 0.022788128 0.013553862 -0.03179139
-0.14671718 0.4596024 -0.1364896 -0.17361356 -0.79843503 -0.32206264 0.059851877 -0.21744303
0.0103616435 0.1374195 -0.102890015 0.29331768 -0.068794414 0.43185604 0.17558336 0.1397299
-0.15210477 -0.66258276 0.19033127 -0.035030115 -0.30226904 -0.06493781 0.18500873 0.055313908
-0.043513037 -0.21530397 -0.22525096 -0.0012065554 -0.36993346 -0.028805539 0.04213164 -0.18384737
-0.091983646 -0.06507972 0.08941437 -0.24737243 0.22871535 0.010866768 -0.07469252 0.08617678
-0.14802516 -0.048438963 -0.1777361 -0.3484083 0.06312669 0.35153598 0.53331906 -0.15547864
-0.30058724 -0.21763532 0.27071953 -0.052249856 0.54310477 0.0229875 0.15351018 0.4037829

conv2.bias f4 [40]
00000000: 76d2 9cbd f64d 05bd 64a0 07bc 95c3 463d
00000010: d04a b33b 00bf 563d 42bc 24be 7c6e 5bbc
00000020: 999c c4bd 560b bd3c 920d edbd 1bb8 c73d
00000030: 263a d6bd 88e5 7a3d 51a7 3abd 956d 10be
00000040: db71 0b3d a550 67be 7b2a 683c 0a48 453d
00000050: abcd 0e3e fecb 76bd 0077 65be 9d0a 01bd
00000060: 4568 2abd 9cf8 a5bc 7c2d 213e 1d0d 18bd
00000070: 2835 f0bd b612 2c3e 593d d63d 6f23 96bd
00000080: a6df 0f3e 0efe 9cbd d119 2ebd 4654 ed3d
00000090: cd17 10be deab 6bbd 13e9 febc f613 acbb
-0.0765733 -0.032545052 -0.008277986 0.048526365 0.005471565 0.052428246 -0.1608744 -0.013393041
-0.09600181 0.023076694 -0.11574854 0.09751912 -0.1046031 0.061254054 -0.04556972 -0.14104302
0.034044128 -0.22589357 0.014170284 0.048164405 0.13945644 -0.060253136 -0.22408676 -0.031504262
-0.041603345 -0.020260148 0.15740007 -0.03712188 -0.11728889 0.16804013 0.1046092 -0.07330977
0.14050159 -0.076656446 -0.04250509 0.115883395 -0.1407158 -0.057536952 -0.031116998 -0.005251403

conv3.fc_neigh.weight f4 [30, 40]
00000000: e94b f13d 3286 593d 3e38 773e c69e b6bd
00000010: 9d80 263e 86ab 31bd 3a94 5fbe 1f80 adbd
00000020: a4ce 0d3e 3d30 8cbe aa00 98be d054 02bf
00000030: 33c9 0b3f 1c1c 96bd 65fa a4be dfe2 68bc
00000040: 431f 253e b415 b43e 6ab3 c03e 905e c13d
00000050: f7e5 24be 4240 4bbf 3ae7 7cbe e480 7b3e
00000060: 6a09 e1be 5d2d be3e 0768 283e 5a65 df3d
00000070: 7c5f 61bf 164d 47bf 9b3b e1be 35e6 d3be
00000080: 6d2e 38bd 6bdb bfbe 153e 51be cb9f 753d
00000090: 1007 ad3e f855 893e 8c75 ba3e 84b3 94bf
000000a0: f346 66be 8699 37be beda 02be 22c3 b0be
000000b0: 9f1c dbbd 9416 a6bf dbc8 253e 6f7d babe
000000c0: 2bec 323e 822d 5abf 8fbe 5f3e d7c7 e0bc
000000d0: 6b92 8a3d 3880 c93e 5249 a8be cd8b cb3e
000000e0: 3b6e d93e b715 aa3e b2e5 0ebd 994f 5abd
000000f0: 3700 e43e cb1e d03e 0477 52be e27c 9d3e
00000100: e47b 89be 2ed3 c03e 27af 96be 45e6 f3be
00000110: 8410 2dbe 76bd a53e e8f4 debd 5f79 8f3e
00000120: 96ab cabd 8f0e 99be 2f43 fdbc 3960 7c3b
00000130: 7f1d 3b3e 6203 9f3e 2c1b 433e 409b b03e
00000140: 8c35 b43d 4e42 223e 0204 963e 9b77 73be
00000150: 3b2a e03e 4aa9 fbbe 2392 08bf 3201 54be
00000160: 40e0 31be 67d5 0e3e 932c 3d3e 6423 47bd
00000170: 34b5 fdbe fa65 9dbe 913a 433e ca90 b8be
00000180: 05aa 9cbe 11c3 6c3d 108e acbe 1455 5ebe
00000190: acc2 593d b758 d13d 651a e3bc 5cd4 6bbe
000001a0: 4111 2dbe b0a5 9dbe f666 6fbd 0db1 d8be
000001b0: b59c 28bf 7366 a13d 5a23 0e3e a242 99be
000001c0: 7757 a73e ba2b d43d 57bd 853e 7c1e a63e
000001d0: a72b d5be 3780 10be 7d76 173e 931c e4be
000001e0: 1e85 493e c7f4 4b3e 03fc e6be 1618 1fbf
000001f0: ad1b 193f a7b4 edbd fede 8b3e 84b8 95be
00000200: f6b4 183e 7bf3 943d 0267 f2bd dfa0 dcbb
00000210: c662 cbbe 5533 803e 3a60 2f3e e4a3 d53e
00000220: 8581 953d 3074 dabe e87b cfbe bfcf e9bc
00000230: 2c03 9e3e d3db d1bd 97ff d73e 7f05 f2bd
00000240: 4ebe 733e 81b2 0abe 2658 43be 33a4 1d3e
00000250: 8ffa e03e b464 e2be df6b 283e 254b dd3d
00000260: 661a 0a3f c9a3 0dbe a318 913d f88e c93e
00000270: 5d15 ccbc 91d8 64be 36cc be3e abd0 023f
00000280: 5302 2b3f c61d 073f 4cd2 9b3e 6270 84bd
00000290: eaf2 a03e 493c eabe 15a2 f53d 00a6 a3be
000002a0: 0530 1bbd de23 f73c 67f4 bc3e a65f ac3e
000002b0: aaef 04be cf09 023f dc9a c8bd 7b3e 6b3e
000002c0: 319c 8c3d 34f9 a13e c8cb 163f 22cc 9bbe
000002d0: 3e15 84be b6b9 b03d b3a3 29be 9b93 11be
000002e0: 9b5b e23e 9e1f 933d c669 423e f694 1c3e
000002f0: 43b8 973e d498 debe 1569 aa3d 36d6 ab3e
00000300: fd6e 8fbe f2e3 85be ca3c 13be 0471 4d3e
00000310: 3ddf 233f d313 dabd 9e45 8c3e 2b90 403e
00000320: f2ea 383e 608a 933e 54ff 6cbd ee46 0d3f
00000330: cbd5 4b3f f8ca 373e 8ef3 b4bf e638 9ebe
00000340: 23a9 3f3e 7500 c13e c7a3 cfbd 4ecb 4c3f
00000350: bd2b 803e 4e59 9cbf 24c9 823e 276d ee3d
00000360: c680 c63e ca80 b33f f614 9cbd 739f b53e
00000370: d52c 28bf dbc4 e23e 3ecc a3bf e8ef c5be
00000380: 2c34 ed3e 8515 9e3e f592 b7bf 874e dc3e
00000390: d9b2 7b3e 9a3b f03e 47f1 f43e 51a9 483e
000003a0: e25b 553f 47f4 eb3d cc24 ce3e 6a97 7fbc
000003b0: ea61 cdbe 4b44 0bbe 076d e43d fbc5 52bd
000003c0: 9aec af3e 1dbd 1d3d b664 51be ddb2 8e3e
000003d0: 5f7b fd3e 2aa0 c0bd c582 95bd 85f9 adbd
000003e0: 1ac9 aa3e 3e6c c53d 0078 d13e c306 05be
000003f0: b8b9 dd3e 2e9b 3cbd 9352 553e 9df0 bf3e
0.11782057 0.053106494 0.24142548 -0.089170024 0.1626 -0.043376468 -0.21833888 -0.08471703
0.13848358 -0.27380553 -0.29688007 -0.50910664 0.5460388 -0.0732958 -0.32222286 -0.0142142465
0.16125207 0.35172808 0.37636882 0.094418645 -0.1610335 -0.79394925 -0.24697581 0.24560887
-0.43952495 0.37143984 0.16445933 0.10908003 -0.8803632 -0.77852 -0.43990788 -0.41386572
-0.04496615 -0.3747209 -0.20433839 0.059966844 0.3379445 0.268234 0.36417806 -1.1617284
-0.22488002 -0.17929658 -0.12778756 -0.34523875 -0.106988184 -1.297564 0.16189902 -0.36423823
0.17472903 -0.8522569 0.21850036 -0.027439041 0.06766208 0.39355636 -0.3286844 0.39755097
0.42466912 0.33219692 -0.034887023 -0.053298566 0.44531414 0.40648493 -0.20553213 0.3075934
-0.26852334 0.37661117 -0.29430506 -0.4763662 -0.16900831 0.3237111 -0.10886556 0.28022286
-0.09896009 -0.2989392 -0.030915825 0.0038509502 0.1827297 0.31057268 0.19053334 0.34493446
0.08799276 0.15845606 0.29299933 -0.23776095 0.4378222 -0.49152595 -0.53347987 -0.20703581
-0.17370701 0.13948594 0.18474035 -0.048617736 -0.4955231 -0.30741864 0.1906531 -0.36047965
-0.30598465 0.057803217 -0.33702135 -0.21712142 0.05316417 0.10221999 -0.027722547 -0.23030227
-0.16901113 -0.30790472 -0.0584478 -0.4232258 -0.65864116 0.07880869 0.13880673 -0.2993365
0.32683918 0.10359903 0.26121017 0.32445133 -0.41634867 -0.1411141 0.14791293 -0.4455305
0.19679686 0.19917594 -0.45114145 -0.6214613 0.59807855 -0.11606722 0.27318567 -0.29242337
0.14912781 0.07273003 -0.118360534 -0.0067330445 -0.39723796 0.25039163 0.17126551 0.417266
0.073000945 -0.4266677 -0.4052422 -0.028541444 0.30861795 -0.10247006 0.42187187 -0.118174545
0.23803064 -0.13544656 -0.19076595 0.15394668 0.4394116 -0.44217455 0.164474 0.10805348
0.5394653 -0.1383201 0.07084777 0.3936689 -0.02491253 -0.22348239 0.37265176 0.5109965
0.6680042 0.52779806 0.3043388 -0.06466748 0.3143533 -0.4574912 0.11993805 -0.31962585
-0.037887592 0.03016847 0.36905214 0.33666724 -0.1298205 0.50796217 -0.09795162 0.22973053
0.06865729 0.3163544 0.58904696 -0.30429178 -0.25797457 0.086291716 -0.16566353 -0.14216463
0.44210514 0.07183765 0.18985662 0.15291199 0.29632768 -0.43475974 0.08320824 0.33561867
-0.28014365 -0.2615047 -0.14378658 0.20062643 0.6401251 -0.106483124 0.27396864 0.18804996
0.18058375 0.2881651 -0.057860687 0.55186355 0.796231 0.1794852 -1.4136827 -0.30902785
0.18716864 0.3769566 -0.1013866 0.7999772 0.2503337 -1.2214754 0.25544083 0.11641913
0.3877012 1.4023678 -0.076211855 0.35473213 -0.6569341 0.44290814 -1.2796705 -0.38659596
0.46328866 0.30875793 -1.4341723 0.43028662 0.24579944 0.46920472 0.4784033 0.19595839
0.8334333 0.115212016 0.4026245 -0.015600065 -0.40113765 -0.1360027 0.11153608 -0.05145834
0.343602 0.03851043 -0.20448574 0.27870837 0.49508187 -0.09405549 -0.07300333 -0.08494858
0.33356553 0.09639786 0.40911865 -0.1299086 0.43305755 -0.04604643 0.20832281 0.3748826

conv3.fc_self.weight f4 [30, 40]
00000000: f9f5 fabe 8458 a9bd 4fcb 76bd a26e 4d3d
00000010: f4e1 333e 5de1 95bc 9a95 10bd df1f 3f3e
00000020: 0f59 45be e8bd 03be b4c4 9f3e 27b1 f5be
00000030: afbd 6bbe 9d52 b73e 45ba 5b3c f2c2 513e
00000040: 7002 3a3e d1d2 a6be 6bfe 993e 1418 0ebe
00000050: 26ad abbe eb80 0cbf 9ffe 42be 486e 73be
00000060: 118c 44bf 3d79 3f3d 9ccd 403e fb16 ca3e
00000070: 4d46 47bf 0905 a53d 9fc3 09bf 9b98 aabe
00000080: 4d9c d93e d971 1cbd c3b4 37bd 45f8 e3be
00000090: 8e75 c6be 922f 4b3e 9212 b33e ff5e ddbf
000000a0: fb36 b33c 5433 223a deb3 cbbe 5e81 2e3d
000000b0: 6c52 43bf 4ac8 fd3e d37d 3abf b421 9c3e
000000c0: 71c6 3c3e a75f 133f 7e86 e8bd 2881 8ebf
000000d0: 02b5 9ebd 5ff2 c83c 8af9 cc3d bb84 87be
000000e0: cf9d b5be 0eea f73c be1b 1c3e ada5 f63d
000000f0: b8a3 e83e bba3 9c3d 09af 27bf 8714 8e3e
00000100: a9da 20bd 96c0 8f3e 2e54 adbe 96ec dabe
00000110: d07c 0f3f 0d1f 3ebd 7e9b 9dbe 39bb 873c
00000120: f25e 88bf 622b 20be 45fb 89bd a0c2 a03d
00000130: 8fdd 0dbf f97f 9a3e ecc4 b13e b2e6 b63e
00000140: e528 483e e8ee 7fbe c6e6 023f 3e8e 843e
00000150: 3d48 1d3e 5092 e43d d0ea 8bbd 1b4d bc3e
00000160: 4407 ae3e d50e a63e 3e43 5ebe d4fb 9dbe
00000170: 7a31 88be 6e40 2f3d a10d 873e 2b76 99be
00000180: d2da 2cbf 23f0 c73d cc82 66be aa70 acbd
00000190: 7448 e43e 6fdb 8d3e 9c2f fc3e 2618 78be
000001a0: 3ad6 c1bc 4fed c1bd b8e6 19bf 0822 b0be
000001b0: 65eb a13e 623d 523b 07aa de3e 9c2e 0ebe
000001c0: b929 a63e a7b1 813e 82b0 0cbd f5a2 88be
000001d0: 6e35 cf3e 3ace cdbe af86 68be 463d 85bc
000001e0: cfaf 123e 69a9 d03e 30c7 3bbc 7228 0b3e
000001f0: 23bd ad3e 7b90 e0be 40ff d43e 3c2b 8b3e
00000200: 34f5 49be fcc0 babe 42a7 77be 5222 2f3d
00000210: 50e4 563e 00be a33e aea8 4cbe 5010 9fbd
00000220: 520d ca3e 0df5 c33e 7c63 f03e 16e7 96be
00000230: 06da d9be 228a a43e dc06 d0be f2fd 68bd
00000240: 0542 003e 15e5 853d 69dc 3ebe 571b f83d
00000250: 94de 1c3d ad58 60bf f4d2 88be 5b57 aa3d
00000260: 2266 30bc 2d3c fc3c 3b95 80be 7c86 05bd
00000270: 28c5 8fbd b0f1 8fbe 116d a1be 888f 883e
00000280: 499c 43be 4763 173f 232d fc3e 58b1 053f
00000290: 06ab 7a3e a0bf d8be 514c c5be 92c9 c93e
000002a0: 8ba5 98bd 84e2 d4bd 6a35 483e 06f5 f2bd
000002b0: c67d cb3e d1f8 84be 1a02 c2be b7a9 05be
000002c0: 8f86 ffbd a4ac c23e d750 c93e e59c 023e
000002d0: 8eef 05bf 9661 1abe e8e6 1ebf db59 7e3d
000002e0: 44da 483e 43c9 923e cdfa 333e 3d92 06be
000002f0: 07d6 783e b091 debe 1f23 7f3d c06f c13d
00000300: 0041 47be 8616 a93b d915 d63d c486 423e
00000310: 84d0 25be f368 60be 78ac 183e f28f be3d
00000320: 1699 233e cfdd 82bc 3276 8ebe 45b9 5fbf
00000330: 405f b13c 247d d8be 1017 90bf a685 b63e
00000340: b88f cebe aac1 1f3e 6f50 d3be bc77 17bf
00000350: 403e 87be 063b 40bf b96d 4f3e 5cba 363e
00000360: 1d27 39bf 8091 d8be fc25 91bf 81c7 78be
00000370: 3669 3abf a6c5 103e 348f 16be 3226 a83e
00000380: ce41 debe 5af6 8b3e d32a fabf 237f 07bd
00000390: 4a26 cebe 7d42 74be c90d 1abf 0b6b a83e
000003a0: 35d0 4e3f 38ec 573d 7d36 80be d196 1abe
000003b0: e571 823d e4f9 ca3e ed7f d3bd 731e c2be
000003c0: 2e78 ddbe 083d 05be 5f9a f2be 4f16 0abf
000003d0: ca2e 37be 8f39 053e f2f0 b6be 78d7 c3be
000003e0: 93bd ce3d eb99 4abd 245f 1bbe 94eb ae3e
000003f0: 88ca 32be 36ba b13e fa5c 173e 9055 663e
-0.49015787 -0.08268836 -0.060252484 0.050154336 0.17566663 -0.018295938 -0.03529892 0.18664502
-0.19272254 -0.12865412 0.3120476 -0.4798672 -0.23021577 0.35805216 0.013411109 0.20484522
0.18164992 -0.32582715 0.30076918 -0.13876373 -0.3353054 -0.54884213 -0.19042443 -0.23772538
-0.76776224 0.04674648 0.18828434 0.39470658 -0.77841645 0.08057601 -0.5381412 -0.33319554
0.4250206 -0.03819451 -0.044850122 -0.44525352 -0.38761562 0.19842365 0.34975106 -1.7294616
0.021876803 0.0006187458 -0.39785665 0.042603843 -0.7629764 0.4956687 -0.7284824 0.30494463
0.18435074 0.5756783 -0.11353777 -1.1133165 -0.07749368 0.024529634 0.10008533 -0.26468453
-0.3547196 0.030262973 0.15244958 0.12043319 0.45437407 0.076484166 -0.6550146 0.27750036
-0.03927103 0.2807662 -0.33853287 -0.42758626 0.56049824 -0.04641633 -0.30782694 0.016568767
-1.0653975 -0.15641549 -0.06737379 0.07849622 -0.55416197 0.3017576 0.34720552 0.35722882
0.1954685 -0.24993479 0.5113338 0.25889772 0.15359588 0.111607194 -0.06831896 0.36777577
0.33989918 0.3243319 -0.21705338 -0.30856192 -0.26600248 0.042786054 0.26377586 -0.29972968
-0.67521393 0.09762599 -0.22510833 -0.084199265 0.44586527 0.27706477 0.49255073 -0.24227962
-0.023661721 -0.09469091 -0.60117674 -0.34400964 0.31624904 0.0032080044 0.43489096 -0.13884968
0.32453707 0.2533085 -0.03434802 -0.26686826 0.4047045 -0.401964 -0.22707628 -0.016264569
0.14324878 0.4075425 -0.011461064 0.13589647 0.33933362 -0.4386023 0.4160099 0.27181423
-0.19722444 -0.3647536 -0.24184898 0.04275734 0.20985532 0.31980896 -0.19986221 -0.07766783
0.39463288 0.38272896 0.469509 -0.2947318 -0.4254915 0.32136637 -0.40630233 -0.056882806
0.12525184 0.065378346 -0.18638767 0.1211459 0.038298205 -0.8763531 -0.26723444 0.08317443
-0.010766538 0.030790413 -0.25113854 -0.032598957 -0.070200264 -0.2811408 -0.31528524 0.26672006
-0.19102587 0.5913586 0.49253187 0.5222373 0.24479303 -0.42333698 -0.38534787 0.39411598
-0.0745345 -0.10394767 0.19551626 -0.11863141 0.39744395 -0.25971082 -0.37892228 -0.13053022
-0.12476837 0.3802234 0.39319488 0.12755163 -0.52318656 -0.15076289 -0.62071085 0.06209741
0.19614512 0.28669176 0.17576142 -0.13141723 0.24300395 -0.43470526 0.062289353 0.09445143
-0.1945839 0.0051601557 0.10453386 0.18996722 -0.16192824 -0.21915035 0.14909542 0.09304799
0.15976366 -0.015974907 -0.2782455 -0.87392074 0.021651864 -0.42282975 -1.1257038 0.3564884
-0.40344024 0.1560122 -0.41272303 -0.59167075 -0.2641468 -0.7509006 0.202567 0.17844528
-0.7232531 -0.42298508 -1.1339717 -0.24294855 -0.7281679 0.14137897 -0.14703065 0.3284164
-0.4340958 0.2733639 -1.9544319 -0.03308023 -0.40263587 -0.23853488 -0.60177284 0.32894167
0.8078645 0.05271551 -0.2504157 -0.15096594 0.0636938 0.39643776 -0.10327134 -0.37913856
-0.43255752 -0.13011563 -0.473834 -0.5394029 -0.17888942 0.13010238 -0.35730702 -0.38250327
0.10094752 -0.049463194 -0.15173012 0.34164107 -0.17460072 0.3471238 0.14781561 0.22493577

conv3.fc_self.bias f4 [30]
00000000: 2282 ab3d 6ce9 a0bd c703 993d 402d c93d
00000010: fbae 103e b79e f8bd d7c1 413d 324a 103e
00000020: e8a0 d6bd 1e03 3dbe 1c6e b3bc d26d 19bd
00000030: 3ae5 1f3d 45c2 8dbd d2d4 f13d f69e eabd
00000040: ae53 ccbd 90ce 06be dea1 47be 18b6 d9bd
00000050: aaf5 e43b e44c 6b3e 427a 94bd 5bde 80bc
00000060: 04f2 5dbc aeec 2e3e fcba 91bd c191 28bd
00000070: 08b1 263e a511 4d3e
0.0837443 -0.07857022 0.074714236 0.09823084 0.1412925 -0.121396475 0.047304 0.14090803
-0.10479909 -0.1845822 -0.02190309 -0.03745825 0.039036967 -0.069218196 0.118081704 -0.11456101
-0.09976898 -0.13164735 -0.19495341 -0.10630435 0.0069872933 0.2297855 -0.07249881 -0.015731027
-0.013546471 0.17082474 -0.071157426 -0.041154627 0.1627847 0.20026262

conv4.fc_neigh.weight f4 [20, 30]
00000000: 9db0 d8be eb30 963e 52e7 5b3e 2756 0b3d
00000010: 86e4 bbbe cb73 22bf 7c13 3b3e 064a c63d
00000020: 9291 c63d 44c9 143e 2e59 ee3d 797d 12bf
00000030: 07fb 93be cb7e 923e d640 5b3d 68c3 a53e
00000040: 4659 113d 75c9 a6bd 3336 f8bf 0975 fdbe
00000050: bb38 a8bd 5c76 f2bd 8e3a 89bf 6d39 0e3e
00000060: 4daa 9cbf 3028 d73e f4e2 85be 66c4 853d
00000070: ff21 183f 29b8 b33e cbed 833d 13dd a3bd
00000080: b0bd 583f 2811 fd3d 34fc 9d3e 4a0f 0bbf
00000090: 41fc 0ebe 4864 69be d374 ae3e 7bc0 93be
000000a0: 0fd0 83bf 1cef 04bf 480a c2be b1b3 91be
000000b0: dbb6 8ebc 1a29 2d3c 3dd9 063e 7a6b 843e
000000c0: df5d 5a3f 789c e6be a94d e6bd 1ec5 b83e
000000d0: 7623 83bf 35e8 9b3a a898 adbe 2370 c0be
000000e0: 8c2a 51bd db91 f73d 4765 89be aca6 143e
000000f0: dd32 64be d0b4 123f 2bc1 d9ba 232d 29bb
00000100: 72bb 36bf 7030 8d3e a471 24bf 5116 d8bd
00000110: aa13 153e eaa4 18be e1f7 c5be 40a1 6dbe
00000120: af54 073f 3d8c e539 de82 e73e a79a 62bd
00000130: fa52 4dbe e079 c03b 465e b43d d058 313e
00000140: a756 253f 47f5 013f c383 163f 2dd7 793d
00000150: 76d3 9cbe 81e4 823e 7956 e33e d5e4 3abf
00000160: 4e60 97be 1fdd 8fbd ba40 55bd a324 11bf
00000170: 025b 84be fcb8 68bd 1992 f4be 7d4d 1abf
00000180: 36b9 52be 8952 94be 411c ab3e 8074 85bd
00000190: c392 413f 80a9 babe 5b4c dd3d dd2f d9bd
000001a0: 0a52 fe3d a8c3 8fbe d469 463e 7902 e6be
000001b0: aef6 cd3e 53a5 d4be eb79 1bbf 0209 d33e
000001c0: d26d 443f 9484 e23e a424 4c3e fc42 773e
000001d0: ab6c 87be bbd4 0d3f 7609 38bf ae09 293d
000001e0: f98c ba3e 6f0e 253f 4942 02bf 0954 3ebe
000001f0: 2373 cebd aa8f a53e 8f57 50bf 1b14 fb3d
00000200: f334 493e fbb1 e2be d92d 9dbe 228b 5f3f
00000210: e531 af3e 9755 0c3e 1650 0f3f 91b2 00bf
00000220: 3987 7d3e 0834 d03d e4f9 d8bd b111 90be
00000230: 5e81 c3be 3f6e 8e3c 53d3 ae3e 7548 033e
00000240: e72f 05be 8980 843e af36 49be 0614 463e
00000250: ebdf 41be 3e9e 923e 3b7d 4fbf 3243 acbe
00000260: c6ed e83e 643d 3e3f c416 223f c91d d63f
00000270: 50fb 213f 863b cd3e 4a12 5b3e 42a1 a7be
00000280: af3c 853e b145 4abf 11d5 b1be 19b3 ddbd
00000290: f138 c6bd 312b 8c3e 01ca e6be bb6d 94be
000002a0: d8cc febe f015 0dbe da7c d93e 99dd d4bd
000002b0: 167b 083f ff5b 24be 437f debe 90b1 ab3e
000002c0: 31cd 85bd 3311 e83e 5692 b13e 9a29 1d3f
000002d0: 97bb bbbe 371e e3be a8ce 823e 2938 573e
000002e0: 6a52 c53e a3be 81bd dfa4 cd3e d07c a6be
000002f0: cc1f abbe c5d0 67be 8fd2 093f bfcd 893e
00000300: c4b2 c23e 18d2 b0be 4e0a c43d 3e4a 903e
00000310: 74ff c8be b99f d63e 956c 5d3f 903d d43d
00000320: c2aa 65bd 135f 02bf 5de3 903e 70d4 1d3d
00000330: 1249 8fbe 27eb 953c ce2a b43e 0f64 1bbf
00000340: a08b 9e3e 30ac bcbe 31f7 ccbe 1dda b2be
00000350: 544e 84be 9952 ab3e 9a77 e23e 8977 16bf
00000360: 337d c13d 37f3 593e 0a93 20be e49c 353e
00000370: 9bef d5be 5002 713e 8eda 25bf 5f96 d1bd
00000380: 4861 f23d 9e79 633e 71b9 33be 87fe 7f3e
00000390: adc9 493f f3c8 16bb 753a 933e 7b3e f6be
000003a0: 1c81 82be 42ed a43c 3e80 c43e 9ca4 adbd
000003b0: 0006 90be c960 d7be d9eb 32be 6efd 813e
000003c0: 1c35 efbe 3034 97be 27e6 1abe f23e 163e
000003d0: 41a5 a0be 709c 35bf 1190 933e 9f5c bfbd
000003e0: 4561 9ebe adaa 54be 89eb 623e f4c4 54bf
000003f0: 467a f2bd b99b 373e abb0 953e 8c2e 63be
-0.42322245 0.29334196 0.2147496 0.03401771 -0.36697787 -0.63457936 0.18269151 0.096820876
0.09695734 0.14529902 0.116381034 -0.57222706 -0.28902456 0.2861236 0.05352863 0.32375646
0.03548553 -0.08143894 -1.939154 -0.49503353 -0.082139455 -0.118389815 -1.0720994 0.13889094
-1.2239472 0.42022848 -0.26149714 0.06531601 0.59426874 0.3510144 0.0644184 -0.08001151
0.8466444 0.12356788 0.30856478 -0.54320204 -0.13963415 -0.2279216 0.34073505 -0.28857788
-1.029787 -0.5192735 -0.3789847 -0.28457406 -0.017421177 0.010568881 0.13168807 0.25863248
0.85299486 -0.4504125 -0.11245281 0.36087888 -1.0245197 0.0011894765 -0.3390553 -0.37585554
-0.051065966 0.120883666 -0.2683508 0.14516705 -0.22285028 0.5730715 -0.0016613355 -0.0025814257
-0.7137977 0.27576017 -0.642359 -0.105511315 0.14558282 -0.1490666 -0.3866568 -0.23206043
0.5286359 0.0004378277 0.4521703 -0.05532327 -0.20051184 0.0058739036 0.08807044 0.17319036
0.64585346 0.5076489 0.587948 0.060996223 -0.30630082 0.2556496 0.4440191 -0.7300542
-0.29565662 -0.070245974 -0.05206368 -0.5669653 -0.25850683 -0.05681704 -0.47767714 -0.6027449
-0.20578465 -0.2896922 0.33419994 -0.06516361 0.75614566 -0.36457443 0.10805579 -0.10604832
0.124179915 -0.2807896 0.19376308 -0.4492376 0.40227264 -0.41532382 -0.6073291 0.4121781
0.7673007 0.44241774 0.19935852 0.24146646 -0.26450095 0.55402726 -0.71889436 0.041268997
0.3643568 0.6447515 -0.50882393 -0.18586744 -0.10080554 0.3233617 -0.81383604 0.12259694
0.19649105 -0.44276413 -0.3069904 0.87321675 0.34217754 0.13704525 0.55981576 -0.5027247
0.24758615 0.10166174 -0.10594538 -0.28138497 -0.38184637 0.017386554 0.34145603 0.12820609
-0.13006555 0.25879315 -0.19649766 0.19343576 -0.18933074 0.28636354 -0.8105046 -0.33645016
0.45493907 0.74312425 0.6331599 1.672784 0.632741 0.40084475 0.21393695 -0.32740217
0.2602286 -0.7901259 -0.3473287 -0.10825176 -0.096788295 0.27376702 -0.45075992 -0.28989968
-0.49765658 -0.137779 0.42478067 -0.10393829 0.53312814 -0.16050719 -0.43456468 0.33533907
-0.06533278 0.45325622 0.34681958 0.61391604 -0.36666557 -0.4435899 0.2554829 0.21017517
0.3853944 -0.06335189 0.4016485 -0.325171 -0.33422697 -0.22638233 0.5383691 0.26914784
0.38027012 -0.3453529 0.09572278 0.28181642 -0.39257395 0.41918734 0.8649381 0.103633046
-0.05607105 -0.5092632 0.28298464 0.038532674 -0.27985436 0.018300606 0.35188907 -0.6069955
0.309659 -0.3685012 -0.40032342 -0.34932032 -0.2584101 0.33461455 0.44231874 -0.58776146
0.09447708 0.21284185 -0.15681091 0.1773563 -0.41784367 0.23536038 -0.64786613 -0.10233759
0.11834961 0.22214362 -0.17551209 0.24999438 0.7882336 -0.0023007959 0.28755537 -0.48094544
-0.25489128 0.020132665 0.3837909 -0.08478662 -0.28129578 -0.4206603 -0.17472781 0.25388664
-0.46720207 -0.29532003 -0.15126859 0.14672449 -0.3137608 -0.7094183 0.2882085 -0.09343838
-0.30933586 -0.20768233 0.22160162 -0.83113027 -0.11839728 0.17930497 0.2923635 -0.22185725

conv4.fc_self.weight f4 [20, 30]
00000000: 2c8d 513d b66b f93e c77b f03e 2b4b e8bc
00000010: f45d b5be 944d 2bbe 3b0a 0b3e 299e f4b9
00000020: b1f1 f73e cdb5 7bbe 033d 313e b975 aebf
00000030: 2344 e13e 01d3 64bd c094 7cbe c478 603d
00000040: 1d28 7fbf 75c8 8e3e abe4 55bf 26ab b1be
00000050: 0cdc 1abd 025a 6fbd 5ee5 5bbe 8806 2abd
00000060: 6339 cebe 9651 11be 3e75 d03e 1d87 97be
00000070: 2c8c c53e 4ce7 2dbe 2c3e c13d 7d63 4d3e
00000080: 96d7 6b3f 12da 98be 0307 4abd 48b7 46bf
00000090: 797a 073f 514c 19bf 325a 01be 30b2 8dbe
000000a0: 22d7 c3bf 02f6 89bf b4ab fa3c 1d8a edbd
000000b0: 8e7e 6fbe cd2f 953e 6520 dfbd 94b3 a9be
000000c0: 1fc1 df3c 4aea f53e eec7 c0be 0514 df3e
000000d0: efff 043f 8b64 e03e 15b9 c1be cda8 b83e
000000e0: 8e35 f1be 0f3c 3bbf 101a d93e fb69 a1be
000000f0: 9371 d73e 1a08 1b3f 9c94 c3be bde6 adbe
00000100: 8c1e 9cbe 3d02 c6bd 1e70 66bf e7b5 e93e
00000110: 4d13 ccbe cb7e afbe d318 dfbc e756 35be
00000120: 1135 a23f 6e7e 363e 1d7e ab3e 402e 4fbd
00000130: f0d0 4f3e dd56 42bf d9f9 b23d 8ae1 b3bd
00000140: d90b a6be 34f1 bbbd 5ef9 ff3d 0b85 883e
00000150: e980 df3d 1d05 fe3e a501 0fbe dc5b 49bf
00000160: 0489 dabe e6b4 91be bc51 e13d c986 90bf
00000170: 21d6 c03d 1bff 433e ddde 383d b68c 17bf
00000180: e8a9 b7be e0ef d7bf 31bc 92be c530 103e
00000190: 2601 45be a604 c53e e758 483f add4 bb3d
000001a0: 0dfa 79be 46db 7b3e 17c0 3a3f 45d1 993e
000001b0: 5352 533e 797f 81be ae48 13bf d089 ba3e
000001c0: 7d7e 8d3f 7ac2 003d 991a bebc 7edf 0c3f
000001d0: 5c95 6ebe 3a27 4f3e 23b8 6dbf 4de3 28bf
000001e0: e15e 6bbe 4fb7 1e3e 88f5 323e 902c 543e
000001f0: 779c aa3e f3de a13f 2747 c73e 882a 0f3f
00000200: a082 0fbe 461b 0a3e 48d4 30be ca66 573f
00000210: 7fd7 14bf ec7b ebbe 3849 f3be a854 103e
00000220: f1cf e4bd cfa7 c8bd 3f09 b5bf 9b80 7f3e
00000230: 9ce2 6d3e 7f44 a1be 1c60 80bc ae8b fd3c
00000240: 037a d83e 6669 24be 3fb8 33be 9f7b 4d3e
00000250: 205e 2dbe 8aee 15be ce66 4ebf bf67 c53e
00000260: 3c7a ae3e 69c8 ca3e 6123 3a3d d7e7 7cbf
00000270: 2a1f b9be c9fe 01bf c963 babd 459d ab3e
00000280: e23a 293f 4fca 49bf 25dd de3e ce5b 43be
00000290: e3a9 1d3f 384d d2be 5b20 0c3f bbfe 5a3e
000002a0: 05af b0bd 9d4b c93e d08e 31bf 9476 513e
000002b0: 89b7 e23e 2dcb 933e e961 22bf 83b4 85be
000002c0: 163a 933c 56ca 943e 8dc2 ee3e 48a3 153e
000002d0: 7add d2be 503c 2bbf 449c 04be f7be 263e
000002e0: 0034 a53e 824b 03bf a00c 6d3e 6a8e 473e
000002f0: 3162 fc3e f62c adbe 30d6 cdbd f57e dabd
00000300: f877 e8be 1222 c0bd 87ee 553e a4d1 9dbe
00000310: 5743 9abe d0fd 2dbd 742a cf3d f5de 05bb
00000320: 7705 323d d855 3dbd 5444 d0bc ae10 aa3d
00000330: ed0b 143e a7b6 b63e bb9f 3a3e 6188 d9be
00000340: 17d7 87bd 1457 e7be d88d 07bf 9eba 68bf
00000350: 7f9d 793e 910e 0e3f f881 173e 09c5 10be
00000360: d116 a7be 0bc1 89be 24fd 803e 3544 1a3e
00000370: df37 293f 8699 013e 2ef0 30bf 45a6 d0be
00000380: 5a74 afbe 4037 c6bd c821 7abf e71e 653e
00000390: cbb2 58be 455f febe 3be7 08bd fe9b 73bd
000003a0: cec4 113e 2f8d 253e ddb0 0a3f 4b70 21be
000003b0: 3abf dc3d a779 ad3e a1be 9bbe b61d f2be
000003c0: db5f 31bf 92ed 6ebf 86d8 5cbf e272 083f
000003d0: 19d8 833e bda7 8fbd 1684 6b3e daee f73e
000003e0: ba66 593e eba7 023e c869 b53b 98ca febe
000003f0: 0d2c 83be e288 abbe f66c 00bf 989e 8d3e
0.051160023 0.4871499 0.46969435 -0.028356155 -0.35423243 -0.16728812 0.13578121 -0.00046657145
0.48426583 -0.2458107 0.1730843 -1.3629676 0.43997297 -0.05586529 -0.24666119 0.05480267
-0.99670583 0.27887312 -0.83552045 -0.34700888 -0.03780751 -0.058435448 -0.21474215 -0.041510135
-0.40278158 -0.14191279 0.4071445 -0.2959527 0.38583505 -0.16982764 0.094356865 0.20057483
0.92125833 -0.29853874 -0.049323093 -0.77623415 0.52921253 -0.59882075 -0.12632063 -0.2767501
-1.5300028 -1.0778201 0.030599453 -0.11598609 -0.2338812 0.29138032 -0.10894851 -0.3314482
0.027313767 0.4803031 -0.37652534 0.4356996 0.51953024 0.43826708 -0.3783652 0.36066285
-0.4711117 -0.7313852 0.42402697 -0.3152617 0.42078838 0.60559237 -0.38199317 -0.33965102
-0.30492055 -0.09668396 -0.9001483 0.45646593 -0.39858475 -0.34276423 -0.027233517 -0.17708932
1.2672445 0.17821667 0.33494654 -0.050581217 0.20294547 -0.7591379 0.08739061 -0.087832525
-0.32430914 -0.09176865 0.12498735 0.26664004 0.109132595 0.49613276 -0.13965471 -0.7865579
-0.4268266 -0.28458327 0.11001918 -1.1291133 0.09415842 0.19140284 0.045134414 -0.5919908
-0.35871816 -1.6870079 -0.28659204 0.14081104 -0.1923872 0.3848011 0.78260654 0.09171424
-0.24411793 0.24595365 0.72949356 0.30042472 0.20636873 -0.25292566 -0.57532775 0.36433268
1.1054226 0.031435467 -0.023206042 0.5502852 -0.23299164 0.20229807 -0.92859095 -0.65971833
-0.22985412 0.15499614 0.17476475 0.20720124 0.33322498 1.2646164 0.38921472 0.5592427
-0.14014673 0.13486966 -0.17268479 0.8414122 -0.5814132 -0.45992982 -0.475168 0.14094794
-0.11172474 -0.09797632 -1.4143447 0.24951403 0.23230976 -0.3149757 -0.015670829 0.030950394
0.42280588 -0.16055831 -0.17550753 0.20066689 -0.16930437 -0.14641777 -0.8062562 0.38555714
0.34077632 0.39606026 0.045443896 -0.9879126 -0.3615659 -0.50779396 -0.09101064 0.33518425
0.66105473 -0.78824323 0.43528095 -0.1907799 0.6158735 -0.41074538 0.5473687 0.21386234
-0.08627132 0.393155 -0.6935854 0.2045539 0.4428065 0.28865948 -0.6343065 -0.26114282
0.017972033 0.2906062 0.46632805 0.14613068 -0.41184598 -0.66888905 -0.12950236 0.16283785
0.32266235 -0.5128709 0.23149347 0.1948792 0.49293664 -0.33823365 -0.10050619 -0.106687464
-0.4540403 -0.093814984 0.20891772 -0.30824006 -0.301295 -0.042478383 0.10115519 -0.0020427082
0.043462243 -0.046224445 -0.025423206 0.08303963 0.14457674 0.35686228 0.18224995 -0.4248686
-0.06632822 -0.45183623 -0.5295081 -0.90909755 0.24376486 0.55490977 0.14795673 -0.14137663
-0.32634595 -0.26905093 0.2519313 0.15065081 0.6610088 0.12656221 -0.69116485 -0.40751854
-0.34268457 -0.09678507 -0.97707796 0.2237507 -0.21161954 -0.4968206 -0.033423644 -0.059474938
0.14235231 0.16167139 0.5417612 -0.15765493 0.10778661 0.33881876 -0.30418876 -0.47288293
-0.6928689 -0.93331254 -0.8626789 0.533003 0.25750807 -0.070144154 0.22999606 0.48424417
0.21230593 0.12759368 0.0055362917 -0.49763942 -0.25619546 -0.3350287 -0.5016626 0.2766006

conv4.fc_self.bias f4 [20]
00000000: bad4 a43e cd48 413e f782 a8be bebc 22be
00000010: 11bb 653c e739 a1bc cc9c 05be bcd5 73bd
00000020: 85ee 18be b0bb f0bd b8d5 b23c 4169 46be
00000030: 4418 8a3d ae56 113e 734d 09be d68b d53d
00000040: a8a5 b73d dbd1 dbbe 0bb0 5ebe 2400 6e3e
0.32193547 0.18875428 -0.32912418 -0.15892312 0.014021651 -0.01968093 -0.13048095 -0.059530005
-0.14934738 -0.117545485 0.021830425 -0.19376089 0.067429096 0.14193222 -0.13408451 0.10427062
0.08967143 -0.42933545 -0.21746843 0.23242241
