VVG/Experiment_3 - Aggregation/Images7/model7_avg.pth (torch, 33506 bytes, 18 tensors)

conv1.fc_neigh.weight f4 [50, 7]
0.2805145 0.6768717 0.21686473 0.11299244 -0.123922504 0.71383035 -0.19714117 0.26115468
0.030681597 -0.31311786 0.36379093 -0.50644386 -0.14675058 -0.2867868 0.1140054 -0.0392948
-0.032137487 -0.49700287 0.11782631 0.5915406 0.7351335 -0.10722024 -0.31158638 0.088107124
-0.42201346 0.072293945 -0.27553347 -0.52905643 -0.0041018412 -0.6061317 -0.24295922 0.23811994
0.07575803 -0.92858535 0.857137 0.5116131 -0.048256204 -0.24119857 0.35491824 -0.10895832
0.007137357 -0.28917602 -0.045046005 0.17193633 -0.17131296 0.06515501 0.4167219 -0.07028332
0.19069979 0.021500502 0.2795881 0.31642115 -0.48385444 -0.3923757 -0.07672339 0.1149689
-0.6241139 0.06284302 0.32883298 0.013508115 0.23242243 0.16346987 -0.2786404 -0.8661866
0.38750136 0.24266517 -0.39103884 0.21682273 -0.0709668 -0.14516307 0.6163805 -0.111678466
-0.53639126 -0.024409806 -0.38922206 -0.018875148 0.53074944 0.083180934 0.14163241 0.14014298
0.3746649 -0.15871012 0.25090417 0.4469224 0.3133456 -0.42029154 -0.21869373 -0.71003073
0.20868786 -0.08412898 0.13453183 -0.09207279 -0.1212024 -0.42650574 -0.41407803 -0.061263617
0.07004745 -1.0317229 0.7922109 0.11937204 0.19533888 -0.167861 -0.21306203 -0.4779504
0.2481378 0.27305317 -0.24829121 0.45320445 0.35909778 0.28811458 -0.16366611 -0.08815696
-0.07587658 -0.3943235 0.3965176 0.2143882 -0.23589624 0.23460522 0.39545894 -0.35233185
-0.31353694 -0.16200505 -0.19663064 -0.19595857 -0.4323002 0.030065449 0.008192709 0.15203486
-0.5904741 0.19369082 0.43439144 0.310769 -0.4806389 0.35128894 -0.11805995 0.0938262
-0.17204317 0.110126786 -0.5752772 -0.34074372 -0.15968508 -0.9586117 -0.6418258 0.16897544
-0.24842025 -1.0506262 -0.21060666 0.0686046 0.5416846 -0.0048298007 0.07254289 -0.49457723
0.17814405 0.22729544 0.17645808 -0.00085707294 -0.14409056 0.24776065 -0.32200655 0.47535482
-0.07026395 0.3897629 0.39834905 0.19872087 0.17520529 -0.2592612 0.3320107 -0.032231715
-0.618615 -0.5319879 0.011657089 -0.22126698 -0.45483467 0.36503226 0.28182432 -0.42915314
0.0666324 -0.4438512 -0.050268542 0.3371696 0.07743604 -0.114703 0.11449069 0.55182165
0.58756864 -0.16690995 0.38279113 0.6125331 0.81014264 -0.63168734 0.2744917 -0.29817766
0.14046167 0.1527562 0.42035386 0.15067558 -0.040352352 -0.3345232 0.20625104 0.11738049
-0.42468277 -0.68704927 -0.6678901 -0.40953434 -0.115433246 0.31095177 -0.43660694 -0.29530525
0.4146154 0.65098953 -0.47742218 -0.17668624 0.2654404 -0.015516931 0.3636437 0.03375829
-0.7029014 -0.4414972 0.19398499 0.40688083 0.38313076 -0.080661505 -0.10573413 0.029646184
0.110585004 0.265434 -0.59356457 0.032595392 0.41749865 0.46287206 0.349986 -0.16104239
-0.35479686 -0.887539 -0.10585192 -0.117476515 0.10153945 0.32277632 0.45871457 0.30952102
0.07254923 0.2693183 -0.0840407 1.0371711 0.20034137 0.029681468 -0.39423606 0.8378533
-0.10304068 0.41239312 -0.29708925 0.61596 -0.25035477 0.5562994 0.17909503 0.46538138
00000000: 999f 8f3e 7747 2d3f ca11 5e3e 9568 e73d
00000010: 15cb fdbd 96bd 363f 60df 49be 11b6 853e
00000020: f957 fb3c fc50 a0be ce42 ba3e 4ea6 01bf
00000030: c945 16be b8d5 92be aa7b e93d 96f3 20bd
00000040: 99a2 03bd 2977 febe ec4e f13d 346f 173f
00000050: b631 3c3f 4996 dbbd 4088 9fbe 8271 b43d
00000060: 2612 d8be d90e 943d b912 8dbe 3e70 07bf
00000070: bd68 86bb 722b 1bbf 4dca 78be b7d5 733e
00000080: 0727 9b3d c5b7 6dbf 556d 5b3f 13f9 023f
00000090: 4ca8 45bd c2fc 76be d8b7 b53e 8a25 dfbd
000000a0: 7de0 e93b e10e 94be 2982 38bd 1410 303e
000000b0: aa6c 2fbe fd6f 853d 935c d53e b4f0 8fbd
000000c0: ce46 433e d221 b03c 2c26 8f3e f401 a23e
000000d0: c5bb f7be 78e5 c8be 2721 9dbd d174 eb3d
000000e0: eec5 1fbf d7b3 803d cc5c a83e 2451 5d3c
000000f0: 2500 6e3e a564 273e f4a9 8ebe 68be 5dbf
00000100: 9466 c63e 387d 783e 3e36 c8be c706 5e3e
00000110: 0b57 91bd a1a5 14be 1dcb 1d3f aeb7 e4bd
00000120: f050 09bf 13f7 c7bc 1d48 c7be 0ea0 9abc
00000130: 32df 073f c45a aa3d 1608 113e a481 0f3e
00000140: 14d4 bf3e e884 22be 8376 803e 03d3 e43e
00000150: d66e a03e 7430 d7be 40f1 5fbe 93c4 35bf
00000160: 45b2 553e d14b acbd b6c2 093e a990 bcbd
00000170: f738 f8bd f65e dabe 0902 d4be 8fef 7abd
00000180: 0a75 8f3d 7f0f 84bf 55ce 4a3f 5479 f43d
00000190: ea06 483e c1e3 2bbe ef2c 5abe eab5 f4be
000001a0: d617 7e3e a0cd 8b3e 0d40 7ebe 6a0a e83e
000001b0: aadb b73e c183 933e 1798 27be a38b b4bd
000001c0: 2e65 9bbd c5e4 c9be 5b04 cb3e 9588 5b3e
000001d0: c98e 71be 5a3c 703e 9879 ca3e d764 b4be
000001e0: ea87 a0be a7e4 25be 8b59 49be 5da9 48be
000001f0: 7456 ddbe d14b f63c b63a 063c 07af 1b3e
00000200: 5029 17bf e356 463e 8e68 de3e 1d1d 9f3e
00000210: 4d16 f6be 25dc b33e 6ac9 f1bd f327 c03d
00000220: 162c 30be 278a e13d 5e45 13bf f675 aebe
00000230: 7c84 23be 9467 75bf b24e 24bf e607 2d3e
00000240: e161 7ebe eb7a 86bf 46a9 57be 9280 8c3d
00000250: d8ab 0a3f 4e43 9ebb 5e91 943d 3a39 fdbe
00000260: 656b 363e 23c0 683e 6db1 343e 31ad 60ba
00000270: 7a8c 13be f8b4 7d3e 0bde a4be b561 f33e
00000280: 8ce6 8fbd 018f c73e 68f4 cb3e 7c7d 4b3e
00000290: 0469 333e e2bd 84be 4efd a93e 6705 04bd
000002a0: 8d5d 1ebf 5c30 08bf 60fd 3e3c d093 62be
000002b0: 17e0 e8be 82e5 ba3e 474b 903e f6b9 dbbe
000002c0: 9176 883d 7740 e3be 63e6 4dbd 7ea1 ac3e
000002d0: c996 9e3d 68e9 eabd 187a ea3d 2f44 0d3f
000002e0: e66a 163f 71ea 2abe 33fd c33e f8ce 1c3f
000002f0: 8265 4f3f 43b6 21bf 2d8a 8c3e beaa 98be
00000300: 2fd5 0f3e 1f6c 1c3e 9f38 d73e b34a 1a3e
00000310: 8248 25bd a046 abbe 7933 533e 2f65 f03d
00000320: 0570 d9be 76e2 2fbf d8fa 2abf 7cae d1be
00000330: 4468 ecbd 1235 9f3e f28a dfbe 4032 97be
00000340: 7848 d43e 40a7 263f ae70 f4be 3ded 34be
00000350: cee7 873e ba3a 7ebc 822f ba3e 2246 0a3d
00000360: 59f1 33bf ec0b e2be 00a4 463e af52 d03e
00000370: b729 c43e dc31 a5bd 238b d8bd 8edc f23c
00000380: 647a e23d f7e6 873e d9f3 17bf bf82 053d
00000390: 62c2 d53e 91fd ec3e 5d31 b33e 4ce8 24be
000003a0: efa7 b5be c235 63bf e4c8 d8bd 8797 f0bd
000003b0: eaf3 cf3d f042 a53e a3dc ea3e 8a79 9e3e
000003c0: b194 943d 17e4 893e 881d acbd 06c2 843f
000003d0: 4a26 4d3e 8d26 f33c 4fd9 c9be 8e7d 563f
000003e0: fe06 d3bd 3125 d33e 151c 98be 8eaf 1d3f
000003f0: 802e 80be a369 0e3f b064 373e 7846 ee3e

conv1.fc_self.weight f4 [50, 7]
-0.37596366 -0.63865155 -0.92196274 -0.09329083 0.025329115 -0.47278923 0.126574 0.12187631
0.16078389 0.25256962 -0.29191262 0.12714203 -0.13374273 -0.85497725 0.0058672484 0.39338794
-0.23348296 0.32707146 -0.008226619 0.2751441 -1.0222964 0.5635291 -0.092408665 0.087670565
-0.36327434 0.04831704 0.1849604 0.3404679 0.1859816 -1.4739854 -1.2312355 0.15963809
-0.26761112 -1.7745641 -0.5146436 -0.36861777 -0.9853427 0.056659963 -0.21688138 0.39298108
-0.6189269 -0.6521277 0.07452076 0.16107005 -0.16578002 -0.41536555 0.3769003 0.2036641
0.18007514 -0.18111135 0.26696128 0.11818444 0.16461991 0.2823227 0.3314589 -0.07328313
0.2200477 -0.1495101 0.25356564 0.42577964 -0.013726296 -0.23565759 -0.2924179 -0.37781298
0.26604325 0.45154116 -0.08436275 0.31728116 -0.04650253 -0.17666836 0.33550683 0.27454388
-0.22963424 0.08167283 0.17687659 -0.37605044 0.037128147 0.25257954 0.08366285 0.71648973
0.060054634 -0.06358582 -0.38321108 0.24721904 0.44533873 0.18140158 -0.59429765 -0.04986539
0.15790379 0.5553804 -1.4545088 0.02609133 0.45415765 0.079713084 0.18635373 0.22612093
0.65510267 0.16360553 -1.0179026 0.17481254 0.6025619 0.23017775 0.2642773 -0.5923367
-0.34963757 0.121886626 0.20939422 0.37405643 0.10302242 -0.27838868 -0.16415955 -0.12980945
0.1229303 -0.13711834 -0.22162008 0.3617779 0.0009942389 -0.51044494 0.07846763 -0.092421144
-0.33262753 -0.38932005 -0.26342347 -0.26244384 -0.3472923 -0.14442308 -0.60471755 0.4705654
0.46260235 -0.4946362 0.28219435 0.16951308 0.3474391 -0.104236014 -0.010642058 -0.16267882
-0.3338234 0.16540492 -0.41468552 0.5516453 0.39118835 -0.59221953 -0.8409598 -0.20913567
0.1948206 0.14425944 0.3804487 -0.07851244 0.18640105 -0.00851479 0.3680375 -0.20563796
-0.021171194 -0.41995496 0.51098967 -0.45330283 -0.045242608 -0.21449299 -0.40633968 0.39718732
-0.0023927921 -0.3025913 -0.8260391 -0.27592283 0.26018935 -0.13461739 -0.61490935 -1.6746528
0.5107729 0.5546446 0.5036097 0.06840458 -0.3469685 -0.058879808 0.5159525 0.42281
0.378381 -0.1910854 -0.31881064 -0.19205059 -0.06041937 -0.047628812 -0.14367728 -0.22372572
-0.5997015 -0.3175936 -0.09854313 0.028470434 0.53306824 0.2782287 0.07820621 -0.55521226
0.22267416 0.19756791 -0.09164287 0.1455011 0.45545056 0.026458664 -0.024966989 -0.1112429
0.047588583 -0.120795205 0.47365156 -0.30222303 0.34735382 0.66378444 0.20175649 0.18911982
-0.07413153 -0.34209588 0.013583195 0.19946405 0.21466075 0.2598317 0.20106165 -0.14121045
-0.36304563 -0.24975218 -0.041343987 0.38388532 0.09223442 -0.42387146 -0.32640544 0.26679847
-0.40005565 -0.80788445 -0.5089232 0.2153715 -0.13348839 -0.32646078 0.12900107 -0.087333344
-1.2578175 -2.282129 0.18556175 0.42031363 -0.9323206 -2.4396977 -0.38414326 -0.5801299
-0.30525628 0.04113683 -0.47203234 -1.1228383 -0.6544882 0.23528568 -0.045132637 0.17859043
-0.269927 -0.5902778 -0.015466673 -0.58072084 -0.6650019 -0.6355602 -0.02973124 0.041672215
00000000: 4f7e c0be ab7e 23bf c005 6cbf 430f bfbd
00000010: 017f cf3c 6e11 f2be 9d9c 013e 499a f93d
00000020: 88a4 243e ce50 813e 9275 95be 8531 023e
00000030: dbf3 08be cadf 5abf 0c42 c03b 256a c93e
00000040: 2816 6fbe e975 a73e f1c8 06bc b0df 8c3e
00000050: 9cda 82bf 7143 103f c140 bdbd a08c b33d
00000060: 18ff b9be 17e8 453d 4266 3d3e cf51 ae3e
00000070: f671 3e3e 8eab bcbf 2099 9dbf 2b78 233e
00000080: 5304 89be eb24 e3bf afbf 03bf 78bb bcbe
00000090: 6b3f 7cbf 4714 683d 2716 5ebe d134 c93e
000000a0: fe71 1ebf d7f1 26bf 579e 983d 8cef 243e
000000b0: 3dc2 29be cbaa d4be 13f9 c03e 528d 503e
000000c0: 9e65 383e 4175 39be 26af 883e af0a f23d
000000d0: 1f92 283e 9a8c 903e fbb4 a93e 7715 96bd
000000e0: 2f54 613e 2d19 19be 5bd3 813e caff d93e
000000f0: 42e4 60bc 3950 71be cdb7 95be b470 c1be
00000100: d236 883e 6730 e73e 61c6 acbd ad72 a23e
00000110: 7079 3ebd 8de8 34be 8dc7 ab3e 0491 8c3e
00000120: 3d25 6bbe 1644 a73d 231f 353e af89 c0be
00000130: af13 183d 1b52 813e 6e57 ab3d df6b 373f
00000140: d9fb 753d 4839 82bd 3e34 c4be fd26 7d3e
00000150: 7003 e43e 56c1 393e e423 18bf a73f 4cbd
00000160: 88b1 213e 692d 0e3f 582d babf 7cbd d53c
00000170: 5a87 e83e 9d40 a33d 83d3 3e3e 3f8c 673e
00000180: cfb4 273f 3588 273e a24a 82bf 0f02 333e
00000190: 7f41 1a3f b7b3 6b3e 5b4f 873e 61a3 17bf
000001a0: b203 b3be b29f f93d 706b 563e 5384 bf3e
000001b0: 6bfd d23d f688 8ebe 7119 28be c5ec 04be
000001c0: e2c2 fb3d c068 0cbe 60f0 62be f43a b93e
000001d0: 1f51 823a 85ac 02bf a3b3 a03d 4c47 bdbd
000001e0: 284e aabe f554 c7be 71df 86be 0a5f 86be
000001f0: 4cd0 b1be a5e3 13be c5ce 1abf f3ed f03e
00000200: 37da ec3e f540 fdbe c77b 903e d694 2d3e
00000210: 8ae3 b13e b179 d5bd 075c 2ebc 4795 26be
00000220: e7ea aabe e85f 293e a951 d4be a038 0d3f
00000230: d749 c83e b39b 17bf 2449 57bf a927 56be
00000240: 0d7f 473e bfb8 133e 2cca c23e 21cb a0bd
00000250: ebdf 3e3e 9e81 0bbc 696f bc3e c292 52be
00000260: 366f adbc 5604 d7be 38d0 023f 4f17 e8be
00000270: 5050 39bd 0da4 5bbe c10b d0be 235c cb3e
00000280: 64d0 1cbb 3fed 9abe 4c77 53bf c245 8dbe
00000290: 8a37 853e 24d9 09be b36a 1dbf 065b d6bf
000002a0: 03c2 023f 30fd 0d3f 91ec 003f b317 8c3d
000002b0: dba5 b1be f42b 71bd 7715 043f 8d7a d83e
000002c0: 28bb c13e e4ab 43be 263b a3be e9a8 44be
000002d0: 4d7a 77bd 6e16 43bd 2320 13be 5b18 65be
000002e0: 0a86 19bf a19b a2be fbd0 c9bd d43a e93c
000002f0: 2977 083f fe73 8e3e 942a a03d 6422 0ebf
00000300: b204 643e 3e4f 4a3e 42af bbbd 3efe 143e
00000310: d130 e93e d7bf d83c 9287 ccbc 51d3 e3bd
00000320: 3fec 423d 7a63 f7bd 7582 f23e fabc 9abe
00000330: 5cd8 b13e c7ed 293f 4199 4e3e a0a8 413e
00000340: 46d2 97bd 3127 afbe 0d8c 5e3c 4e40 4c3e
00000350: 07d0 5b3e a908 853e 1be3 4d3e 7999 10be
00000360: 1ee1 b9be 09bf 7fbe 5058 29bd 9e8c c43e
00000370: 66e5 bc3d ae05 d9be 9d1e a7be cf99 883e
00000380: 18d4 ccbe 84d1 4ebf ca48 02bf 598a 5c3e
00000390: 2eb1 08be de25 a7be db18 043e d3db b2bd
000003a0: 2a00 a1bf 670e 12c0 e603 3e3e 5933 d73e
000003b0: 90ac 6ebf 0224 1cc0 6dae c4be 6583 14bf
000003c0: 8d4a 9cbe 187f 283d 39ae f1be 2ab9 8fbf
000003d0: 8a8c 27bf bbee 703e 00dd 38bd 69e0 363e
000003e0: df33 8abe 721c 17bf ee67 7dbc 1faa 14bf
000003f0: 913d 2abf 13b4 22bf ee8e f3bc 7cb0 2a3d

conv1.fc_self.bias f4 [50]
0.13935748 -0.05023587 0.040338296 0.34554812 -0.17060053 -0.26291615 -0.3594291 0.38082278
0.078889556 0.25675553 -0.2644583 -0.441713 0.028024428 0.13670892 -0.07984607 -0.520627
-0.26613432 -0.074931614 0.15976386 0.28864878 -0.020590948 0.0121421935 0.1016005 0.0053014862
0.46288323 -0.3756493 -0.22778872 -0.42916954 0.10803481 -0.10688652 -0.17954779 0.40114707
-0.22656177 0.017429128 0.2093392 0.044213496 -0.09700824 -0.23582362 0.06717839 -0.13276078
0.18415518 -0.26017436 -0.3763519 0.0921375 -0.23001458 0.3070173 -0.14698458 -0.048301402
-0.45548996 0.20172541
00000000: bab3 0e3e 21c4 4dbd c539 253d afeb b03e
00000010: e8b1 2ebe f29c 86be 1707 b8be 34fb c23e
00000020: d990 a13d 7675 833e 1467 87be 3528 e2be
00000030: 7c93 e53c 6cfd 0b3e 5686 a3bd d047 05bf
00000040: c242 88be bf75 99bd 2399 233e c6c9 933e
00000050: 59ae a8bc 0df0 463c ec13 d03d 17b8 ad3b
00000060: 08ff ec3e 1b55 c0be 7241 69be 1cbc dbbe
00000070: 5b41 dd3d 52e7 dabd 60db 37be 2663 cd3e
00000080: cfff 67be 88c7 8e3c 045d 563e 3619 353d
00000090: 42ac c6bd bf7b 71be d394 893d 71f2 07be
000000a0: 2d93 3c3e 9335 85be 32b1 c0be 96b2 bc3d
000000b0: f188 6bbe 5f31 9d3e 2083 16be b1d7 45bd
000000c0: fb35 e9be 1b91 4e3e

conv2.weight f4 [50, 40]
0.26972994 -0.5015945 0.055080447 0.0075417417 0.03610503 -0.052148104 0.13408308 -0.16164963
0.03611419 0.08109539 0.21247938 0.32593805 -0.2518296 0.1033968 0.18733925 -0.22289224
0.09256755 -0.01645648 -0.13917921 0.19549564 0.06997813 0.046760727 0.13079306 -0.49939597
-0.25465053 -0.08947592 0.1435125 -0.16668898 -0.20589936 -0.0803501 -0.12311176 0.058325745
-0.12603456 0.31131086 0.12915377 0.13326637 0.033204824 0.18033187 -0.37174508 0.19728117
0.29738078 -0.23153876 -0.081772186 0.32017276 0.117945574 -0.12659568 -0.10461274 -0.18098411
0.15824814 -0.05816673 0.30174792 0.19878542 -0.03657258 0.10531231 0.32391858 0.11695708
-0.59993935 -0.1359423 -0.21960102 -0.17911263 -0.041185785 -0.40870154 -0.10580132 0.074246906
0.41312298 0.20403424 -0.20227979 -0.042820636 0.14684466 0.21795414 0.25299937 -0.12119701
0.12773557 -0.044194467 -0.00255234 0.09368042 0.08966594 -0.23141187 -0.46388432 -0.039367896
0.09715585 -0.21651585 0.16521677 -0.49621984 0.061460193 0.15974051 -0.05883877 0.16810569
-0.091050915 -0.24635504 0.53279036 0.30002388 0.14303313 0.13459757 0.079247326 0.10106737
0.30317798 -0.031793267 -0.23797451 0.43776587 0.088083394 0.29867578 0.12098573 0.18113701
-0.42608735 -0.1796537 0.15013543 -0.016269363 -0.23745722 0.056785263 -0.05040219 0.15931416
0.32033247 0.0015254532 0.047828767 -0.007458278 0.10849873 -0.29533383 -0.12330639 0.2454039
0.20415154 0.3431314 -0.2064125 0.009723889 -0.26543185 -0.3232256 0.19462925 0.13621987
0.12964872 -0.14840554 -0.036998793 -0.067952074 -0.11087723 -0.14485915 0.10573662 0.30092886
-0.10411377 -0.1283853 0.12537593 0.29845473 -0.4946291 0.03863827 -0.5490217 0.67888653
-0.35382092 -0.13565911 0.07607263 0.078364156 0.46416312 -0.25011846 -0.0077832066 -0.04748761
0.14951316 0.3169662 0.41577497 -0.034963302 -0.29836184 -0.69549525 -0.194604 -0.40596652
0.17566557 -0.15917295 -0.07701963 0.037422936 -0.18177333 0.28739598 0.20773456 -0.32721964
-0.078162275 -0.3509768 0.047069535 -0.008391925 -0.10198201 0.22343327 -0.0014619143 0.021028858
0.23105685 0.15723853 -0.15023904 0.3807853 0.39477366 -0.3141619 -0.041754857 -0.2590014
0.29008645 -0.2316369 -0.27204713 0.22757503 0.09063538 -0.14790815 -0.04118313 0.17071459
0.19854634 0.2785579 -0.22404745 -0.15684208 0.039470445 0.19316818 -0.085471764 -0.08562211
-0.5097753 -0.29064113 0.06878083 -0.0224686 0.1047144 0.20962939 0.09739081 -0.2795843
-0.08298259 0.21219905 0.14713478 0.3901317 0.28607973 0.33370042 0.20200606 -0.15793657
0.06410693 0.6289104 0.24434002 0.010455906 -0.1318164 0.52458644 0.086124964 -0.43952107
-0.04211626 0.31712312 -0.041783117 -0.1323829 -0.1166594 0.4270103 0.366648 -0.19623661
0.107622385 -0.52908224 0.055888448 -0.12018528 -0.26488814 -1.7464374 -0.6915491 -0.047220267
-0.17581044 -0.018636651 -0.12199034 -0.5689876 -0.015493515 -0.36465752 0.06821634 0.111333825
-0.63857293 -0.13776417 0.0016498435 -0.32256195 0.24692528 -0.14250274 -0.07698357 -0.14799012
00000000: 0b1a 8a3e 7f68 00bf 099c 613d b720 f73b
00000010: dee2 133d 4099 55bd 134d 093e 7b87 25be
00000020: 79ec 133d 5715 a63d 3294 593e 5ae1 a63e
00000030: cfef 80be b4c1 d33d dcd5 3f3e dd3d 64be
00000040: 0e94 bd3d bdcf 86bc ff84 0ebe 0230 483e
00000050: b250 8f3d 2d88 3f3d 9eee 053e d4b0 ffbe
00000060: 8e61 82be 273f b7bd f1f4 123e 84b0 2abe
00000070: 48d7 52be 988e a4bd 0522 fcbd fae6 6e3d
00000080: 340f 01be 2364 9f3e e340 043e fb76 083e
00000090: c801 083d eba8 383e 5f55 bebe 1304 4a3e
000000a0: 4b42 983e 7f18 6dbe 2d78 a7bd afed a33e
000000b0: 738d f13d 4ca2 01be 343f d6bd e653 39be
000000c0: cd0b 223e 3d40 6ebd b47e 9a3e 688e 4b3e
000000d0: 21cd 15bd fbad d73d a8d8 a53e 3287 ef3d
000000e0: a095 19bf 7534 0bbe 17df 60be 4d69 37be
000000f0: 6db2 28bd 5441 d1be 5dae d8bd c30e 983d
00000100: db84 d33e 5aee 503e 6f22 4fbe b164 2fbd
00000110: 725e 163e 5f2f 5f3e 2289 813e 2336 f8bd
00000120: 1dcd 023e 4205 35bd 2945 27bb 85db bf3d
00000130: c7a2 b73d 3cf7 6cbe 3f82 edbe 3b40 21bd
00000140: a5f9 c63d 55b6 5dbe 962e 293e 8710 febe
00000150: afbd 7b3d 0493 233e ec00 71bd e623 2c3e
00000160: e778 babd 7f44 7cbe f364 083f bb9c 993e
00000170: 4777 123e f2d3 093e 6c4c a23d 69fc ce3d
00000180: 253a 9b3e a839 02bd 97af 73be d922 e03e
00000190: 1165 b43d 08ec 983e 5ec7 f73d fb7b 393e
000001a0: 1f28 dabe 24f7 37be 1abd 193e 5447 85bc
000001b0: fc27 73be aa97 683d 8772 4ebd 4023 233e
000001c0: 9e02 a43e b7f1 c73a 19e8 433d 9264 f4bb
000001d0: 9534 de3d ff35 97be 1088 fcbd 294b 7b3e
000001e0: 1a0d 513e ebae af3e cc5d 53be f250 1f3c
000001f0: afe6 87be d37d a5be e44c 473e 397d 0b3e
00000200: a2c2 043e 9ff7 17be 0c8c 17bd 752a 8bbd
00000210: 9a13 e3bd f555 14be 718c d83d 5913 9a3e
00000220: 9a39 d5bd 7077 03be 8c62 003e 0fcf 983e
00000230: 0740 fdbe 2a43 1e3d b08c 0cbf 82cb 2d3f
00000240: 0428 b5be 39ea 0abe f8cb 9b3d 637d a03d
00000250: caa6 ed3e 870f 80be 450a ffbb 5e82 42bd
00000260: fa19 193e 6549 a23e 75e0 d43e ae35 0fbd
00000270: e2c2 98be fa0b 32bf 4546 47be d8da cfbe
00000280: ade1 333e 3cfe 22be 78bc 9dbd cb48 193d
00000290: ca22 3abe 9125 933e 5eb8 543e 5589 a7be
000002a0: 8b13 a0bd 3bb3 b3be fccb 403d 497e 09bc
000002b0: f2db d0bd b1cb 643e b49d bfba b644 ac3c
000002c0: 2b9a 6c3e 2303 213e 43d8 19be 4af6 c23e
000002d0: c61f ca3e d4d9 a0be 2407 2bbd d59b 84be
000002e0: 3686 943e 3932 6dbe c349 8bbe 6e09 693e
000002f0: 0b9f b93d 3c75 17be a4af 28bd cecf 2e3e
00000300: bb4f 4b3e 249f 8e3e b26c 65be 369b 20be
00000310: c3ab 213d e1cd 453e d20b afbd a55a afbd
00000320: a280 02bf eace 94be f7dc 8c3d 1210 b8bc
00000330: 8174 d63d 16a9 563e d574 c73d ac25 8fbe
00000340: c7f2 a9bd b54a 593e 80aa 163e 58bf c73e
00000350: 0b79 923e c8da aa3e adda 4e3e 20ba 21be
00000360: 7e4a 833d 4600 213f 4534 7a3e 404f 2b3c
00000370: e1fa 06be 4c4b 063f 4962 b03d e808 e1be
00000380: 1982 2cbd f65d a23e c624 2bbd 628f 07be
00000390: 20eb eebd 18a1 da3e 49b9 bb3e 40f2 48be
000003a0: 2069 dc3d ef71 07bf 49eb 643d b323 f6bd
000003b0: 6b9f 87be 438b dfbf 5d09 31bf 0a6a 41bd
000003c0: a707 34be e4ab 98bc 12d6 f9bd 2ca9 11bf
000003d0: 83d8 7dbc 64b4 babe 02b5 8b3d fd02 e43d
000003e0: 8479 23bf 0d12 0dbe 903f d83a d726 a5be
000003f0: fbd9 7c3e 3dec 11be 90a9 9dbd b98a 17be

conv2.bias f4 [40]
0.15317813 -0.011747019 -0.12471313 0.19625622 -0.0456255 0.036262993 0.011736487 0.03207614
-0.13313244 -0.07371252 -0.25290406 0.036852367 0.056964863 -0.054580636 -0.011326417 0.0068490226
0.06732894 0.19492614 -0.057936214 -0.35184935 -0.038750093 0.32177266 -0.05111859 -0.0641008
-0.06807601 -0.20760792 0.24065383 0.0033675893 -0.15707426 -0.09392342 -0.2254322 -0.009988289
-0.2577498 -0.053509578 -0.03217234 0.12737508 -0.022103105 -0.12942684 -0.032295756 -0.018069126
00000000: bada 1c3e 9276 40bc 9969 ffbd 64f7 483e
00000010: cee1 3abd 8188 143d 654a 403c 4562 033d
00000020: df53 08be 97f6 96bd a47c 81be 82f2 163d
00000030: fd53 693d f28f 5fbd 7092 39bc c46d e03b
00000040: c1e3 893d b89a 473e 864e 6dbd 9925 b4be
00000050: 6bb8 1ebd 63bf a43e ba61 51bd 4847 83bd
00000060: 6f6b 8bbd 2c97 54be f56d 763e c6b2 5c3b
00000070: 13d8 20be ec5a c0bd b3d7 66be eca5 23bc
00000080: c8f7 83be dc2c 5bbd 25c7 03bd 9d6e 023e
00000090: 9211 b5bc 7888 04be 8e48 04bd b405 94bc

conv3.fc_neigh.weight f4 [30, 40]
-0.4521347 0.64271635 -0.15875226 0.36944467 -0.2050629 0.24149375 -0.047136758 -0.8313714
0.13652954 0.13247809 -0.006094739 -0.5244459 -0.27178246 -0.09728992 0.392456 -0.33157086
-0.079461955 -0.43703833 -0.16984466 -0.24133502 -0.4960371 -0.35533053 -0.36194178 0.05643719
0.8242233 -0.39054048 -0.6949959 -0.7779695 -0.025364002 0.23335102 -0.33612812 0.109868445
0.08423679 0.11985755 0.34840006 0.25365233 0.2172046 0.67481476 0.51664156 0.3065848
-0.08505622 -0.3802647 -0.40778223 -0.0140036475 -0.027617145 -0.67771864 -0.45808208 -0.074940845
-0.027359184 0.15606028 -0.6346476 -0.45625103 -0.44618228 -0.37706524 -0.64171946 -0.5195783
0.41335166 -0.70096964 0.2387168 -0.19370922 -0.5787795 -0.010243761 -0.1728712 0.14192559
0.005779165 -0.47565037 -0.18582767 -0.31523544 -0.19179644 0.106210545 -0.16686954 0.0035572874
0.070858665 -0.60221475 -0.3237382 0.18350291 0.13860811 0.18508512 0.4103804 0.34042683
0.038032684 0.040782947 -0.2231208 -0.097586244 -0.3596338 0.14885658 0.3654491 -0.27446613
0.00046358758 0.18891901 -0.25267762 0.6001926 0.17094266 0.53126204 -0.1963132 0.14895906
-0.41620815 -0.22233038 0.064743266 0.039648484 -0.101035215 0.14579861 -0.12524642 -0.558075
0.15076785 0.07455924 0.6541792 0.32661134 0.37053788 0.21381001 -0.07049848 -0.31642592
0.061290517 0.23628095 0.28126618 0.39733714 -0.25824142 -0.6305505 0.8471425 -0.319899
-0.44990543 -0.2148894 -0.32238835 0.010967267 -0.38880286 -0.15546799 -0.24674024 -0.39724162
0.6243494 0.048143495 -0.5664445 -0.4490703 -0.32272884 -0.8645599 -0.22348154 -0.22669192
-0.31133732 -0.34678125 -0.37976402 -0.35198066 -0.3199899 0.4500379 -0.5693579 0.037356894
0.12360949 -0.6076077 -0.5164439 -0.07780591 -0.4646246 0.15156007 -0.011551887 -0.00966778
-0.56419885 -0.88927203 -0.41744295 0.14251448 0.33852285 0.16531938 0.1037215 -0.06596754
-0.33434558 0.4626369 -0.1880897 -0.2554181 -0.03661015 -0.014013989 -0.062415455 0.038763452
-0.23859061 -0.2775231 0.21565655 0.39120832 -0.2931779 -0.08582306 -0.38954353 0.3228056
0.3074221 0.012398672 -0.3494548 -0.26031327 0.13347872 0.58675146 -0.11581835 -0.30740258
0.3062287 -0.26297542 0.34729546 0.15474756 -0.2638472 -0.39759535 -0.09266463 0.28483918
0.34250408 0.16064765 0.4578788 -0.019617977 0.008088186 -0.26760724 -0.23076895 0.27588174
0.53553087 0.09190981 -0.03187246 -0.25392 -0.06590495 0.21932614 0.23952797 -0.24602886
-0.6223592 0.11742376 0.060241975 -0.34368524 0.538968 -0.5309541 0.18578906 0.4514461
0.20610349 -0.2015988 -0.3853067 0.36243635 0.25712872 0.45261928 0.10933319 1.0685604
-0.039521653 0.34785768 -0.31632763 0.19838703 0.39222482 0.41011447 0.42636457 0.1848593
0.037839677 -0.09005327 0.41432372 0.29104936 0.2691777 0.29769585 0.24543574 0.22677097
0.34982932 -0.26561883 0.25406346 0.3308889 0.33529902 0.24048476 0.24847701 -0.11120589
-0.56097174 -0.08388918 0.22800025 -0.5259066 0.110678405 0.34983116 0.15263373 -0.4806019
00000000: 337e e7be 0f89 243f f48f 22be da27 bd3e
00000010: 02fc 51be 234a 773e 7912 41bd c2d4 54bf
00000020: 66ce 0b3e 56a8 073e 60b6 c7bb 1642 06bf
00000030: 1227 8bbe f03f c7bd feef c83e a8c3 a9be
00000040: f3bc a2bd 7dc3 dfbe c2eb 2dbe 8720 77be
00000050: 93f8 fdbe e2ed b5be 6f50 b9be af2a 673d
00000060: 4c00 533f ecf4 c7be 40eb 31bf 0229 47bf
00000070: 2bc8 cfbc 92f3 6e3e fc18 acbe b502 e13d
00000080: 5784 ac3d e077 f53d 7e61 b23e b8de 813e
00000090: e26a 5e3e a9c0 2c3f 9f42 043f aff8 9c3e
000000a0: f531 aebd 0eb2 c2be d5c8 d0be 8e6f 65bc
000000b0: 5a3d e2bc f87e 2dbf bc89 eabe 967a 99bd
000000c0: 5e20 e0bc 44ce 1f3e 4478 22bf bc99 e9be
000000d0: 0172 e4be b20e c1be ba47 24bf 1503 05bf
000000e0: d4a2 d33e bf72 33bf 2d72 743e b65b 46be
000000f0: e52a 14bf 73d5 27bc 2605 31be f154 113e
00000100: 265f bd3b 7288 f3be 9c49 3ebe 8a66 a1be
00000110: 4966 44be ea84 d93d d9df 2abe 6121 693b
00000120: 591e 913d bf2a 1abf 03c1 a5be 30e8 3b3e
00000130: 49ef 0d3e f486 3d3e 611d d23e 6d4c ae3e
00000140: 29c8 1b3d 050c 273d c779 64be 4cdb c7bd
00000150: ec21 b8be dc6d 183e 251c bb3e d386 8cbe
00000160: ac0d f339 fc73 413e f65e 81be 39a6 193f
00000170: 980b 2f3e ca00 083f 5406 49be b988 183e
00000180: 3c19 d5be 93aa 63be 1e98 843d 7366 223d
00000190: 8deb cebd 3b4c 153e 9940 00be 01de 0ebf
000001a0: e362 1a3e 84b2 983d 4a78 273f 9a39 a73e
000001b0: 24b7 bd3e 03f1 5a3e 8261 90bd 9402 a2be
000001c0: c40b 7b3d a2f3 713e 1f02 903e c66f cb3e
000001d0: 3838 84be c26b 21bf 55de 583f cdc9 a3be
000001e0: 015a e6be f80b 5cbe 1610 a5be 0db0 333c
000001f0: 2b11 c7be 0033 1fbe 79a9 7cbe 4163 cbbe
00000200: 5dd5 1f3f 1d32 453d 8202 11bf 8bec e5be
00000210: b73c a5be cc53 5dbf 58d8 64be ed21 68be
00000220: 9b67 9fbe 508d b1be 6e70 c2be cf36 b4be
00000230: b7d5 a3be 5e6b e63e 70c1 11bf 8b03 193d
00000240: f926 fd3d 2e8c 1bbf ab35 04bf b458 9fbd
00000250: 47e3 edbe 9032 1b3e 2044 3dbc 9c65 1ebc
00000260: 566f 10bf 55a7 63bf 15bb d5be 51ef 113e
00000270: de52 ad3e 7c49 293e f06b d43d fd19 87bd
00000280: 582f abbe bede ec3e 969a 40be 29c6 82be
00000290: 86f4 15bd ee9a 65bc 59a7 7fbd 6dc6 1e3d
000002a0: 1951 74be 8217 8ebe 12d5 5c3e 754c c83e
000002b0: 6a1b 96be 00c4 afbd 4072 c7be c746 a53e
000002c0: 6e66 9d3e cd23 4b3c bdeb b2be c847 85be
000002d0: a5ae 083e 5835 163f 2c32 edbd df63 9dbe
000002e0: 02ca 9c3e b7a4 86be b6d0 b13e 2576 1e3e
000002f0: fb16 87be 9e91 cbbe f4c6 bdbd 71d6 913e
00000300: b25c af3e d180 243e 176f ea3e e1b5 a0bc
00000310: 5084 043c d103 89be b24e 6cbe 5f40 8d3e
00000320: 8d18 093f 363b bc3d b28c 02bd cd01 82be
00000330: 2df9 86bd 0897 603e d246 753e fdee 7bbe
00000340: ef52 1fbf de7b f03d 4ac0 763d 83f7 afbe
00000350: cff9 093f 9cec 07bf 7d3f 3e3e f123 e73e
00000360: cb0c 533e ea6f 4ebe eb46 c5be 4291 b93e
00000370: 60a6 833e b7bd e73e 14ea df3d 96c6 883f
00000380: 75e1 21bd 671a b23e b2f5 a1be f825 4b3e
00000390: b1d1 c83e 86fa d13e 754c da3e c24b 3d3e
000003a0: c7fd 1a3d d96d b8bd 3d22 d43e 6c04 953e
000003b0: a9d1 893e 976b 983e 8253 7b3e a636 683e
000003c0: d41c b33e 31ff 87be 9b14 823e 456a a93e
000003d0: 50ac ab3e a341 763e c270 7e3e eabf e3bd
000003e0: d89b 0fbf 17ce abbd e678 693e d1a1 06bf
000003f0: 5cab e23d 121d b33e 044c 1c3e 7411 f6be

conv3.fc_self.weight f4 [30, 40]
-0.50531733 -0.22925359 -0.5481336 0.36556286 0.33423427 0.12670247 -0.2154872 -0.5714329
0.50872505 0.32866877 0.48856768 -0.6785844 -0.013785826 -0.5033259 0.50055283 -0.10093026
-0.25324363 0.24177803 0.3619029 -0.8384308 -0.28279757 0.25968772 -0.07270936 0.42781442
0.20700137 -0.22375682 -0.5342016 -0.48071033 0.3556968 -0.18400091 -0.013871088 0.13857295
-0.11496497 0.10356127 -0.59167105 0.012511856 0.32999206 0.3323095 -0.5527924 0.2596575
-0.101752505 -0.14139901 0.3377976 -0.4641634 0.077127345 0.31414548 0.06835218 -0.028124321
0.5453738 -0.011881415 0.5123269 0.38322675 0.21599276 0.8965857 0.17689665 0.08943362
0.6324179 -0.15887633 0.3116773 0.43138406 0.110125445 0.2708736 -0.20637675 -0.029762933
0.23767562 0.2635662 -0.09212186 0.4199253 0.013886145 -0.42920098 0.37988427 -0.058645453
0.11874349 -0.13331613 0.5640255 -0.060619105 0.035097938 0.33526513 0.39750692 -0.17612489
0.6569582 0.3703957 0.07529885 -0.24042961 -0.16751628 0.39631143 -0.2853734 0.36601645
0.19776689 -0.03764591 0.20106527 0.12791255 -0.19445248 0.5576444 -0.35788757 -0.08690307
-0.45907634 0.06895623 0.37396866 -0.07379035 0.017044343 -0.21771173 -0.52628565 -0.27713645
0.17774025 0.10944501 0.25384763 0.20378359 0.57615054 -0.07600748 0.24762908 0.29742587
0.06759236 -0.1998094 -0.12544468 0.3483963 -0.050171517 -0.2024247 0.6897063 0.092434466
0.61060333 0.011219896 -0.17834972 0.31620458 -0.2986752 -0.26116621 0.42526498 -0.1683706
0.7005624 -0.3875113 -0.064661846 -0.5679616 -0.24224955 0.5755482 0.37242007 0.12497621
0.070792854 0.20835803 0.2586238 -0.06897587 0.017601412 -0.011293467 -0.27654192 0.57760936
0.6588008 -0.15144368 -1.2482283 0.2071754 -0.17693447 0.45200843 0.32010219 0.024594596
0.38233063 -0.079388 -0.20468637 0.09389717 -0.30954757 0.16440435 -0.2513201 0.5019529
-0.32272655 0.036914617 -0.08416575 0.05959909 -0.41812137 -0.22948939 0.28821328 -0.12532124
-0.29921284 -0.08370591 0.16373795 0.6319893 -0.06581263 -0.607653 0.09582983 0.6287375
0.58865374 -0.036276564 0.34123775 0.40945026 0.2595543 0.45936346 -0.34372687 0.3532183
0.10349456 0.39886388 0.6536328 0.3439591 -0.5012731 -0.3425948 -0.26534113 -0.2585146
0.4439843 0.063692324 0.0898111 0.3524064 -0.18822393 -0.21137615 -0.1536479 -0.011972792
0.16557527 -0.14304069 -0.47050062 -0.5379293 -0.4271012 0.22139163 0.09898183 -0.4598723
-0.81980264 0.25631183 -0.16309045 -0.12548324 0.038179178 -0.044638846 0.16733703 -0.61333025
-0.21436201 0.06976455 -0.37517008 -0.2461404 -0.24197613 0.2949332 -0.08115468 -0.05495434
-0.33960736 -0.4319249 0.4250033 -0.18408236 -0.069010876 -0.24033335 0.28034002 0.27632818
-0.30710045 0.32970223 -0.3539489 -0.20221068 0.30656162 -0.45010322 -0.13124196 0.21386476
-0.8669727 -0.6059415 0.124379866 -0.034957968 -0.24818544 0.43106365 0.24242242 -0.3731806
-0.26433042 -0.2006298 -0.42811203 -0.2990189 0.41305467 0.073232606 0.36630884 -0.18979295
00000000: 7a5c 01bf 74c1 6abe 7c52 0cbf 0e2b bb3e
00000010: c120 ab3e 4bbe 013e ada8 5cbe 6d49 12bf
00000020: ce3b 023f 4647 a83e 8b25 fa3e b5b7 2dbf
00000030: f2dd 61bc f7d9 00bf 3b24 003f 86b4 cebd
00000040: 26a9 81be a994 773e 564b b93e 67a3 56bf
00000050: d8ca 90be caf5 843e a5e8 94bd 7e0a db3e
00000060: 2bf8 533e 8220 65be 70c1 08bf aa1f f6be
00000070: e41d b63e bc6a 3cbe 8f43 63bc 11e6 0d3e
00000080: c172 ebbd ee17 d43d c177 17bf 87fe 4c3c
00000090: b8f4 a83e 7924 aa3e cd83 0dbf d4f1 843e
000000a0: 9e63 d0bd e7ca 10be cff3 ac3e d3a6 edbe
000000b0: f1f4 9d3d add7 a03e 3afc 8b3d fa64 e6bc
000000c0: 9e9d 0b3f 44aa 42bc db27 033f 4c36 c43e
000000d0: 352d 5d3e a486 653f 6524 353e f928 b73d
000000e0: 24e6 213f 7ab0 22be 2b94 9f3e 5fde dc3e
000000f0: 7389 e13d f2af 8a3e 6d54 53be 65d1 f3bc
00000100: 3d61 733e 26f2 863e 63aa bcbd 7300 d73e
00000110: b782 633c 3bc0 dbbe 3180 c23e 3736 70bd
00000120: c92f f33d 0684 08be fa63 103f bd4b 78bd
00000130: dbc2 0f3d dfa7 ab3e 0786 cb3e 155a 34be
00000140: 6a2e 283f 81a4 bd3e 4936 9a3d 2e33 76be
00000150: 6389 2bbe 55e9 ca3e 761c 92be 8266 bb3e
00000160: 6783 4a3e 9932 1abd 0ee4 4d3e 82fb 023e
00000170: 8d1e 47be c9c1 0e3f 0a3d b7be 3dfa b1bd
00000180: 0e0c ebbe ed38 8d3d d278 bf3e 651f 97bd
00000190: 94a0 8b3c d3ef 5ebe a8ba 06bf d4e4 8dbe
000001a0: 8a01 363e b524 e03d 51f8 813e a5ac 503e
000001b0: 9a7e 133f cfa9 9bbd 7a92 7d3e 3448 983e
000001c0: dd6d 8a3d d69a 4cbe 9274 00be 0061 b23e
000001d0: a680 4dbd 6c48 4fbe 9890 303f 484e bd3d
000001e0: 8050 1c3f a8d3 373c 4fa1 36be 91e5 a13e
000001f0: f5eb 98be 94b7 85be 55bc d93e 5869 2cbe
00000200: 0f58 333f e267 c6be 6e6d 84bd ee65 11bf
00000210: 4410 78be 2057 133f d8ad be3e 87f3 ff3d
00000220: d8fb 903d cf5b 553e 576a 843e 3943 8dbd
00000230: d630 903c 3c08 39bc e796 8dbe 35de 133f
00000240: 2ba7 283f 0d14 1bbe f2c5 9fbf ca25 543e
00000250: 4f2e 35be a66d e73e 6fe4 a33e 9b7a c93c
00000260: d7c0 c33e 2d96 a2bd 4e99 51be 294d c03d
00000270: 057d 9ebe 9d59 283e 07ad 80be fc7f 003f
00000280: 6a3c a5be c833 173d 185f acbd 2d1e 743d
00000290: 0114 d6be 44ff 6abe b190 933e 3654 00be
000002a0: 6d32 99be 016e abbd ecaa 273e 0dca 213f
000002b0: c6c8 86bd 268f 1bbf 6e42 c43d f1f4 203f
000002c0: 03b2 163f bc96 14bd b7b6 ae3e 77a3 d13e
000002d0: 4de4 843e b031 eb3e f8fc afbe 07d9 b43e
000002e0: f5f4 d33d e337 cc3e 7b54 273f 681b b03e
000002f0: 6f53 00bf 9668 afbe cbda 87be 075c 84be
00000300: e951 e33e 1f71 823d e2ee b73d 9d6e b43e
00000310: c6bd 40be fd72 58be e055 1dbe 8829 44bc
00000320: 908c 293e 4279 12be 75e5 f0be bcb5 09bf
00000330: 02ad dabe 7db4 623e fcb6 ca3d 6274 ebbe
00000340: 96de 51bf 4e3b 833e 2f01 27be ae7e 00be
00000350: c561 1c3d 39d7 36bd 665a 2b3e 3603 1dbf
00000360: b781 5bbe b7e0 8e3d 4b16 c0be 3b0c 7cbe
00000370: 97c8 77be 7c01 973e 6d34 a6bd cd17 61bd
00000380: 04e1 adbe 4325 ddbe 089a d93e 1680 3cbe
00000390: 9355 8dbd f219 76be ba88 8f3e e37a 8d3e
000003a0: 453c 9dbe bbce a83e ca38 b5be 5110 4fbe
000003b0: a5f5 9c3e ee73 e6be 4b64 06be 5dff 5a3e
000003c0: ecf1 5dbf fb1e 1bbf dfba fe3d 1630 0fbd
000003d0: 5324 7ebe 60b4 dc3e 953d 783e 8711 bfbe
000003e0: 5156 87be e671 4dbe 8031 dbbe 0119 99be
000003f0: e77b d33e fafa 953d d58c bb3e 1559 42be

conv3.fc_self.bias f4 [30]
-0.18400392 -0.23352103 0.1002249 -0.2672937 -0.03981306 -0.02837976 -0.12792933 -0.057990424
0.060030404 -0.15297747 0.16564591 0.05421837 -0.11373943 -0.042586263 -0.19296739 -0.0030934245
0.02034997 -0.04503318 0.1131836 -0.2986242 -0.057471674 -0.13210292 0.117269576 -0.13141854
-0.060960922 -0.18010204 0.0056952117 -0.124633394 -0.0350197 0.14761598
00000000: 866b 3cbe 2320 6fbe b642 cd3d b8da 88be
00000010: 0513 23bd ac7c e8bc e8ff 02be 5e87 6dbd
00000020: 71e2 753d 20a6 1cbe 159f 293e 1514 5e3d
00000030: 38f0 e8bd ef6e 2ebd 3e99 45be 0dbb 4abb
00000040: fbb4 a63c b674 38bd cecc e73d 45e5 98be
00000050: 6b67 6bbd fd45 07be 082b f03d 9592 06be
00000060: 29b2 79bd ab6c 38be e69e ba3b cb3f ffbd
00000070: d170 0fbd a528 173e

conv4.fc_neigh.weight f4 [20, 30]
-0.12652841 0.62783474 0.31490287 0.23584802 -0.31060913 -0.33184758 0.3934778 0.22323714
-0.24091594 -0.37395602 -0.26801848 0.25009912 -0.56713367 0.47566673 -0.028423438 0.19621599
0.3075904 -0.09738575 -0.005525685 0.034433123 -0.3552882 -0.10234627 0.34308943 -0.116413474
0.13280457 -1.0634507 -0.5136462 0.83411014 0.40197816 0.52201295 -0.17265132 0.88421375
-0.06642567 0.4242067 -0.03860703 0.24751435 -0.3237548 -0.32834014 -0.5637009 0.48352072
-0.0033443326 -0.7727296 0.5545701 0.38986853 0.012736482 -0.05330303 -0.05626304 -0.1063621
0.17818779 -0.7809359 0.1432145 0.5709021 0.557503 0.4840437 -0.6532372 0.94124055
0.59489465 0.055793308 -0.29685265 -0.48596954 0.5107933 -0.2974045 -0.44439375 -0.22409399
0.21286774 -0.7610571 -0.51498663 -0.3932612 -0.17147516 -0.06394393 0.14630857 -0.34950444
0.33289236 -0.09244674 0.03491601 -0.022187326 0.35947046 0.4006906 0.4750469 -1.4049569
-0.45141816 0.25875127 -0.07227302 0.6798444 0.09346202 -1.3031944 -0.31158206 -0.74625295
0.12416503 0.6909101 -0.029469132 -0.529114 0.41481626 0.57366633 0.3837465 0.013613149
0.15300487 0.33601633 0.030531323 0.3726424 0.61147875 -0.40525776 0.5297197 -0.5195419
-0.06420742 0.42485207 0.31300682 0.51310897 0.36361685 -0.9361599 0.38232163 -0.14586414
-0.46807235 -0.33759165 -0.42133853 0.9774157 0.39273328 0.24639699 0.2898844 -0.37484607
0.0152032375 -0.49741858 0.44929716 -1.1502616 0.06753268 -0.31200954 -0.6517784 -0.2656175
-0.032814436 -0.4242136 -0.11993339 0.5611412 0.9543193 -0.40227798 -0.21675023 0.20183389
-0.5243279 0.13441989 0.122280896 -0.0017933523 0.52039385 -0.38492 -0.23051673 0.03261428
0.18266256 -0.037461832 -0.16920565 -0.57521266 -0.60385334 0.6454893 -0.05488632 0.33467016
-0.06476933 0.49851355 0.20193277 0.19103366 0.5674907 0.43209404 -0.07016841 -0.102284834
-0.09252311 0.13263409 -0.18295702 0.4378821 -0.3182259 -0.23043601 0.30846998 0.4522896
0.4034389 0.17115524 -1.1976638 -1.4423045 0.5786888 0.26332152 0.5686928 -0.622206
0.3977363 0.63344425 -0.43424818 0.43054706 -0.041868832 -0.12380262 -0.28387922 1.4119602
0.43233147 -0.71909463 0.2688638 -0.29448545 -0.027757129 -0.09328427 -0.34947357 0.308479
0.058585174 0.48627114 -0.121839054 -0.34154922 0.5376682 0.49366102 -0.30540818 -1.7413435
-0.8613694 -0.20639516 -0.6093765 0.5343551 -0.25281414 -0.20273826 0.9129743 -0.36792234
0.14014573 -0.3690757 -0.10943314 -1.1372074 0.20187105 0.42859775 0.15948895 -0.50531536
-0.13667096 0.30794218 0.30358267 0.30910805 0.43637776 -0.17997965 -0.36056727 -0.2447978
0.6880308 -0.054894462 -0.06991378 -0.53223014 0.5688594 -0.55355626 0.14913431 -0.20369408
0.23135136 0.05462775 0.9053753 -1.6771233 -0.4165168 -0.04549995 -0.54438186 0.30469146
0.29958847 -0.25014457 0.17388293 -0.48026037 -0.7710006 -0.074073516 -0.24345809 0.5533018
0.48270458 0.04503505 -0.71188337 -0.0060814973 -0.38791132 0.070961 0.067800656 -0.3135922
00000000: aa90 01be c7b9 203f f33a a13e 2582 713e
00000010: 2908 9fbe ede7 a9be ec75 c93e 4798 643e
00000020: abb2 76be 2a77 bfbe b839 89be fe0c 803e
00000030: ac2f 11bf 978a f33e 45d8 e8bc d8ec 483e
00000040: 7d7c 9d3e 2e72 c7bd ce10 b5bb bf09 0d3d
00000050: 56e8 b5be ec9a d1bd 6ba9 af3e 306a eebd
00000060: ecfd 073e 271f 88bf 517e 03bf 3e88 553f
00000070: 15d0 cd3e a4a2 053f 82cb 30be d55b 623f
00000080: 2f0a 88bd 9f31 d93e 6822 1ebd 6774 7d3e
00000090: 30c3 a5be 331c a8be b44e 10bf 0790 f73e
000000a0: 972c 5bbb 9bd1 45bf 4ef8 0d3f d99c c73e
000000b0: adac 503c 4754 5abd 1374 66bd 5fd4 d9bd
000000c0: dc76 363e 6aeb 47bf d2a6 123e a426 123f
000000d0: 84b8 0e3f 93d4 f73e 8e3a 27bf 24f5 703f
000000e0: 044b 183f 8687 643d 12fd 97be 00d1 f8be
000000f0: 5ac3 023f 6745 98be 9487 e3be e578 65be
00000100: 00fa 593e a3d4 42bf 2ad6 03bf 8859 c9be
00000110: 2f97 2fbe 09f5 82bd ead1 153e 3ff2 b2be
00000120: de70 aa3e b754 bdbd 1704 0f3d 32c2 b5bc
00000130: 830c b83e 5127 cd3e 5939 f33e a1d5 b3bf
00000140: 4820 e7be 0c7b 843e e103 94bd 480a 2e3f
00000150: 0469 bf3d 13cf a6bf af87 9fbe 6f0a 3fbf
00000160: 3c4a fe3d 7cdf 303f 4069 f1bc 0474 07bf
00000170: cc62 d43e ccdb 123f 6c7a c43e af09 5f3c
00000180: 4fad 1c3e 550a ac3e d31c fa3c fcca be3e
00000190: df89 1c3f f27d cfbe b69b 073f b300 05bf
000001a0: 2e7f 83bd 3686 d93e 6e42 a03e 1c5b 033f
000001b0: fd2b ba3e 2da8 6fbf a9bf c33e 695d 15be
000001c0: 2ea7 efbe d0d8 acbe afb9 d7be ea37 7a3f
000001d0: 5614 c93e 7e4f 7c3e ba6b 943e d3eb bfbe
000001e0: 0017 793c a6ad febe 470a e63e c63b 93bf
000001f0: 934e 8a3d b7bf 9fbe f3da 26bf 04ff 87be
00000200: 6e68 06bd 8632 d9be a39f f5bd f3a6 0f3f
00000210: 454e 743f 61f7 cdbe c6f3 5dbe 8bad 4e3e
00000220: 5a3a 06bf 5ea5 093e 686e fa3d eb0e ebba
00000230: 8838 053f 3c14 c5be 940c 6cbe 8d96 053d
00000240: e50b 3b3e 9471 19bd 3f44 2dbe 2341 13bf
00000250: 2296 1abf c93e 253f 7ad0 60bd e359 ab3e
00000260: c8a5 84bd 2b3d ff3e 77c7 4e3e 549e 433e
00000270: 1247 113f 6e3b dd3e 75b4 8fbd b67a d1bd
00000280: c27c bdbd 3bd1 073e 1659 3bbe 1532 e03e
00000290: 81ee a2be 6bf7 6bbe c7ef 9d3e 8192 e73e
000002a0: 8b8f ce3e 5243 2f3e 0c4d 99bf 6f9d b8bf
000002b0: f324 143f 14d2 863e da95 113f e448 1fbf
000002c0: 18a4 cb3e 6729 223f c755 debe aa70 dc3e
000002d0: a77e 2bbd 3a8c fdbd 9e58 91be 1dbb b43f
000002e0: 8d5a dd3e 9616 38bf 84a8 893e ccc6 96be
000002f0: eb62 e3bc d30b bfbd 33ee b2be f6f0 9d3e
00000300: 02f7 6f3d 88f8 f83e c186 f9bd 8adf aebe
00000310: a0a4 093f 23c1 fc3e 765e 9cbe 58e4 debf
00000320: b482 5cbf 4159 53be 1900 1cbf 7fcb 083f
00000330: db70 81be 9e9a 4fbe afb8 693f 5160 bcbe
00000340: 5d82 0f3e 7df7 bcbe 7b1e e0bd 0390 91bf
00000350: 49b7 4e3e 2a71 db3e 1251 233e 595c 01bf
00000360: 79f3 0bbe 99aa 9d3e 306f 9b3e 6943 9e3e
00000370: e86c df3e 964c 38be 469c b8be 46ac 7abe
00000380: c922 303f 04d9 60bd f52e 8fbd 3c40 08bf
00000390: c5a0 113f ddb5 0dbf aab6 183e 2e95 50be
000003a0: 5fe7 6c3e 59c1 5f3d adc6 673f faab d6bf
000003b0: b141 d5be 285e 3abd 9c5c 0bbf 8500 9c3e
000003c0: a963 993e f312 80be 5e0e 323e b0e4 f5be
000003d0: 4c60 45bf dbb3 97bd 144d 79be 30a5 0d3f
000003e0: 0e25 f73e ac76 383d fd3d 36bf 4c47 c7bb
000003f0: 509c c6be 0054 913d 12db 8a3d 288f a0be

conv4.fc_self.weight f4 [20, 30]
-0.6993331 1.1881299 0.39175135 0.5976062 0.15550798 0.012207183 0.16313885 0.46223268
0.47024685 0.45606026 -0.39332426 0.3361943 -0.22702242 0.6452082 0.03125327 0.29486078
-0.32428825 -0.36889404 -0.412825 0.25909424 -0.46281436 0.5257403 -0.043832246 0.2791335
-0.19743538 -1.2242727 0.3265356 0.6835099 0.09861607 -0.013839569 -0.15895404 1.79388
0.2730528 0.03173211 0.36840862 -0.08058145 0.2394407 0.21582647 -0.3619891 -0.070486896
0.06609846 -0.56737703 -0.12170116 0.052628826 0.4697409 -0.33072346 0.09624133 0.68367404
0.029920353 0.109429486 0.39438906 0.041362774 0.66127914 0.50415283 -0.6429538 -0.38503313
0.9526946 0.11832865 0.16634816 0.25470167 -0.8424543 -1.1628525 -0.030029682 -0.7476099
0.42060268 0.38004714 -0.21828195 0.33262342 -0.008804816 -0.122986056 0.089933544 -0.16430764
0.4191123 0.2835492 0.046918053 -0.5157806 0.2779031 0.20213403 0.113809496 -1.4286724
-0.04020034 -0.6978831 0.2512419 0.84698844 -1.2312009 -1.0554606 -0.21815465 0.24386962
0.3149334 -0.102057874 0.06268452 0.025739515 0.4201884 -0.20582268 0.42388955 -0.2949975
0.21381727 0.32487702 -0.5048695 0.29758766 0.37581533 0.28196737 -0.5589721 -0.27426934
0.5060324 0.014909368 -0.2926873 -0.055208348 0.43509763 -0.38754454 0.031869374 0.13243143
0.27735007 -0.0115642045 -0.6123217 0.74080247 -0.015433819 -1.0482004 -0.17039993 -0.5575225
-0.8387886 -0.5952476 0.28186992 0.35783604 0.11823271 0.51629066 -0.002217985 -0.1843716
-0.36049595 -0.07461876 0.16515343 -0.22557735 1.0297056 0.23119438 -0.21505131 -0.44733843
0.2359203 0.19446322 0.18660681 -0.95226616 0.019746944 0.07225535 0.12185615 0.45687345
-0.36244565 -0.13753791 0.08632337 0.50712824 -0.40246975 0.11727356 0.9034635 -0.17083044
-0.4226598 -0.7178846 -0.5031234 -0.6931683 -0.10981219 -0.3707766 -0.023870721 -0.053037994
-0.46257922 0.33458114 -0.5160707 -0.4958078 -0.0035974106 0.12529562 0.4955345 -0.06260679
0.20958178 0.12268991 -0.47532573 -0.1291692 0.7214507 -0.30271798 0.5690364 -0.9973747
0.43154824 0.119942375 0.2428133 0.36754847 0.003505271 -0.2792973 -0.3538422 -0.06002348
-0.35427552 -0.37580922 0.13914607 0.37066463 -0.1866819 -0.33239275 -0.29580852 0.36456004
0.637203 -0.4812006 -0.23268439 0.23401749 -0.124664776 0.14964455 -0.2223674 -1.0165018
-0.38926154 -0.24476005 0.39838463 0.10606129 -0.05444408 0.4541525 -0.109545104 -0.031827964
0.6497377 0.339244 0.44099262 -1.0967472 0.3100917 -0.65009254 0.14847112 -0.06446299
-0.5844888 0.22839677 0.24271451 0.22503635 -0.002333205 0.6747207 -0.85020065 -0.110164665
-0.020422904 -0.45909798 -0.24870762 0.44493166 0.8122612 0.15567124 -0.58142936 -0.33345932
0.9856103 -0.21370958 -1.0317453 -0.7238471 -0.04623255 0.34936568 0.1756132 0.5946931
0.023088383 -0.75365996 -0.015889753 -0.20478465 -1.4829357 0.001794736 -0.31378487 -0.36694896
0.34509405 -0.06852964 -0.14263272 -0.065348096 -0.45353973 -0.34311968 0.44814157 -0.39833176
00000000: 7e07 33bf a414 983f a293 c83e b8fc 183f
00000010: 7c3d 1f3e a300 483c df0d 273e c3a9 ec3e
00000020: 32c4 f03e bb80 e93e cc61 c9be a921 ac3e
00000030: 9178 68be 5d2c 253f 6e03 003d fef7 963e
00000040: 1c09 a6be aedf bcbe cc5d d3be 00a8 843e
00000050: 01f6 ecbe eb96 063f 7189 33bd 96ea 8e3e
00000060: 802c 4abe f8b4 9cbf ad2f a73e 81fa 2e3f
00000070: 39f7 c93d 5cbf 62bc d9c4 22be dc9d e53f
00000080: 94cd 8b3e 87f9 013d 0ea0 bc3e e307 a5bd
00000090: f12f 753e 9d01 5d3e a356 b9be 6f5b 90bd
000000a0: a15e 873d 9f3f 11bf 753e f9bd 5391 573d
000000b0: e181 f03e 9654 a9be 2d1a c53d 4305 2f3f
000000c0: 871b f53c 911c e03d 5ded c93e 036c 293d
000000d0: 9749 293f 2910 013f 9f98 24bf 1023 c5be
000000e0: cbe3 733f 4b56 f23d 2c57 2a3e 4268 823e
000000f0: 16ab 57bf 5ad8 94bf cf00 f6bc 5d63 3fbf
00000100: 3c59 d73e 8a95 c23e 4e85 5fbe 9e4d aa3e
00000110: 1342 10bc 1de0 fbbd 142f b83d 4340 28be
00000120: e395 d63e 5c2d 913e 252d 403d 330a 04bf
00000130: 5149 8e3e 39fc 4e3e f414 e93d bdde b6bf
00000140: 1da9 24bd 78a8 32bf c7a2 803e 3cd4 583f
00000150: fe97 9dbf 5519 87bf ef63 5fbe f5b8 793e
00000160: f33e a13e b803 d1bd be60 803d addb d23c
00000170: ef22 d73e 2ec3 52be 0d08 d93e ea09 97be
00000180: eaf2 5a3e 4856 a63e 213f 01bf 695d 983e
00000190: de6a c03e 075e 903e cc18 0fbf 086d 8cbe
000001a0: 578b 013f 6c46 743c 1cdb 95be 2622 62bd
000001b0: 1ec5 de3e 3d6c c6be 7689 023d 1b9c 073e
000001c0: d400 8e3e ca77 3dbc 1dc1 1cbf 3ba5 3d3f
000001d0: 21de 7cbc 6e2b 86bf 527d 2ebe cbb9 0ebf
000001e0: daba 56bf 2662 18bf 4151 903e 4936 b73e
000001f0: fe23 f23d a02b 043f 9d5b 11bb e9cb 3cbe
00000200: ed92 b8be b8d1 98bd fb1d 293e c0fd 66be
00000210: 65cd 833f 38be 6c3e 6936 5cbe 8b09 e5be
00000220: 1795 713e 5e21 473e db15 3f3e b7c7 73bf
00000230: 58c4 a13c 9dfa 933d b88f f93d 51eb e93e
00000240: 7a92 b9be bdd6 0cbe 4fca b03d 28d3 013f
00000250: 8410 cebe 1f2d f03d 6249 673f 2dee 2ebe
00000260: de66 d8be 49c7 37bf b2cc 00bf 7a73 31bf
00000270: 37e5 e0bd 6ed6 bdbe 888c c3bc 5e3e 59bd
00000280: 2fd7 ecbe 384e ab3e 361d 04bf 85da fdbe
00000290: 89c2 6bbb 7f4d 003e b3b6 fd3e fd37 80bd
000002a0: 9b9c 563e d944 fb3d e55d f3be ee44 04be
000002b0: feb0 383f dafd 9abe 5fac 113f f353 7fbf
000002c0: e4f3 dc3e 59a4 f53d 0da4 783e 502f bc3e
000002d0: b0b8 653b 0e00 8fbe ce2a b5be 2edb 75bd
000002e0: 9a63 b5be 116a c0be 4f7c 0e3e c1c7 bd3e
000002f0: 8a29 3fbe 622f aabe 3774 97be 9da7 ba3e
00000300: bc1f 233f ed5f f6be d144 6ebe 48a2 6f3e
00000310: 3f50 ffbd 6c3c 193e 48b4 63be bb1c 82bf
00000320: 4a4d c7be 61a2 7abe 12f9 cb3e a936 d93d
00000330: c100 5fbd ad86 e83e 2f59 e0bd 0a5e 02bd
00000340: 3655 263f 64b1 ad3e c9c9 e13e 3662 8cbf
00000350: 57c4 9e3e 776c 26bf d008 183e 2c05 84bd
00000360: 0fa1 15bf d8e0 693e 278a 783e ee6f 663e
00000370: afe8 18bb 7fba 2c3f c0a6 59bf 039e e1bd
00000380: ef4d a7bc e40e ebbe 36ad 7ebe 15ce e33e
00000390: 5af0 4f3f 4868 1f3e 8ed8 14bf 2ebb aabe
000003a0: f550 7c3f afd6 5abe 3b10 84bf 0b4e 39bf
000003b0: 585e 3dbd 0fe0 b23e f2d3 333e cf3d 183f
000003c0: d923 bd3c dcef 40bf 3a2b 82bc 11b3 51be
000003d0: d6d0 bdbf 593d eb3a 69a8 a0be bce0 bbbe
000003e0: 2bb0 b03e 4559 8cbd 500e 12be 39d5 85bd
000003f0: 5c36 e8be 62ad afbe d072 e53e 24f2 cbbe

conv4.fc_self.bias f4 [20]
-0.12797982 -0.18900217 0.21406169 0.21661812 -0.14762932 0.027408518 -0.0054164473 0.31980798
0.046719622 -0.12991257 -0.25779587 -0.111251816 0.16412567 0.12780663 0.23717825 0.038963627
0.104803555 0.118813634 -0.1289568 0.021992086
00000000: 240d 03be c989 41be fd32 5b3e 24d1 5d3e
00000010: 242c 17be d487 e03c 747c b1bb dfbd a33e
00000020: 135d 3f3d cd07 05be d2fd 83be fed7 e3bd
00000030: 8f10 283e bedf 023e dbde 723e 5398 1f3d
00000040: 3fa3 d63d 9054 f33d 400d 04be bf28 b43c
