VVG/Experiment_3 - Aggregation/Images7/model7_std.pth (torch, 34018 bytes, 18 tensors)

conv1.fc_neigh.weight f4 [50, 8]
0	0xbd8d8f08	-0.06912047
1	0x3de41ee5	0.11138705
2	0x3ef9d87c	0.48797977
3	0xbf00b5c6	-0.50277364
4	0x3e97b6a1	0.29631522
5	0xbe6252cb	-0.22101896
6	0x3deb8fa9	0.115020104
7	0x3f07b91b	0.53016824
8	0xbea810a7	-0.32825205
9	0xbf817057	-1.0112408
10	0x3e33290d	0.17496128
11	0xbebff93a	-0.37494832
12	0x3d6ae695	0.057348806
13	0xbfba50f0	-1.455595
14	0x3f2e2811	0.68029886
15	0x3ef0e579	0.47050074
16	0xbe3ed1a2	-0.18634656
17	0xbe3d3a92	-0.18479374
18	0x3c9465e2	0.018114988
19	0x3ef64924	0.48102677
20	0x3ec15471	0.37759736
21	0xbf02e937	-0.5113711
22	0xbdb45528	-0.08805305
23	0x3f1afb8c	0.6054008
24	0xbe4102e7	-0.18848763
25	0xbd9f632b	-0.07782587
26	0x3e31f67a	0.1737918
27	0x3e3555ba	0.17708483
28	0x3dfbd473	0.12296381
29	0x3e0817a5	0.1329027
30	0xbeaa5334	-0.33266604
31	0xbe949a5b	-0.29024014
32	0xbed1b690	-0.40959597
33	0xbeaeabc2	-0.34115416
34	0xbe8f8ab4	-0.2803551
35	0xbec42fe9	-0.38317803
36	0xbef296fe	-0.47380823
37	0xbcbfc5ab	-0.023409685
38	0x3f065a3a	0.52481425
39	0xbf051ad2	-0.5199405
40	0xbcc2abed	-0.023763621
41	0x3e4c95be	0.19978997
42	0xbeccb9ca	-0.39985496
43	0xbe72f1bf	-0.23725031
44	0xbe4c52f6	-0.19953522
45	0x3ddf0927	0.108904175
46	0xbe8d490e	-0.275948
47	0x3e8d414e	0.27588886
48	0xbd8655ac	-0.06559309
49	0x3eae5ae3	0.34053716
50	0xbe4afec5	-0.1982375
51	0x3e346a65	0.17618711
52	0xbd1abcac	-0.037777588
53	0xbf02044e	-0.5078782
54	0x3d88f88f	0.06688034
55	0x3ef3a2ab	0.47585043
56	0xbdf42f6f	-0.1192311
57	0xbda2b287	-0.07944208
58	0xbf1c66f3	-0.6109459
59	0xbe9542a4	-0.29152405
60	0x3ed7da9e	0.4215898
61	0x3cb6718c	0.02227094
62	0x3e85a3c6	0.26101512
63	0x3bba3dbc	0.005683629
64	0x3f156ecd	0.58372194
65	0x3f256225	0.6460288
66	0x3e478c85	0.19487198
67	0xbef334d8	-0.47501254
68	0xbe1f8039	-0.15576257
69	0x3e35233f	0.17689227
70	0xbfaa7c3c	-1.3319163
71	0xbb3a204c	-0.0028400598
72	0x3e3cd405	0.18440254
73	0xbea138a8	-0.31488538
74	0xbc66ccba	-0.014086897
75	0x3e452d37	0.1925553
76	0x3e24ead2	0.16105202
77	0x3e77484c	0.24148673
78	0x3ed50600	0.4160614
79	0xbe90c370	-0.28274107
80	0xbe5934d5	-0.2121156
81	0xbe1a63fc	-0.15077204
82	0x3d52ca7a	0.051462628
83	0xbe627fda	-0.22119084
84	0x3e16412c	0.14673299
85	0xbe7a25d0	-0.24428487
86	0x3e4d7297	0.20063244
87	0x3f0c8e08	0.5490422
88	0x3e80cdfe	0.2515716
89	0x3f326e31	0.6969939
90	0x3e2d47da	0.1692194
91	0xbdf14a88	-0.11781794
92	0x3d46072f	0.048346695
93	0x3f29390c	0.6610267
94	0x3f242443	0.6411783
95	0xbf23adba	-0.6393696
96	0xbea9e82d	-0.3318495
97	0x3de1b641	0.1102109
98	0xbe3ba74a	-0.18325534
99	0xbe3d09ba	-0.18460742
100	0xbe97431f	-0.29543397
101	0x3ee762d1	0.45192578
102	0xbdbdf857	-0.09275883
103	0xbe52391f	-0.20529602
104	0xbe6e4f1b	-0.23272364
105	0x3df1c186	0.1180449
106	0x3e6a5a61	0.2288604
107	0xbde67cee	-0.11254297
108	0x3d0b28d4	0.033974484
109	0xbcea7765	-0.028621385
110	0x3f5a9d6b	0.8539645
111	0xbe8bee39	-0.27330187
112	0xbed3ca7a	-0.41365415
113	0x3de122c1	0.10992957
114	0xbe35ace9	-0.17741741
115	0xbecd79aa	-0.40131885
116	0x3e07e11d	0.13269468
117	0x3f1d411d	0.6142748
118	0xbf65a6d4	-0.89707685
119	0x3dd4fa4f	0.10399305
120	0xbe203ea0	-0.1564889
121	0x3c4fa8b8	0.012674503
122	0x3dbd7410	0.09250653
123	0x3eb55b08	0.35421014
124	0xbea62284	-0.32448208
125	0xbe33060e	-0.17482778
126	0xbc14e320	-0.009087354
127	0x3e21d0d2	0.15802315
128	0xbee33168	-0.4437363
129	0x3e0a4da5	0.13506182
130	0x3e5a63c8	0.21327126
131	0x3e804fbf	0.2506084
132	0xbdf96248	-0.12176949
133	0xbe8720c3	-0.26392183
134	0xbe947888	-0.28998208
135	0xbec62049	-0.38696507
136	0x3e0909e3	0.13382678
137	0xbe10d253	-0.14142732
138	0x3b277b0f	0.0025555526
139	0xbe2917c8	-0.16512978
140	0x3f2dbd94	0.678674
141	0xbea3c26a	-0.31984264
142	0xbe352e28	-0.17693388
143	0x3b925326	0.0044654785
144	0xbec280e5	-0.37988964
145	0x3d2fd4f8	0.042927712
146	0x3e9f1138	0.31067824
147	0xbebe760c	-0.37199438
148	0x3e41b7ea	0.18917814
149	0x3ee5ce50	0.44883966
150	0x3df56c64	0.119835645
151	0x3d91ca0c	0.071186155
152	0x3d3fea38	0.046854228
153	0xbcc7b159	-0.024376558
154	0xbf3ffc15	-0.7499402
155	0x3d950a34	0.07277337
156	0x3eb22101	0.34790805
157	0xbe653b8e	-0.22386
158	0x3e792312	0.24329785
159	0xbf0fef45	-0.5622447
160	0xbee5e2f2	-0.44899708
161	0xbdb73a2e	-0.08946644
162	0xbe7d51cf	-0.24738239
163	0x3e7c8be7	0.24662744
164	0xbcba9b35	-0.022779087
165	0xbc3561cf	-0.011070683
166	0xbebda839	-0.37042406
167	0xbebc6799	-0.3679779
168	0x3dbcbb80	0.0921545
169	0xbf149fcc	-0.5805633
170	0xbe688291	-0.22706057
171	0x3e373f99	0.17895354
172	0x3e4f4440	0.20240879
173	0xbeebec71	-0.46078828
174	0xbe9c4c76	-0.30527085
175	0x3e6135ab	0.21993129
176	0x3e9e4292	0.30910164
177	0x3eef3074	0.46716654
178	0xbebf36db	-0.3734654
179	0x3e081a0a	0.13291183
180	0x3e5a1e4f	0.21300624
181	0x3f09416d	0.53615457
182	0x3f84a56c	1.0362983
183	0x3d4be7b2	0.04978151
184	0x3def35b2	0.116801634
185	0x3e842405	0.2580873
186	0xbe04b778	-0.12960613
187	0x3e416c68	0.1888901
188	0xbe7b79e0	-0.2455821
189	0x3eded0ae	0.43518585
190	0xbeb903ca	-0.36135703
191	0xbdb8742b	-0.09006532
192	0x3d2d994b	0.04238252
193	0xbe979b3c	-0.29610622
194	0xbe9d39ca	-0.30708152
195	0xbea6341d	-0.32461634
196	0xbf19e94c	-0.6012161
197	0x3e2d5175	0.16925605
198	0x3e4fc90a	0.20291534
199	0x3d780970	0.060555875
200	0xbda15282	-0.07877065
201	0xbe97e1af	-0.2966437
202	0x3d4e7941	0.050408605
203	0xbd2210f8	-0.039566964
204	0x3d3fd548	0.04683426
205	0xbed9c969	-0.42536476
206	0x3ebfc602	0.37455755
207	0xbeb5418b	-0.35401568
208	0x3e8a5e48	0.27025056
209	0x3e454728	0.19265425
210	0x3d501a1a	0.050806142
211	0x3e95444f	0.29153678
212	0x3ed162c7	0.40895674
213	0xbf1c0776	-0.60948884
214	0xbf00254f	-0.5005693
215	0xbca06c39	-0.019582855
216	0x3d586439	0.052829955
217	0x3e408d77	0.18803965
218	0xbe8a8440	-0.27054024
219	0xbe6cae16	-0.23113284
220	0xbe39c201	-0.18140413
221	0x3b028a12	0.0019918722
222	0x3ea0fd8c	0.3144344
223	0x3f132faa	0.57494605
224	0x3ef26a80	0.47346878
225	0xbea86633	-0.32890472
226	0x3e8c4959	0.2739971
227	0xbeda2a24	-0.42610276
228	0x3e3c3b06	0.1838189
229	0xbe178298	-0.14795911
230	0x3eaf1c3d	0.34201232
231	0x3b943d1c	0.0045238864
232	0x3f21d10b	0.632096
233	0xbf0a7e15	-0.54098636
234	0x3e786e6d	0.24260874
235	0xbe2d4a84	-0.16922957
236	0x3d6cdd97	0.057828512
237	0x3dcd2750	0.10017264
238	0x3ece9e22	0.4035502
239	0xbe7a7dcd	-0.24462052
240	0x3f079e11	0.52975565
241	0xbe727753	-0.23678331
242	0xbe61c308	-0.22047055
243	0x3e524f43	0.20538048
244	0xbdafac0b	-0.085777365
245	0x3f1e0768	0.6173005
246	0x3cb94e0e	0.022620227
247	0x3ea05f8c	0.31322896
248	0xbe6ccc39	-0.2312478
249	0xbb837ea3	-0.004012899
250	0xbe0a5ebe	-0.13512704
251	0xbeb28b8e	-0.34872097
252	0x3ce0a0b2	0.027420375
253	0x3f01204b	0.504399
254	0x3c04a8ff	0.008096932
255	0xbeaf98b4	-0.3429619

conv1.fc_self.weight f4 [50, 8]
0	0xbe09a2af	-0.13440965
1	0xbe8ef6d9	-0.27922705
2	0xbe3555ef	-0.17708562
3	0xbe223fae	-0.15844604
4	0x3eb36bc5	0.3504316
5	0x3e954fa4	0.29162323
6	0xbec46933	-0.3836151
7	0x3ea0c47f	0.31399915
8	0xbef1c5c1	-0.47221187
9	0xbf14ad3e	-0.58076847
10	0x3df917f8	0.12162775
11	0x3f0f4bbd	0.5597494
12	0x3da00437	0.07813304
13	0xbf43f69a	-0.7654816
14	0x3ef8c33c	0.48586452
15	0x3edc9d30	0.43088675
16	0x3e84efab	0.25964102
17	0x3df4c37a	0.11951347
18	0xbe798046	-0.24365339
19	0xbec866f8	-0.3914106
20	0xbedc8b5d	-0.43075076
21	0xbd33ab55	-0.043864567
22	0x3e155626	0.14583644
23	0x3d07c275	0.033144433
24	0xbeb17ec9	-0.34667042
25	0xbd8d43fa	-0.06897731
26	0xbe1c7f8e	-0.15283033
27	0xbd1f27de	-0.03885638
28	0xbe9c5bd7	-0.30538818
29	0x3ecf03b6	0.4043252
30	0xbe67395e	-0.22580478
31	0x3ec7b97d	0.39008704
32	0x3d921fa1	0.07134939
33	0xbea93fec	-0.3305658
34	0x3ec28330	0.37990713
35	0xbda3f689	-0.08006007
36	0x3f05525b	0.5207879
37	0x3d9ceccb	0.07662352
38	0x3efc7b2d	0.49312726
39	0x3ea263be	0.31716722
40	0xbee25df2	-0.442123
41	0xbdea9dc7	-0.11455875
42	0x3ed6e67b	0.41972718
43	0x3dcbe4a5	0.0995572
44	0xbce8daf5	-0.02842472
45	0x3ec95e32	0.39329678
46	0x3e3c1a04	0.18369299
47	0xbe81b74e	-0.25335163
48	0xbe60781a	-0.21920815
49	0xbe0e9396	-0.13923487
50	0x3e1c1d62	0.15245584
51	0x3e825e1e	0.2546243
52	0xbeaf4fee	-0.3424067
53	0x3e9a309d	0.30115214
54	0xbe04f9cc	-0.12985915
55	0xbec0ec9b	-0.37680516
56	0xbe3568e7	-0.17715798
57	0x3f1e2cb8	0.61786985
58	0xbe07804a	-0.13232532
59	0xbec3327c	-0.38124454
60	0x3f07e581	0.5308457
61	0x3baf4a1d	0.005349411
62	0x3e4c2490	0.19935822
63	0x3d8a0725	0.06739644
64	0x3d7570f8	0.05992219
65	0xbf63fe75	-0.89060146
66	0x3ee2fed0	0.44335032
67	0xbeb403df	-0.35159203
68	0x3ee31264	0.44349968
69	0xbf696fcc	-0.91186213
70	0x3ecdd092	0.4019819
71	0x3e9b146c	0.30289018
72	0x3e6f393a	0.23361674
73	0xbdf9864a	-0.12183817
74	0xbe736f77	-0.23772989
75	0x3e93db42	0.28878218
76	0x3e14f637	0.14547049
77	0xbeb28b48	-0.34871888
78	0xbf1cadbf	-0.61202615
79	0xbdc2a9d4	-0.095050484
80	0xbe123a4c	-0.14280051
81	0xbeb3c0e0	-0.3510809
82	0xbe3e5744	-0.18587977
83	0x3e9ef1db	0.31043896
84	0xbe85166e	-0.25993675
85	0x3e827a05	0.2548372
86	0xbe163b63	-0.14671092
87	0xbefbb5d7	-0.4916217
88	0x3e4f4d25	0.20244272
89	0xbed6fa08	-0.41987634
90	0xbf267557	-0.65022796
91	0xbe7197d6	-0.23593077
92	0x3e667d59	0.22508754
93	0xbf2cdb05	-0.675217
94	0xbdb84186	-0.089968726
95	0xbde855ad	-0.11344466
96	0x3e1db8a4	0.15402466
97	0x3e223e19	0.15844001
98	0x3e306992	0.17227772
99	0xbea32014	-0.3186041
100	0xbea756de	-0.32683462
101	0x3e88bf02	0.26708227
102	0xbe812a8a	-0.25227767
103	0xbebdfb9c	-0.37106025
104	0x3e127b63	0.14304881
105	0x3dda47ea	0.10658248
106	0xbe8aa907	-0.27082083
107	0x3ef3247a	0.47488767
108	0xbeb46f31	-0.35241082
109	0xbea79550	-0.32731104
110	0xbd0df958	-0.03466162
111	0x3d892df4	0.06698218
112	0x3e2e56ae	0.17025253
113	0x3c1da4a3	0.009621772
114	0xbf46408b	-0.77442235
115	0xbe5b6f84	-0.21429259
116	0x3ee1ac5e	0.44076818
117	0x3f44c227	0.7685875
118	0xbf220b9d	-0.6329897
119	0xbf135016	-0.57544076
120	0x3e69dd63	0.22838359
121	0x3ea89994	0.3292967
122	0xbe716067	-0.23571931
123	0xbe35af2e	-0.17742607
124	0xbe8bc61e	-0.2729959
125	0xbe813545	-0.25235954
126	0xbe757a05	-0.23972328
127	0xbea233da	-0.31680185
128	0x3c38c245	0.011276786
129	0x3ec1553a	0.37760335
130	0x3d502de1	0.050825004
131	0xbee8753a	-0.45401937
132	0x3e936a7d	0.28792182
133	0x3e29c1bd	0.16577812
134	0x3df45ce8	0.11931783
135	0xbe11c530	-0.14235377
136	0xbe7a3a46	-0.24436292
137	0x3e364ccf	0.17802738
138	0x3e2c195a	0.16806546
139	0xbed066a2	-0.40703303
140	0xbcfce476	-0.030870657
141	0x3e3ff733	0.18746643
142	0xbd24834b	-0.040164273
143	0xbeca35d9	-0.39494208
144	0x3e26beaf	0.16283678
145	0xbecbaae7	-0.39778826
146	0xbf4c2093	-0.79737204
147	0x3e61cbdb	0.22050421
148	0x3e9956e8	0.29949117
149	0xbc17963b	-0.009252126
150	0xbf62d5fe	-0.88607776
151	0xbe083f35	-0.13305362
152	0xbdd0bac6	-0.10191874
153	0xbfc8e4da	-1.569484
154	0xc00363c5	-2.0529644
155	0x3e8b0a40	0.27156258
156	0xbede6dcd	-0.43443146
157	0xbfb99a6c	-1.4500251
158	0x3e657785	0.22408874
159	0xc00f59c8	-2.2398548
160	0x3ccadb1f	0.024762688
161	0xbdb284b8	-0.0871672
162	0xbe25cd36	-0.16191563
163	0xbe824ef5	-0.25450864
164	0x3ddcfa6d	0.107899524
165	0x3d6ed8a0	0.05831206
166	0x3c39aa79	0.011332148
167	0xbecb40ee	-0.39697975
168	0xbed409d8	-0.4141376
169	0xbee8666a	-0.45390636
170	0x3f553992	0.8329097
171	0x3e36d109	0.17853178
172	0x3e40b74b	0.1881992
173	0x3ea8d660	0.32976055
174	0x3f15b048	0.5847211
175	0x3f2bb42b	0.6707179
176	0x3cbbf7f1	0.022945376
177	0x3e5bde75	0.2147158
178	0xbedca338	-0.43093276
179	0x3e5a9fad	0.21349974
180	0x3e998aef	0.2998881
181	0xbf1335d7	-0.5750403
182	0xbe97c901	-0.2964554
183	0xbc9feb98	-0.01952152
184	0x3ed9f729	0.4257138
185	0xbea69cdf	-0.32541558
186	0x3de07ee6	0.10961704
187	0xbf0121a8	-0.5044198
188	0x3c89d064	0.016823001
189	0x3ed97ae3	0.42476568
190	0xbf55e39b	-0.83550423
191	0x3eb46db0	0.35239935
192	0xbe92c9fb	-0.28669724
193	0x3e816ec9	0.25279835
194	0x3ec7e529	0.39042023
195	0x3ea8399f	0.3285646
196	0xbe00edb8	-0.12590683
197	0x3ec932eb	0.3929666
198	0xbe4bebd2	-0.19914177
199	0x3f1a2b02	0.60221875
200	0xbebad1d0	-0.364882
201	0x3ea3aa2c	0.31965768
202	0x3e2a50fa	0.16632453
203	0xbebedfb3	-0.37280044
204	0x3e944528	0.28959012
205	0x3e7918a7	0.2432581
206	0xbe88687d	-0.26642218
207	0xbedebd70	-0.43503904
208	0x3e0cf162	0.13763955
209	0xbebe6556	-0.37186688
210	0xbdf06eea	-0.11739905
211	0xbf058fef	-0.5217275
212	0x3ebaa4a0	0.36453724
213	0xbe1f26fb	-0.15542214
214	0x3eb187bd	0.34673873
215	0x3dbe6d38	0.092981756
216	0x3ec435ed	0.38322392
217	0xbf0f35d3	-0.55941504
218	0xbd9a4ea8	-0.07534534
219	0x3eaa818b	0.33301958
220	0xbef68481	-0.48147967
221	0xbf632650	-0.88730335
222	0xbf01850b	-0.5059363
223	0xbeedf825	-0.46478382
224	0x3dc0cadb	0.094136916
225	0x3d6132de	0.05498015
226	0x3ea0999b	0.31367192
227	0xbf2fa9f5	-0.6861871
228	0xbecf0771	-0.40435365
229	0x3ef48f5c	0.47765625
230	0x3f1d05cf	0.6133699
231	0xbec73554	-0.38907874
232	0x3e985063	0.2974883
233	0xbf193f32	-0.59862053
234	0xbc51b22d	-0.012798828
235	0xbeef0050	-0.46679926
236	0xbe919e99	-0.28441313
237	0xbf02caa7	-0.5109047
238	0x3ed06a7e	0.40706247
239	0x3df2a234	0.11847344
240	0x3b9ba4fa	0.0047498913
241	0xbcc11226	-0.023568224
242	0xbebbfba6	-0.3671543
243	0xbeae074d	-0.33989945
244	0x3ecfcb72	0.40584904
245	0x3dc622cd	0.096746065
246	0xbf3adf37	-0.7299685
247	0xbec8cde7	-0.3921959
248	0x3ebc0ac3	0.3672696
249	0x3d441641	0.047872785
250	0x3e92db70	0.28683043
251	0xbdcaf513	-0.099100254
252	0x3daacc40	0.08339739
253	0x3efdc15b	0.4956158
254	0x3f2a7ddc	0.66598296
255	0xbe137053	-0.14398317

conv1.fc_self.bias f4 [50]
0	0x3d59a4b2	0.05313558
1	0xbe7cefc2	-0.24700835
2	0xbdc84d8e	-0.097804174
3	0xbe784b33	-0.24247436
4	0xbd8e8e7f	-0.06960773
5	0xbc9f6a94	-0.01946
6	0x3e8f6601	0.2800751
7	0x3e297911	0.1655009
8	0xbdf329bb	-0.11873194
9	0xbf0207fb	-0.5079343
10	0x3e845428	0.25845456
11	0x3e4aa7e8	0.19790614
12	0xbdb0f20e	-0.08639918
13	0xbea25ee9	-0.31713036
14	0x3e81dc8b	0.25363573
15	0xbeb33ddf	-0.3500814
16	0xbe8a70d9	-0.2703922
17	0x3d575a85	0.05257656
18	0x3d7a9e66	0.061186217
19	0xbdc2873e	-0.09498452
20	0xbdfad4fc	-0.12247655
21	0xbdd7e72a	-0.10542138
22	0xbed0c2d3	-0.4077364
23	0x3e29465d	0.16530748
24	0xbe1f36be	-0.15548226
25	0xbeaec014	-0.3413092
26	0xbdc238d9	-0.09483499
27	0x3e857e0c	0.2607273
28	0x3de73b22	0.112905756
29	0xbe204843	-0.15652566
30	0xbe9ddc1f	-0.30832002
31	0x3e68793a	0.22702494
32	0x3ed4d1fe	0.4156646
33	0x3e83b8ee	0.25727028
34	0xbc72aa8a	-0.0148111675
35	0xbeb0f973	-0.34565315
36	0xbe8fb42d	-0.2806715
37	0x3e8cb0b3	0.2747856
38	0x3e2b8945	0.16751583
39	0xbd917b60	-0.0710361
40	0x3e470c02	0.19438174
41	0xbee11add	-0.43965808
42	0xbe42d19f	-0.19025277
43	0xbe3e074f	-0.18557476
44	0xbe0a8de0	-0.13530684
45	0x3c301188	0.010746367
46	0x3e9edb6d	0.31026784
47	0x3cff22bc	0.031144492
48	0xbda4ae21	-0.08041025
49	0xbe290742	-0.16506675

conv2.weight f4 [50, 40]
0	0x3ea686e1	0.3252478
1	0x3e2aa17e	0.16663167
2	0xbd794aaa	-0.06086222
3	0xbe037aa6	-0.12839755
4	0xbda96d8b	-0.08272847
5	0xbe40dda7	-0.18834554
6	0xbef2cc02	-0.4742127
7	0x3ddfebd6	0.10933654
8	0xbebcd17e	-0.3687858
9	0x3edbd573	0.42936286
10	0xbc27a6e6	-0.010232663
11	0xbe34ec13	-0.1766818
12	0x3f32eac1	0.69889456
13	0xbf0376ae	-0.51352966
14	0x3e0f7f6d	0.14013453
15	0x3af48837	0.0018656318
16	0xbe687c0a	-0.22703567
17	0xbeeb1a2d	-0.45918408
18	0x3ef1094d	0.47077408
19	0xbd93dfab	-0.07220396
20	0xbe65dd17	-0.2244762
21	0xbe311091	-0.17291476
22	0x3d2d8b7b	0.042369347
23	0xbefb382f	-0.49066302
24	0xbe44103a	-0.19146815
25	0x3c1923fc	0.009346958
26	0x3e87a1e7	0.2649071
27	0xbeeaf533	-0.45890197
28	0x3edf98e5	0.43671337
29	0xbd9fbdb6	-0.07799856
30	0x3f044cd0	0.51679707
31	0xbe963dab	-0.29343924
32	0x3cde134d	0.027108813
33	0x3df74a9d	0.12074778
34	0xbeb13e78	-0.34617972
35	0x3dba3150	0.09091437
36	0x3d1de7a9	0.038551006
37	0xbe9390c5	-0.28821388
38	0xbd0139ed	-0.031549383
39	0xbdb6ef38	-0.08932346
40	0x3e69bfc2	0.22827056
41	0xbf2422f8	-0.6411586
42	0xbe56789e	-0.2094445
43	0xbde788a3	-0.11305358
44	0xbe9b87d0	-0.30377054
45	0xbd9217f9	-0.07133479
46	0x3cdfed54	0.027334847
47	0x3f0f083a	0.5587193
48	0x3ee968fa	0.45587903
49	0x3f69f075	0.91382533
50	0xbedbeabc	-0.42952526
51	0xbd8d2985	-0.06892685
52	0x3d9938e2	0.07481553
53	0x3ebc1884	0.36737454
54	0x3d06b5c9	0.032888208
55	0xbcc5c81e	-0.024143275
56	0x3f2ddfa8	0.679194
57	0xbf81285d	-1.0090443
58	0xbebeb478	-0.37247062
59	0x3e09f84d	0.13473625
60	0xba808aef	-0.000980703
61	0xbf16694a	-0.5875441
62	0x3f0b0069	0.542975
63	0xbe2557e4	-0.16146809
64	0xbed99a60	-0.4250059
65	0x3c9c51e5	0.01908202
66	0x3e99a33f	0.3000736
67	0x3e014b86	0.12626466
68	0x3f236203	0.6382143
69	0x3c4f1842	0.012640061
70	0x3e9271c9	0.28602436
71	0x3e06eeee	0.13177082
72	0xbd2c99b0	-0.042138755
73	0x3e0253c9	0.12727274
74	0x3e0194d7	0.12654434
75	0xbe9007e7	-0.2813103
76	0x3ed0a7f9	0.40753153
77	0xbda21703	-0.079145454
78	0x3e9f2a5c	0.31087005
79	0xbe1af311	-0.15131785
80	0xbdfd829b	-0.12378427
81	0x3e178ea6	0.1480051
82	0xbce14561	-0.027498903
83	0x3de81fd1	0.113341935
84	0x3e775560	0.24153662
85	0x3f2a0f06	0.66429174
86	0x3d7f46d4	0.062323406
87	0xbf98742b	-1.1910452
88	0xbe470c2b	-0.19438235
89	0xbeb9c204	-0.36280835
90	0xbf1d5020	-0.61450386
91	0x3eddf646	0.43351954
92	0x3eea0281	0.45705035
93	0xbd7ababf	-0.06121325
94	0x3dbd59cc	0.09245643
95	0x3d24d934	0.040246204
96	0xbd281f64	-0.04104556
97	0xbdf13212	-0.11777128
98	0x3f8dd66f	1.1081065
99	0xbe6d569f	-0.23177575
100	0x3d9966e4	0.07490328
101	0x3f141987	0.5785145
102	0x3f01ccc0	0.5070305
103	0xbe393c42	-0.18089393
104	0x3f2ebfdf	0.6826152
105	0xbe101585	-0.14070709
106	0x3f3e9092	0.74439347
107	0x3fc65dc2	1.5497363
108	0xbf546a90	-0.829751
109	0x3ec8a42b	0.3918775
110	0xbe5932fb	-0.21210854
111	0xbcd898e3	-0.02644009
112	0x3eb96b62	0.3621474
113	0xbe424cf5	-0.1897467
114	0x3e8b471b	0.27202687
115	0xbe7633ee	-0.24043247
116	0x3dc8d768	0.098067105
117	0x3e2dbd59	0.16966762
118	0xbe711ab5	-0.23545344
119	0xbe9ce3d8	-0.3064258
120	0xbe000ca8	-0.12504828
121	0xbb94fa0b	-0.004546409
122	0xbe419f24	-0.18908364
123	0xbe3d118d	-0.18463726
124	0x3de52113	0.11187949
125	0x3dd740b6	0.105103895
126	0xbd712694	-0.05887468
127	0x3e69372f	0.22774957
128	0xbe75c0f7	-0.23999391
129	0xbd9ff9f9	-0.078113504
130	0xbe2f8698	-0.17141187
131	0x3da7c9be	0.08192776
132	0x3e5f2681	0.21792032
133	0xbd7db6bd	-0.06194185
134	0xbc609f16	-0.013709804
135	0xbd261e3a	-0.04055617
136	0xbe818e6d	-0.25303975
137	0xbe311c04	-0.17295843
138	0xbe76bdbe	-0.24095818
139	0x3e06a591	0.13149096
140	0x3dbd41fd	0.09241102
141	0x3d1f18cf	0.03884202
142	0x3e0b5a95	0.13608773
143	0x3e602bba	0.2189168
144	0xbe4ba9f3	-0.19889049
145	0x3e834a4b	0.2564262
146	0x3d87af10	0.066251874
147	0x3e5ccade	0.21561763
148	0x3e2967ed	0.16543551
149	0x3ce3a11a	0.02778678
150	0xbe5a51de	-0.21320292
151	0x3c94a318	0.018144175
152	0xbe56ebf5	-0.20988448
153	0x3dddf81b	0.10838338
154	0x3df6d4eb	0.1205233
155	0xbd161d84	-0.036649242
156	0x3e4714af	0.19441484
157	0x3e080705	0.13283928
158	0x3e56e008	0.20983899
159	0x3df5b99c	0.11998293
160	0x3f2668b6	0.65003526
161	0x3e026f50	0.12737775
162	0xbe395a4d	-0.18100853
163	0xbe72fc56	-0.23729071
164	0x3ec02770	0.37530088
165	0xbeb1e70b	-0.34746584
166	0x3f34ecd6	0.7067388
167	0x3dca7071	0.09884728
168	0xbe817b8a	-0.25289565
169	0x3eb28e6b	0.3487428
170	0x3d58042c	0.052738354
171	0x3e9897fd	0.29803458
172	0xbdb288f1	-0.08717526
173	0x3ea61ba9	0.32442978
174	0xbdaa3a3e	-0.0831189
175	0x3d95894c	0.07301578
176	0x3d923ae7	0.07140141
177	0xbf312573	-0.6919777
178	0x3e83c519	0.2573631
179	0xbe2c5836	-0.16830525
180	0x3e38e9b7	0.18057905
181	0x3f00cfa1	0.50316817
182	0x3f0ff159	0.5622764
183	0xbd86a1be	-0.065738186
184	0xbea2fead	-0.31834927
185	0xbe203c88	-0.15648091
186	0x3d9bdf7c	0.07610986
187	0x3db1edaa	0.08687909
188	0xbd1b8bcf	-0.03797513
189	0x3ed4ebd5	0.41586176
190	0xbcdc18aa	-0.02686723
191	0x3e55a198	0.20862424
192	0x3e123373	0.14277439
193	0x3ec87990	0.39155245
194	0xbf40905e	-0.75220287
195	0xbe421216	-0.18952212
196	0x3e2aa4c2	0.16664413
197	0x3d7440bd	0.05963205
198	0xbde7867a	-0.11304946
199	0x3f129d24	0.5727103
200	0xbd3f2a88	-0.04667142
201	0x3e427183	0.18988614
202	0x3d988020	0.07446313
203	0xbd0fcef7	-0.035109486
204	0xbe0f8f3d	-0.14019485
205	0xbe036708	-0.12832272
206	0xbe5393bf	-0.2066183
207	0xbd99fd52	-0.0751902
208	0xbe5b575a	-0.2142004
209	0x3d690487	0.056889083
210	0x3e3b656b	0.18300407
211	0xbe3ffe50	-0.18749356
212	0xbe5e7a1c	-0.21726269
213	0xbd155861	-0.036461238
214	0xbe47f922	-0.1952863
215	0xbe48c692	-0.19606999
216	0x3e06abf3	0.13151531
217	0x3e15b0fc	0.14618295
218	0x3dd24e3a	0.10268827
219	0xbe132906	-0.14371118
220	0x3db4fb25	0.088369645
221	0xbd00fc7a	-0.03149078
222	0x3ddc0554	0.10743204
223	0xbd8b8d45	-0.068140544
224	0xbbefea49	-0.00732163
225	0xbd27dec0	-0.040983915
226	0xbe5bf7e9	-0.21481289
227	0x3dff139d	0.12454913
228	0xbe003175	-0.12518866
229	0x3e4f0131	0.20215298
230	0x3e0dd9a8	0.1385256
231	0xbd8490d3	-0.064729355
232	0x3cc6e4e3	0.024279064
233	0xbde289fd	-0.110614754
234	0xbe06dc5b	-0.13169996
235	0x3d95ca8e	0.07314025
236	0xbd50b2a5	-0.05095162
237	0x3da575e2	0.08079125
238	0x3e2b96ca	0.1675674
239	0xbe83673f	-0.25664708
240	0x3e0df076	0.1386126
241	0xbd92fcfd	-0.0717716
242	0xbe7610bf	-0.24029826
243	0xbdcb1052	-0.09915222
244	0xbe7840cf	-0.24243473
245	0x3db20f64	0.08694342
246	0xbd911834	-0.070846945
247	0x3e1cf9bc	0.15329641
248	0x3cb3ab2f	0.021932213
249	0x3e820e23	0.2540141
250	0xbea09d13	-0.31369838
251	0xbc04a814	-0.008096714
252	0x3c9baf15	0.019004384
253	0xbd6a3805	-0.05718233
254	0x3d0687c7	0.03284433
255	0xbe5243cd	-0.20533676

conv2.bias f4 [40]
0	0xbd80b129	-0.062837906
1	0xbe16fd95	-0.14745171
2	0xbc6bd8d8	-0.014394961
3	0xbd1578a0	-0.03649199
4	0x3d2a7c3a	0.041622378
5	0xbd3b863f	-0.045782324
6	0x3dee042b	0.11621889
7	0x3df53160	0.11972308
8	0x3dc4b7f8	0.09605402
9	0x3cc90aba	0.024541248
10	0x3d7108ed	0.058846403
11	0x3f002fbd	0.5007284
12	0xbe80c7da	-0.25152475
13	0x3d32900b	0.0435944
14	0xbc5e0d82	-0.013553025
15	0xbdf56efd	-0.1198406
16	0xbd352360	-0.04422319
17	0xbda25c78	-0.07927793
18	0xbcfbdc4b	-0.030744692
19	0x00000000	0.0
20	0x00000000	0.0
21	0xbb9f1ec3	-0.004855962
22	0xbe264f2b	-0.16241138
23	0xbe097943	-0.13425164
24	0xbe87b815	-0.2650763
25	0xbd991f78	-0.07476705
26	0xbd574ec5	-0.052565355
27	0xbde2ceaa	-0.11074574
28	0x3ea2b3c9	0.3177779
29	0x3e0013af	0.12507509
30	0x3d887e7c	0.0666475
31	0xbebde170	-0.37086058
32	0xbe01be9f	-0.12670372
33	0xbe964776	-0.29351395
34	0x3da90ff8	0.08254999
35	0x3c84f324	0.01622922
36	0xbe4994ed	-0.19685717
37	0xbd40698f	-0.04697567
38	0xbd285b68	-0.041102797
39	0xbdce531e	-0.10074447

conv3.fc_neigh.weight f4 [30, 40]
0	0xbe190af7	-0.14945589
1	0xbec1420e	-0.37745708
2	0xbe476729	-0.19472946
3	0x3e5db626	0.21651515
4	0x3dfa6085	0.12225441
5	0x3df45ce1	0.11931778
6	0xbf3c693f	-0.7359809
7	0xbf270c32	-0.65252984
8	0xbde90fe5	-0.11379985
9	0x3eb9b17c	0.36268222
10	0xbeed5b22	-0.4635859
11	0xbe623c57	-0.2209333
12	0xbefc491b	-0.49274525
13	0xbf48adb7	-0.7839007
14	0xbe4cbb5a	-0.19993344
15	0xbedb1962	-0.42792803
16	0xbd07c651	-0.033148114
17	0xbecff7f5	-0.40618864
18	0x3ea36d87	0.319195
19	0x3eb63542	0.35587507
20	0xbecbfc6a	-0.39841014
21	0x3f02fa21	0.51162916
22	0x3e4142e9	0.1887318
23	0xbbe97fd6	-0.007125835
24	0xbf19837c	-0.59966254
25	0x3ec0f3a9	0.37685898
26	0xbed86bc3	-0.42269716
27	0x3e2b6d73	0.1674097
28	0xbd82d801	-0.06388856
29	0xbed48a38	-0.41511703
30	0xbef626cc	-0.48076475
31	0xbee2a54a	-0.4426673
32	0xbdbff469	-0.093727894
33	0xbededbfe	-0.43527216
34	0xbedd7cf3	-0.4325939
35	0xbe24700a	-0.16058365
36	0x3ccdae6f	0.02510759
37	0xbdae6e48	-0.08517128
38	0xbeed0fbe	-0.46301073
39	0xbe787511	-0.24263407
40	0x3ebb440a	0.36575347
41	0x3e158dba	0.14604846
42	0x3ef2a4c6	0.47391337
43	0x3e651252	0.2237027
44	0x3e976503	0.29569253
45	0x3de94064	0.11389235
46	0xbe1481cb	-0.14502637
47	0x3eaa5418	0.33267283
48	0x3e94b3c2	0.29043394
49	0x3ec0130b	0.3751453
50	0xbe46f222	-0.19428304
51	0x3ebc71e7	0.3680565
52	0x3ee7c090	0.452641
53	0x3d93a8f1	0.072099574
54	0x3e926c5d	0.285983
55	0xbe31d7e7	-0.17367516
56	0x3cd4194f	0.025890974
57	0x3e802ee3	0.25035772
58	0x3e4e0bea	0.20121732
59	0x3e93cdf6	0.28868073
60	0x3e89dd17	0.2692649
61	0x3e1b3f87	0.15160953
62	0x3db30b99	0.087424465
63	0x3f1d164c	0.6136215
64	0x3e8f9709	0.28044918
65	0xbdfe84fc	-0.124277085
66	0x3e3680ef	0.17822622
67	0x3ca2b74a	0.01986279
68	0x3e9631a5	0.2933475
69	0x3c9fe057	0.019516153
70	0xbee193a4	-0.44057953
71	0x3e7387d1	0.23782279
72	0x3e2df75f	0.16988896
73	0x3f22f146	0.63649404
74	0x3e15354d	0.14571114
75	0x3e8c9bec	0.2746271
76	0x3e966574	0.29374278
77	0x3ec295f5	0.38005033
78	0xbeba9c3e	-0.36447328
79	0xbe400598	-0.18752134
80	0xbb0988c0	-0.002098605
81	0xbee4da9a	-0.4469803
82	0x3df5cf58	0.12002438
83	0xbe187d48	-0.14891541
84	0xbe8d2bb1	-0.27572396
85	0xbdddc45d	-0.10828469
86	0xbd573207	-0.052537944
87	0xbe0c8079	-0.13720883
88	0x3da1e8dc	0.079057425
89	0x3ef74eaa	0.48302203
90	0xbefac6dd	-0.48979846
91	0xbf2de034	-0.6792023
92	0x3e132726	0.14370403
93	0x3f5a584a	0.8529097
94	0xbd956330	-0.07294309
95	0x3c84bbbd	0.016202802
96	0x3ec6bcef	0.3881602
97	0xbeaca6c3	-0.3372098
98	0x3ec279b2	0.3798347
99	0xbe9501f3	-0.2910305
100	0xbe225eb1	-0.15856434
101	0x3e431b44	0.1905337
102	0x3e36b85f	0.1784377
103	0x3e8f9d4b	0.28049693
104	0xbf2faaa5	-0.6861976
105	0x3e88ebd6	0.2674243
106	0xbe74e84d	-0.2391674
107	0xbefd7229	-0.4950116
108	0xbd129fea	-0.035797037
109	0x3df18c0d	0.11794291
110	0xbe04fc07	-0.12986766
111	0xbdddb60f	-0.108257405
112	0x3c55102b	0.013004343
113	0x3e91dd74	0.28489268
114	0x3ef760b9	0.4831598
115	0x3e7f076f	0.2490518
116	0x3d1ff3a2	0.039050706
117	0xbebdb8ec	-0.37055147
118	0xbe3d5f37	-0.18493353
119	0x3ed18643	0.40922746
120	0x3eb52023	0.3537608
121	0xbd4a6054	-0.049408272
122	0x3dc4912f	0.09598004
123	0xbe930710	-0.28716326
124	0xbed4354a	-0.41446906
125	0x3f0ff7da	0.56237566
126	0x3b82f6d2	0.0039967084
127	0x3ebbe3f5	0.36697355
128	0xbe39b243	-0.18134408
129	0xbe589ab4	-0.21152765
130	0x3d05d47d	0.032673348
131	0xbec6921c	-0.38783348
132	0xbec9fe81	-0.39451984
133	0x3ededfb1	0.43530038
134	0xbe8d1abf	-0.27559468
135	0x3ec430cb	0.38318476
136	0xbf04c7be	-0.5186728
137	0x3ec8d82a	0.3922742
138	0x3ebc702c	0.3680433
139	0x3d8a215e	0.067446455
140	0xbe8b8b64	-0.27254784
141	0xbe6cfba8	-0.23142874
142	0xbdb2d0c6	-0.087312266
143	0xbee0edf5	-0.43931547
144	0x3c307546	0.010770148
145	0xbe2ae112	-0.1668742
146	0xbe236c00	-0.15959167
147	0x3e614883	0.22000317
148	0x3e91725c	0.28407562
149	0xbf059d5c	-0.52193236
150	0xbdf47a76	-0.1193742
151	0x3e5cf0f9	0.21576299
152	0xbf07c13c	-0.5302923
153	0x3e6aff55	0.22948964
154	0xbe250ed0	-0.16118932
155	0x3e096959	0.13419093
156	0x3ea3a101	0.31958774
157	0xbd69881b	-0.057014566
158	0x3d05acbb	0.03263543
159	0x3f1ae90c	0.6051185
160	0xbe9940f4	-0.29932368
161	0xbd395c8e	-0.045254283
162	0x3ebe7728	0.37200284
163	0xbd85ce1f	-0.06533455
164	0x3eaf0103	0.3418046
165	0xbf3a3983	-0.72744006
166	0xbe13a960	-0.1442008
167	0x3f09f280	0.5388565
168	0xbe44cfad	-0.19219847
169	0xbf49dbcf	-0.78851026
170	0x3e236ad2	0.15958717
171	0xbc8be876	-0.01707862
172	0xbd0d6bca	-0.034526624
173	0xbd9a4f6f	-0.07534682
174	0xbe80b878	-0.25140738
175	0x3eae36c1	0.3402615
176	0x3ed8ce11	0.42344716
177	0x3e86caf9	0.2632673
178	0x3eef0fa1	0.4669161
179	0xbe086012	-0.13317898
180	0x3da81afe	0.08208273
181	0x3eafb795	0.3431975
182	0xbe4bac57	-0.19889961
183	0x3ed959ed	0.4245142
184	0xbef7286b	-0.48273024
185	0xbe5e457e	-0.21706197
186	0x3d3b205d	0.04568516
187	0xbe9fa5ee	-0.31181282
188	0x3eab687d	0.33478156
189	0xbc3d3507	-0.011548287
190	0xbe24ddf3	-0.16100292
191	0x3eb815be	0.35954088
192	0xbe9108ab	-0.28326926
193	0x3e88d713	0.2672659
194	0x3dbe7d87	0.09301286
195	0x3ef1ab0e	0.47200817
196	0x3e9af746	0.3026678
197	0xbcccf2cf	-0.025018124
198	0x3f2c920d	0.67410356
199	0x3f5e5a98	0.86856985
200	0xbfd3cd64	-1.6547055
201	0xbe9f19c9	-0.3107436
202	0x3e80e29c	0.2517289
203	0xbef86b1f	-0.48519227
204	0xbe426fbf	-0.1898794
205	0xbf017f5e	-0.5058497
206	0xbe324d08	-0.17412198
207	0x3eaf91c3	0.34290895
208	0x3e331805	0.17489631
209	0xbeb790ba	-0.35852605
210	0xbf584594	-0.8448117
211	0x3df398ce	0.118943796
212	0xbebdbe42	-0.37059218
213	0x3ef179ec	0.47163332
214	0x3e850f69	0.2598832
215	0x3e919ce2	0.28440005
216	0x3e9e54e7	0.3092415
217	0xbe0c318d	-0.13690777
218	0x3e4792c8	0.19489586
219	0xbe04d535	-0.12971957
220	0xbd78cd47	-0.060742643
221	0x3eba2d79	0.36362818
222	0xbf54c222	-0.83108723
223	0xbe9dd2da	-0.3082493
224	0xbeb9c59d	-0.3628358
225	0x3d24de20	0.040250897
226	0xbf0a20f2	-0.5395652
227	0xbe41526b	-0.18879096
228	0xbed205e4	-0.4102012
229	0x3d10e575	0.035375077
230	0xbf2050ad	-0.626231
231	0x3dcc3858	0.09971684
232	0xbd739e99	-0.059477422
233	0xbf0d180a	-0.55114806
234	0xbc30227a	-0.010750407
235	0x3ea22ba6	0.31673926
236	0x3e14e248	0.14539444
237	0x3e4242cd	0.18970795
238	0xbe0f6fa4	-0.14007431
239	0xbf865f55	-1.0497843
240	0xbe5c58c4	-0.21518236
241	0xbd11c45b	-0.03558765
242	0xbe321475	-0.17390616
243	0xbe32470a	-0.17409912
244	0x3f151b7e	0.58245075
245	0xbe640605	-0.22267921
246	0x3e930f5b	0.28722653
247	0xbe078cf3	-0.13237362
248	0x3d727a89	0.05919889
249	0xbda4597a	-0.08024879
250	0xbe818722	-0.2529841
251	0x3e1b82bf	0.15186594
252	0xbe845fc3	-0.2585431
253	0x3e7e54a9	0.24836983
254	0xbd42e6e9	-0.047583494
255	0x3da65a34	0.08122674

conv3.fc_self.weight f4 [30, 40]
0	0x3f115971	0.567771
1	0x3cf8c9cb	0.03036966
2	0x3e1b9b93	0.15196066
3	0xbda17f0f	-0.07885563
4	0x3ce0e6f7	0.027453883
5	0xbe3300b0	-0.17480731
6	0x3f044188	0.5166249
7	0xbd0d3e37	-0.03448316
8	0x37516320	1.248045e-05
9	0xbe8f9e0a	-0.28050262
10	0xbed32b55	-0.41243997
11	0xbf22199f	-0.63320345
12	0x3c426bea	0.011866549
13	0xbe885bd0	-0.26632547
14	0xbc5d674b	-0.0135133965
15	0x3efc2bed	0.49252263
16	0xbce2a0f4	-0.027664639
17	0xbed798d1	-0.42108777
18	0x3e9ec483	0.31009302
19	0x3ca595f8	0.020213112
20	0x3ec6855d	0.38773623
21	0x3ebd662e	0.3699202
22	0x3eabd5a3	0.3356143
23	0x3e71966a	0.23592535
24	0xbea35542	-0.31900984
25	0xbe78a337	-0.24281012
26	0x3f013266	0.50467527
27	0x3ed2236c	0.4104265
28	0xbef6eb8d	-0.48226586
29	0x3e67d93c	0.22641462
30	0xbe5d147e	-0.21589848
31	0x3f11bcf1	0.56928927
32	0x3e195b48	0.14976227
33	0x3ed3bd03	0.41355142
34	0xbd765826	-0.06014266
35	0xbe84dab2	-0.259481
36	0x3dedcb0d	0.116109945
37	0xbdd6cc46	-0.10488181
38	0xbcb68fea	-0.02228542
39	0x3db55a5a	0.08855124
40	0xbf11edb9	-0.5700336
41	0xbea027d7	-0.31280395
42	0xbd5a29bc	-0.053262457
43	0x3d6f22bd	0.05838274
44	0x3f38c5ab	0.7217662
45	0xbe3a1313	-0.18171339
46	0xbe953d8c	-0.2914852
47	0x3ef9b14f	0.48768088
48	0x3dd7f9f4	0.10545722
49	0xbe90cb29	-0.2828
50	0xbe1443ce	-0.1447899
51	0xbf143428	-0.57892084
52	0xbedaac17	-0.4270942
53	0x3bc8d5bc	0.0061289947
54	0xbe305012	-0.17218044
55	0xbeb96067	-0.36206362
56	0x3d64c89e	0.055855386
57	0xbeb5d0fa	-0.35511
58	0xbdd86530	-0.10566175
59	0xbd8d528d	-0.06900511
60	0x3e02037c	0.12696642
61	0xbc65d818	-0.014028572
62	0xbe151a91	-0.14560916
63	0x3e943c32	0.28952175
64	0xbdd173fc	-0.102272004
65	0x3e09aec0	0.13445568
66	0x3e225f0c	0.1585657
67	0xbcf4b198	-0.02986984
68	0xbe868b32	-0.26278073
69	0x3e303446	0.1720744
70	0xbede5ed1	-0.43431714
71	0x3ebe140a	0.37124664
72	0x3f1b4bfd	0.60662824
73	0xbb9ec474	-0.0048451964
74	0xbead2094	-0.33813918
75	0xbe889ad2	-0.2668062
76	0xbef8f1d9	-0.48622015
77	0xbd8d3c8b	-0.06896313
78	0x3e8989e1	0.26863006
79	0xbe333688	-0.17501271
80	0x3f5046e5	0.81358176
81	0xbf014fb6	-0.50512254
82	0x3edc6992	0.43049294
83	0xbe530e4f	-0.20610927
84	0x3eaa1ff4	0.33227503
85	0x3e90c992	0.28278786
86	0xbebc376d	-0.36761037
87	0x3e581ce8	0.21104777
88	0xbf0301a7	-0.51174396
89	0x3e57f681	0.21090128
90	0x3e834338	0.2563722
91	0xbd2ba67a	-0.04190681
92	0x3ec97f27	0.39354822
93	0x3f1e74e0	0.6189709
94	0x3eaee622	0.34159952
95	0x3ebdd0b5	0.37073293
96	0x3e992922	0.29914194
97	0xbf168f50	-0.5881243
98	0x3da7a2d0	0.08185351
99	0x3cc27778	0.023738608
100	0x3e8e57b1	0.27801278
101	0x3ebedf1e	0.372796
102	0x3f147689	0.5799337
103	0x3dfee877	0.12446683
104	0x3c948848	0.01813139
105	0x3dd8dd09	0.10589034
106	0x3ebde4d3	0.37088642
107	0xbe07c3d9	-0.13258304
108	0x3f611eaf	0.87937444
109	0x3d1ea507	0.0387316
110	0x3e5c9ae9	0.21543469
111	0xbe708b85	-0.23490722
112	0x3df167e6	0.11787395
113	0x3f20af4b	0.62767476
114	0xbe7be561	-0.2459922
115	0x3f24f0e4	0.6443007
116	0xbd63e908	-0.055642158
117	0xbd30f9b3	-0.04320688
118	0xbe5c53fb	-0.21516411
119	0xbe931eee	-0.28734535
120	0x3ebe6830	0.37188864
121	0x3d9af413	0.07566085
122	0xbea27dc0	-0.31736565
123	0x3e60608a	0.21911827
124	0x3d94c710	0.07264531
125	0xbf55caea	-0.8351275
126	0x3ee671ed	0.45008793
127	0x3efbc382	0.49172598
128	0x3e355376	0.17707619
129	0x3ec806cd	0.3906769
130	0x3e7b0372	0.24513033
131	0xbe694363	-0.22779612
132	0x3e07fda4	0.1328035
133	0x3cb08846	0.021549355
134	0x3d64217c	0.055695996
135	0x3ed6fc37	0.419893
136	0x3ec0f8b1	0.37689736
137	0x3ea8f81c	0.33001792
138	0xbe02fae4	-0.1279102
139	0x3e0e8b3e	0.13920304
140	0x3e9e8791	0.30962804
141	0x3e2f9684	0.17147261
142	0x3e7f57da	0.24935856
143	0xbe287066	-0.16449127
144	0xbf040c3a	-0.51581156
145	0xbc82f5dc	-0.015986376
146	0xbee94761	-0.4556227
147	0xbe91b30c	-0.28456914
148	0xbf1e039c	-0.6172426
149	0x3ed95146	0.4244482
150	0x3e960f8a	0.2930873
151	0x3e7d6df5	0.24748977
152	0x3ea64e81	0.3248177
153	0x3d996043	0.074890636
154	0xbea5a73a	-0.32354146
155	0x3daeea2e	0.0854076
156	0x3d94a370	0.07257736
157	0xbe73bace	-0.23801729
158	0x3e3f9dc4	0.18712527
159	0xbe91dd8e	-0.28489345
160	0xbeac32c8	-0.33632493
161	0x3e1345d3	0.14382105
162	0xbc95be7f	-0.018279312
163	0x3edde13c	0.43335903
164	0xbe86fa95	-0.26363054
165	0xbe84dae0	-0.25948238
166	0xbe3da69d	-0.18520589
167	0x3ddacbed	0.10683427
168	0xbe80e524	-0.2517482
169	0xbf88ee82	-1.0697787
170	0x3e379007	0.17926036
171	0x3e99b519	0.3002098
172	0xbe2a3eb7	-0.16625486
173	0x3e2e715e	0.17035434
174	0x3e4b92f1	0.19880272
175	0xbc2c09b5	-0.010500361
176	0xbf290077	-0.66016334
177	0xbea21a9f	-0.31660935
178	0x3ea67e35	0.32518163
179	0x3eb3ef37	0.35143444
180	0x3ea4ecd7	0.32211944
181	0x3edbb919	0.42914656
182	0xbe74c1b8	-0.23902023
183	0xbed6a76c	-0.41924608
184	0x3f06efe9	0.52709824
185	0x3e847aa8	0.2587483
186	0xbee46fb0	-0.4461646
187	0xbee42746	-0.44561213
188	0xbe6a8112	-0.22900799
189	0xbdde5580	-0.108561516
190	0xbe85ee7f	-0.2615852
191	0x3ea4be2d	0.32176343
192	0xbef0cd91	-0.47031835
193	0x3eb727aa	0.3577245
194	0xbe64f752	-0.2235997
195	0x3eb3a710	0.35088396
196	0xbede2f70	-0.43395567
197	0x3e222e85	0.15838058
198	0xbd10a8d2	-0.03531725
199	0x3f2aae9b	0.66672677
200	0xbeb630a1	-0.35583976
201	0x3ee9a6b9	0.45635012
202	0x3dab4a5f	0.083637945
203	0x3e73cf86	0.23809633
204	0xbf608067	-0.87695926
205	0x3ed550da	0.41663247
206	0xbf2fdb7b	-0.68694276
207	0xbf393383	-0.72344226
208	0x3dc1b173	0.09457674
209	0xbeaa3c66	-0.33249205
210	0x3f1904f9	0.5977321
211	0x3e4c441f	0.19947861
212	0xbe8b4cc5	-0.27207008
213	0xbe51933f	-0.20466326
214	0x3e5f19bd	0.21787162
215	0x3e60b2ca	0.21943203
216	0x3e90513c	0.28186977
217	0x3f1369b5	0.5758317
218	0x3f23e502	0.64021313
219	0xbcfb1505	-0.030649671
220	0x3ae521c8	0.0017481381
221	0x3d6d5e84	0.057951465
222	0xbede2fbe	-0.433958
223	0xbe6e7004	-0.23284918
224	0x3f9c7b12	1.2225058
225	0x3eb33163	0.34998617
226	0x3ed62421	0.4182444
227	0x3e6b564e	0.22982141
228	0x3e4dba32	0.20090559
229	0xbd3c036c	-0.0459017
230	0xbef57f4f	-0.4794869
231	0x3eefec5d	0.46860018
232	0xbe1250b9	-0.14288606
233	0xbf3c7d56	-0.7362875
234	0x3c16433f	0.009171306
235	0x3e2afd6c	0.16698235
236	0x3bd708ee	0.006562344
237	0xbe569568	-0.20955431
238	0xbce450b9	-0.027870523
239	0xbf543210	-0.8288889
240	0x3d46843c	0.048465952
241	0x3edff74f	0.4374337
242	0x3d028a27	0.031870034
243	0xbda63b09	-0.08116729
244	0x3ef21999	0.47285154
245	0xbeabb316	-0.3353507
246	0xbedf3016	-0.43591374
247	0x3e08ded0	0.13366246
248	0xbd873e3c	-0.06603667
249	0xbec838d1	-0.39105847
250	0x3e402f3e	0.18768021
251	0x3bcea08a	0.006305759
252	0x3ec83cc0	0.3910885
253	0x3e5bd984	0.21469694
254	0xbdbe1e29	-0.09283096
255	0x3d04bd6c	0.03240721

conv3.fc_self.bias f4 [30]
0	0xbeb8a947	-0.36066648
1	0x3db67dda	0.08910723
2	0xbdb003bb	-0.085944615
3	0xbe62b4fb	-0.22139351
4	0x3c22cfed	0.009937269
5	0x3d55d9ef	0.05220979
6	0x3dfb6009	0.122741766
7	0x3a938a06	0.0011256344
8	0xbe12c9ce	-0.14334795
9	0xbe1d5582	-0.1536465
10	0xbdc87105	-0.09787182
11	0xbc0bea3d	-0.0085397335
12	0x3e1800d5	0.14844067
13	0xbd99bce2	-0.0750673
14	0x3d64119b	0.055680852
15	0xbe7d6472	-0.24745348
16	0xbd5648dd	-0.05231558
17	0xbe8f01d1	-0.27931073
18	0xbea235cf	-0.31681678
19	0x3e048eb4	0.12945062
20	0xbeb6788e	-0.3563885
21	0x3daa2def	0.083095424
22	0x3d2341af	0.039857563
23	0x3df165ae	0.11786972
24	0xbd6ef521	-0.058339242
25	0xbd30f618	-0.043203443
26	0xbe030d09	-0.12797941
27	0xbe116f92	-0.14202717
28	0xbe0cbd3c	-0.13744062
29	0x3d80bc19	0.06285877

conv4.fc_neigh.weight f4 [20, 30]
0	0x3e6d96b9	0.23202027
1	0x3ec06951	0.3758035
2	0xbe8dab7d	-0.27669898
3	0x3e475f2d	0.194699
4	0x3c658252	0.014008122
5	0xbf612ee1	-0.87962157
6	0x3e2723d7	0.16322266
7	0xbe784ab7	-0.24247251
8	0x3e6ae171	0.22937562
9	0x3de5f32f	0.11228024
10	0xbf0aa7c5	-0.54162246
11	0xbca9d5ea	-0.020731885
12	0x3e3b4aab	0.18290202
13	0x3e471a0f	0.19443534
14	0x3f03b469	0.5144716
15	0x3f165a7f	0.58731836
16	0xbda2257f	-0.07917308
17	0x3e6b52a6	0.22980747
18	0xbf3bc2b0	-0.73343945
19	0xbded9669	-0.11600954
20	0xbec0bf96	-0.37646168
21	0xbf09811d	-0.53712636
22	0xbef48094	-0.47754347
23	0xbb5773ea	-0.0032875487
24	0xbfa8f09a	-1.3198426
25	0xbd089317	-0.0333434
26	0x3cf3e0c8	0.02977027
27	0x3f2c5f9c	0.6733339
28	0xbee39a67	-0.44453737
29	0x3e8a64ba	0.27029973
30	0x3eca1921	0.39472297
31	0xbf16d8bb	-0.58924454
32	0x3dc5e2fa	0.09662433
33	0x3e31b722	0.17355016
34	0x3e97d916	0.2965781
35	0x3e843e1b	0.25828633
36	0xbe639e99	-0.22228469
37	0xbeacf089	-0.33777264
38	0xbd6862a3	-0.056734692
39	0x3eebe110	0.46070147
40	0x3edcc4b7	0.43118832
41	0xbf473e4d	-0.7782944
42	0xbdf88ee5	-0.1213663
43	0x3f578e0f	0.8420114
44	0xbd4f2a41	-0.050577406
45	0xbe8251fe	-0.2545318
46	0x3f152782	0.5826341
47	0x3f954495	1.1661555
48	0x3f133fa2	0.5751897
49	0x3e1fd081	0.15606882
50	0x3e8056ca	0.25066215
51	0xbed906e4	-0.4238807
52	0xbea4f653	-0.3221918
53	0xbe385666	-0.18001708
54	0x3f6543f3	0.8955681
55	0xbdb65c03	-0.089042686
56	0x3f05071a	0.5196396
57	0xbed08a34	-0.4073044
58	0x3ad701a2	0.0016403685
59	0x3daf282f	0.08552586
60	0xbe0aa47d	-0.1353931
61	0xbe9d96b3	-0.30779037
62	0x3ed646f0	0.41850996
63	0x3edcea38	0.43147445
64	0xbe3e3a1c	-0.18576854
65	0x3cc99da4	0.024611302
66	0x3f11ed70	0.57002926
67	0xbe35748a	-0.17720237
68	0x3ed9c5f8	0.4253385
69	0xbe63d730	-0.22250056
70	0x3f1f8ef3	0.623275
71	0xbf0b21b7	-0.5434832
72	0xbdaa031e	-0.08301376
73	0xbefc21be	-0.49244493
74	0x3ec29c56	0.380099
75	0xbe4d4276	-0.20044884
76	0xbddd0bd9	-0.107932754
77	0x3f97cb0b	1.1858839
78	0x3eab34e3	0.33438787
79	0x3c92276e	0.017841067
80	0x3f3f9e7e	0.74851215
81	0xbeae838a	-0.3408473
82	0x3f28a2a0	0.65873146
83	0x3ee992c2	0.4561978
84	0xbf099760	-0.53746605
85	0x3e8307a3	0.25591764
86	0x3f1257ef	0.57165426
87	0xbf0d451a	-0.55183566
88	0x3edf5483	0.43619165
89	0x3f0fd759	0.5618797
90	0xc0019492	-2.024693
91	0x3e4db93f	0.20090197
92	0xbe3eeb5d	-0.18644471
93	0xbcbe1fc7	-0.023208512
94	0xbe9c8349	-0.30568913
95	0x3e76d0d7	0.24103104
96	0xbe291e14	-0.1651538
97	0x3eee368b	0.46525988
98	0x3e995df8	0.29954505
99	0xbec7764c	-0.3895744
100	0xbf1b1f27	-0.6059441
101	0x3f028ad2	0.50993073
102	0xbe2fa67a	-0.1715335
103	0xbe25b958	-0.16183984
104	0xbec045c2	-0.3755322
105	0xbe24ed3a	-0.1610612
106	0xbeb9eee9	-0.36315086
107	0xbfec3fdd	-1.845699
108	0xbd86b684	-0.06577781
109	0x3e9ed73c	0.31023586
110	0xbf521f1f	-0.8207874
111	0xbe186e87	-0.14885913
112	0xbe3b7ec9	-0.18310083
113	0x3d05b755	0.032645542
114	0x3e6a461f	0.22878312
115	0x3eb571fe	0.35438532
116	0xbda7662f	-0.08173787
117	0xbe2b19d9	-0.16709079
118	0xbde7624b	-0.11298045
119	0xbdd3f1dc	-0.103488654
120	0x3f2dd3d6	0.6790136
121	0xbea8ce87	-0.32970068
122	0x3ecce3b8	0.40017486
123	0xbf09617e	-0.53664386
124	0xbdfa1002	-0.122100845
125	0x3f040b4a	0.51579726
126	0xbeb10941	-0.34577373
127	0xbddf37fe	-0.108993515
128	0x3ec20939	0.3789766
129	0xbecf2300	-0.4045639
130	0xbe026e50	-0.12737393
131	0xbeb2ddba	-0.3493479
132	0xbe850266	-0.25978392
133	0x3ec45ebb	0.38353524
134	0xbe27bd4a	-0.16380802
135	0x3d93d831	0.072189696
136	0x3ed8245c	0.4221524
137	0x3fac6cf2	1.3470747
138	0x3f2159a8	0.6302743
139	0xbe20a0ae	-0.15686294
140	0x3c891faf	0.01673874
141	0x3e1e1eff	0.15441512
142	0x3e529810	0.2056582
143	0x3f01b908	0.5067296
144	0xbf5d63d6	-0.8648046
145	0xbea31c36	-0.3185746
146	0xbeb34228	-0.3501141
147	0xbee797e5	-0.45233074
148	0x3e50cd9c	0.20390934
149	0x3ce8641a	0.028368045
150	0xbeba4496	-0.36380452
151	0x3eef0ff9	0.46691874
152	0xbeb92a09	-0.36164883
153	0xbe111c70	-0.14171004
154	0x3ea3adc8	0.31968522
155	0x3e657f5a	0.22411862
156	0x3e0824a9	0.13295235
157	0x3e8c94df	0.2745733
158	0x3eb485e4	0.352584
159	0xbe8f6cb3	-0.28012618
160	0x3d9f8622	0.07789256
161	0xbebd9ccc	-0.3703369
162	0xbd49d7a6	-0.049277924
163	0xbea19a3a	-0.31562978
164	0xbc4981b6	-0.012298992
165	0xbe9945bd	-0.2993602
166	0x3b519149	0.0031977466
167	0xbe70b8d4	-0.23508006
168	0xbf23a379	-0.63921314
169	0x3eb96723	0.362115
170	0xbf695dcc	-0.9115875
171	0x3f5e7730	0.86900616
172	0xbe3d4b5b	-0.18485777
173	0x3f244b02	0.6417695
174	0xbd14ab68	-0.03629628
175	0x3f536c89	0.82587487
176	0xbda6c932	-0.08143844
177	0xbeefa1a1	-0.46803
178	0x3e1e09e9	0.15433468
179	0x3e47dc8c	0.19517726
180	0xbe9dc917	-0.30817482
181	0xbec54ea5	-0.38536564
182	0xbec4a703	-0.3840867
183	0xbedfc4f0	-0.4370494
184	0x3d9776a7	0.07395678
185	0x3d3a78e7	0.045525458
186	0x3f0ec0d7	0.55763
187	0xbd6c9b8b	-0.057765525
188	0xbec19f3e	-0.37816805
189	0xbdc9cbed	-0.09853349
190	0x3e834251	0.25636533
191	0x3e1b39ab	0.15158717
192	0x3d2da9a0	0.042398095
193	0xbf27162a	-0.65268195
194	0xbe0d5316	-0.13801226
195	0xbf365d0c	-0.7123573
196	0x3ee84d58	0.4537151
197	0x3e8bb49b	0.2728623
198	0x3ec52fc4	0.38513005
199	0x3cf2f5e3	0.029658264
200	0x3fc84dee	1.5648782
201	0xbe6f2ce8	-0.23356974
202	0x3eb508e7	0.35358354
203	0x3dbb3e99	0.09142799
204	0x3ec39a0e	0.38203472
205	0xbe2577f9	-0.16159047
206	0xbe875bf6	-0.26437348
207	0xbf30d425	-0.69073707
208	0x3ed25892	0.410832
209	0xbe7b28c3	-0.24527268
210	0xbf946486	-1.1593177
211	0xbe9ce4d3	-0.3064333
212	0x3da3c6c2	0.079968944
213	0x3ee62e94	0.4495741
214	0xbf3033ab	-0.6882884
215	0xbe54a973	-0.20767765
216	0x3f0ab337	0.5417971
217	0x3c304967	0.010759688
218	0xbe6ff3f8	-0.2343291
219	0x3d265041	0.04060388
220	0xbebbb350	-0.36660242
221	0xbf13816b	-0.5761935
222	0x3ea90daa	0.33018237
223	0xbe0544de	-0.13014552
224	0x3e76436c	0.24049157
225	0x3de509cc	0.11183509
226	0x3e730dcf	0.23735736
227	0xbe69eceb	-0.22844283
228	0xbe5501c4	-0.20801455
229	0xbebbf19c	-0.3670777
230	0xbf809650	-1.0045872
231	0x3ec8410c	0.39112127
232	0x3e3140cf	0.17309879
233	0xbf10ec93	-0.56610984
234	0x3de3e7de	0.111282095
235	0xbde362d2	-0.11102833
236	0x3e257b59	0.16160335
237	0xbf1340c9	-0.5752073
238	0xbe988202	-0.29786688
239	0x3eeeb566	0.4662277
240	0xbfbb46f4	-1.4631028
241	0x3e6891f0	0.2271192
242	0x3e0a379a	0.13497773
243	0xbeb93f94	-0.3618132
244	0xbf47ff8f	-0.78124326
245	0x3f16846c	0.5879581
246	0xbe536499	-0.20643844
247	0xbea73b72	-0.3266254
248	0xbe6ac073	-0.22924976
249	0xbcbd5e6d	-0.023116315
250	0x3e581075	0.21100028
251	0x3eb2601f	0.3483896
252	0x3ee95873	0.45575294
253	0xbee7e019	-0.4528816
254	0xbe0bdb65	-0.13657911
255	0xbe46dacc	-0.19419402

conv4.fc_self.weight f4 [20, 30]
0	0xbfa19521	-1.2623636
1	0x3ecf9bb7	0.40548488
2	0xbef437b9	-0.47698763
3	0xbf09bad7	-0.5380072
4	0x3ec1f592	0.37882668
5	0x3e38a164	0.18030316
6	0x3e13f06d	0.14447184
7	0x3df20bab	0.11818632
8	0x3d6ab1bb	0.057298403
9	0xbebc029f	-0.3672075
10	0xbe5df549	-0.216756
11	0xbeb96007	-0.36206076
12	0x3d9852e7	0.07437687
13	0xbdb3638f	-0.08759224
14	0x3ef9a95d	0.48762026
15	0xbec59a2f	-0.38594195
16	0x3daef11e	0.08542083
17	0x3e89159a	0.26774293
18	0xbd853b09	-0.06505401
19	0xbedcce38	-0.43126082
20	0xbdedcc84	-0.11611274
21	0xbec5d92a	-0.38642246
22	0xbed684ba	-0.41898137
23	0xbe7eefe5	-0.248962
24	0xbf0a3c4e	-0.5399827
25	0xbee0194e	-0.43769306
26	0x3ce71ddf	0.028212486
27	0xbe4202cc	-0.1894638
28	0x3dd1bf7d	0.102416016
29	0x3e667b2c	0.22507924
30	0x3dd7f7d0	0.10545313
31	0xbf420198	-0.7578368
32	0x3ee3bff2	0.4448238
33	0xbdf90512	-0.1215917
34	0xbf04ac96	-0.51825845
35	0xbf91c9c2	-1.1389697
36	0x3e1c5bab	0.15269344
37	0x3efd0f4f	0.49425742
38	0xbee62cbc	-0.44956005
39	0xbedeae3f	-0.43492314
40	0xbe85424f	-0.26027152
41	0xbf8d46d9	-1.1037246
42	0xbe7fe307	-0.24988948
43	0xbc20ed6a	-0.009822229
44	0xbf4d552d	-0.8020809
45	0xbea902fe	-0.33010095
46	0xbea96dfa	-0.33091718
47	0x3edb8d99	0.42881468
48	0x3f2207e6	0.632933
49	0xbd8e55ee	-0.069499835
50	0x3db1e3ad	0.08686004
51	0xbf908dad	-1.1293236
52	0xbd917ef0	-0.071042895
53	0xbf804d24	-1.0023541
54	0xbf38dea9	-0.7221475
55	0x3e501c43	0.20323281
56	0x3e9fed54	0.31235754
57	0xbf1b8f5d	-0.6076563
58	0x3fd4f916	1.6638515
59	0x3e5ec68e	0.2175543
60	0xbe412927	-0.18863355
61	0xbd99e81f	-0.07514977
62	0xbe1d369c	-0.15352863
63	0x3ee2c790	0.4429288
64	0xbdb4f3f7	-0.08835595
65	0xbe56edef	-0.20989202
66	0x3e8c035d	0.27346316
67	0x3f31a9e1	0.6939984
68	0xbd9e3730	-0.0772537
69	0xbe90a082	-0.28247458
70	0xbea3e5c3	-0.32011232
71	0x3f267921	0.6502858
72	0x3ec8e944	0.39240468
73	0xbec1f54d	-0.37882462
74	0x3e707421	0.234818
75	0x3f2991ae	0.66237915
76	0x3ef744b2	0.48294598
77	0x3d0a6670	0.0337891
78	0xbdc892e8	-0.09793645
79	0x3db448c3	0.08802941
80	0x3fc0cc93	1.5062431
81	0xbe84130e	-0.25795788
82	0x3d985ca9	0.074395485
83	0x3f1059ec	0.5638721
84	0xbf4b2543	-0.7935373
85	0x3f13a23b	0.5766942
86	0x3e8965b7	0.26835415
87	0xbe7ccd4d	-0.24687691
88	0x3f04d82c	0.5189235
89	0x3e8ee3b4	0.279081
90	0x398d3464	0.0002693265
91	0xbe48e8e0	-0.19620085
92	0x3ecac384	0.39602292
93	0xbd99c51b	-0.07508298
94	0xbeae6295	-0.34059587
95	0x3f24bfb5	0.6435502
96	0x3e0c2084	0.13684279
97	0xbea6efa1	-0.32604697
98	0x3e101847	0.14071761
99	0x3ebb9638	0.36638045
100	0xbe9130fe	-0.2835769
101	0xbc1464b5	-0.009057214
102	0x3ea799b3	0.3273445
103	0x3e913053	0.2835718
104	0x3e060ca2	0.13090757
105	0xbe8c36ea	-0.27385646
106	0xbe0e08ed	-0.13870592
107	0xbe491aa2	-0.19639066
108	0xbf24b467	-0.6433777
109	0x3e1232fc	0.14277261
110	0xbf954f34	-1.1664796
111	0x3f957639	1.1676704
112	0x3eeec9c4	0.4663831
113	0xbeae9bd5	-0.34103265
114	0xbe872fd5	-0.2640368
115	0x3db40e20	0.08791757
116	0xbe6c435e	-0.23072574
117	0xbd200f14	-0.03907688
118	0xbd31988e	-0.043358378
119	0x3e14d16c	0.14533013
120	0x3f4455e4	0.7669356
121	0xbe71f2a9	-0.23627724
122	0xbe9eb9e5	-0.310012
123	0x3d75aeb2	0.059981056
124	0xbf6cdf16	-0.925279
125	0x3cfad887	0.030620826
126	0xbc6d5b3b	-0.014487083
127	0xbd857d04	-0.065179855
128	0x3e94f934	0.29096377
129	0x3e6d4d10	0.23173928
130	0x3f1fcaa0	0.62418556
131	0xbd82a5ca	-0.06379278
132	0x3f392e0a	0.72335875
133	0x3edb1d52	0.42795807
134	0xbe54162f	-0.20711587
135	0xbefaf517	-0.49015114
136	0x3ec66a2e	0.38752884
137	0x3f893099	1.0717956
138	0x3f21d1e4	0.6321089
139	0x3edfaf15	0.43688264
140	0x3f049d12	0.5180217
141	0xbea2e6f4	-0.31816828
142	0x3ec7bf73	0.39013252
143	0xbde0f980	-0.10985088
144	0x3f0d7436	0.5525545
145	0xbf9c65a2	-1.2218516
146	0x3ea61c9e	0.32443708
147	0x3becfae0	0.007232055
148	0x3e204505	0.15651329
149	0xbe080da0	-0.13286448
150	0xbf304d11	-0.68867594
151	0xbee1f6df	-0.4413366
152	0x3e95a968	0.2923081
153	0x3d0196e9	0.03163806
154	0xbeed145d	-0.46304598
155	0x3ea3b130	0.3197112
156	0xbd261f57	-0.04055723
157	0x3e5bfe36	0.21483693
158	0xbd94072b	-0.0722793
159	0xbedcf9a6	-0.43159217
160	0xbe9fc120	-0.3120203
161	0xbf205670	-0.62631893
162	0x3e0350b7	0.12823759
163	0xbea7bbec	-0.3276056
164	0x3efec6f9	0.4976118
165	0xbe920c4f	-0.28525016
166	0x3f03134e	0.5120133
167	0xbb925496	-0.00446565
168	0x3b60d484	0.0034306357
169	0x3e9003fd	0.28128043
170	0xbf623995	-0.88369113
171	0xbcb8098f	-0.022465495
172	0xbee15ba4	-0.4401523
173	0xbc10b328	-0.008831777
174	0x3dd8b51c	0.10581419
175	0x3e2476d0	0.16060948
176	0x3f0affeb	0.5429675
177	0xbe57efe2	-0.21087602
178	0x3e947ce6	0.2900154
179	0x3ed9e896	0.4256026
180	0x3ed4a928	0.41535306
181	0x3f0e7d9c	0.55660415
182	0x3e996ab2	0.29964215
183	0x3ebc870c	0.36821783
184	0x3e2da313	0.16956739
185	0x3e8376af	0.25676486
186	0x3ecd95c3	0.40153322
187	0x3e19cea4	0.15020233
188	0xbd02f824	-0.031974927
189	0xbefb2d86	-0.4905817
190	0xbeb611a3	-0.3556033
191	0x3d788bc5	0.06068017
192	0x3ece9674	0.40349162
193	0xbe08927d	-0.13337131
194	0x3dc7c6b6	0.09754698
195	0xbef66a2f	-0.48127887
196	0x3f826761	1.0187799
197	0x3f5a9b38	0.85393095
198	0x3f86f46c	1.0543342
199	0x3e4fd9a2	0.20297864
200	0x3fa2142c	1.2662406
201	0xbecea39e	-0.40359205
202	0x3eaf56d1	0.34245923
203	0x3ef3e8c8	0.47638535
204	0x3e898d61	0.26865676
205	0xbe63c421	-0.22242786
206	0xbed6bf73	-0.4194294
207	0xbecc820a	-0.39942962
208	0x3ea5a130	0.3234954
209	0x3f00ef4f	0.50365156
210	0x3e73a68b	0.23794
211	0x3e9a76d6	0.3016879
212	0x3e7158ec	0.23569077
213	0x3eda4b23	0.4263545
214	0x3e604ae0	0.21903563
215	0xbf2d6352	-0.67729676
216	0x3efff9f5	0.4999539
217	0xbef8c497	-0.48587486
218	0x3ec5d220	0.38636875
219	0xbedcd5c0	-0.43131828
220	0xbecaf09e	-0.396367
221	0xbd906fab	-0.07052549
222	0x3efa8293	0.48927745
223	0xbe9a2fe6	-0.3011467
224	0xbd247671	-0.040152017
225	0xbef628b8	-0.4807794
226	0x3f131c42	0.57464993
227	0xbd3d9c8b	-0.04629187
228	0xbe5b04f3	-0.21388607
229	0xbd30154c	-0.04298906
230	0xbbb4a9b2	-0.0055133933
231	0x3ecc0320	0.39846134
232	0xbe0b5cff	-0.13609694
233	0x3eed5435	0.46353307
234	0x3ef3800e	0.47558635
235	0xbe31137d	-0.1729259
236	0xbe3bcb37	-0.18339239
237	0x3e1b3191	0.15155627
238	0xbcce4b8c	-0.025182508
239	0xbef328ee	-0.47492164
240	0xbfae0c37	-1.3597478
241	0x3df517b5	0.119674124
242	0x3e9fdc9b	0.31222996
243	0x3e873eeb	0.2641519
244	0xbe1952f2	-0.14973047
245	0x3f4c8976	0.7989725
246	0x3d1d7b1c	0.038447484
247	0x3ef06535	0.46952215
248	0xbeb8cde8	-0.36094594
249	0xbeb2ad5b	-0.34897885
250	0x3ed36ea8	0.41295362
251	0xbef2d566	-0.47428435
252	0x3e8ad5d4	0.27116263
253	0xbf0bf86f	-0.54675955
254	0x3c88bf52	0.016692791
255	0x3e858e68	0.2608521
