VVG/Experiment_3 - Aggregation/Images7/model7_ii_v1.pth (torch, 32078 bytes, 18 tensors)

conv1.fc_neigh.weight f4 [50, 3]
-0.24399139 -1.1518646 -0.49518508 0.35082504 0.45579553 0.83135426 0.15569374 2.103898
-1.7315743 0.4600014 -1.5658855 -0.08927 -0.18849032 2.2139993 1.4793243 0.54047555
-0.41520318 -0.04255244 -0.31464863 1.4431041 0.9893424 0.31583434 0.63681173 -1.2256407
0.6172842 0.17631498 0.65694094 0.2360794 1.1642483 1.8866239 -0.4573853 1.0260776
1.2408589 -0.23721243 0.095200814 -0.25970334 0.1518303 0.98191494 1.0789672 0.32080677
-0.7635319 0.12366512 0.090289585 -2.3315308 -0.94272065 0.20291781 -0.32484043 0.22688597
-0.3018797 -0.36806226 1.2383323 0.06505982 3.095568 0.85494006 -0.3870075 1.813442
1.2831805 -0.2213215 2.5674987 1.1283004 -0.30421007 0.2647982 -0.34324464 0.1082676
1.4572823 0.8585519 -0.52787864 -2.447506 0.67019325 -0.03220458 -0.05470298 0.0450179
-0.46145347 0.39583588 0.2543329 -0.13751861 -0.09105229 -0.15204522 -0.281691 0.1817163
-0.38428295 -0.19678219 -0.6764649 1.4159149 -0.46381778 -0.23563614 -0.12891854 -0.083702065
2.1038888 1.3301023 -0.32506868 -1.3728995 -1.4200529 0.2785571 -0.18892124 -0.75482416
-0.30912215 2.9543207 2.0028288 -0.15394677 -0.37953344 -0.1532758 0.1026821 -0.21313234
2.4074023 -0.19742502 0.5734745 -0.5039938 -0.004653412 1.4359704 1.4096754 0.14953926
2.4443455 1.1045798 0.19669762 2.0932152 1.97342 -0.18096204 -0.33716193 -0.34732562
0.46531743 0.34990597 0.34595734 0.16473669 -0.23436685 -0.052527916 -0.23347607 0.90715116
0.78895754 0.18851927 0.5733143 0.50661135 0.08788883 0.8272235 0.983942 -0.10499031
0.66924596 2.5110517 -0.2987755 -0.17464112 0.0073998035 -0.42096215 0.2648814 -0.2015639
0.025699733 0.8591414 2.4004374 0.20588696 -1.6712922 -0.91245824
00000000: e1d8 79be 4d70 93bf e688 fdbe 579f b33e
00000010: 085e e93e a2d3 543f 2e6e 1f3e 44a6 0640
00000020: 3aa4 ddbf 4e85 eb3e f06e c8bf 31d3 b6bd
00000030: 9b03 41be 2ab2 0d40 805a bd3f 9b5c 0a3f
00000040: 8395 d4be 784b 2ebd a019 a1be a3b7 b83f
00000050: 8b45 7d3f 0ab5 a13e 1806 233f cbe1 9cbf
00000060: 5606 1e3f ea8b 343e 482d 283f ccbe 713e
00000070: 1706 953f e47c f13f 682e eabe 8356 833f
00000080: 77d4 9e3f d1e7 72be a5f8 c23d d6f7 84be
00000090: 6779 1b3e c75e 7b3f 991b 8a3f c940 a43e
000000a0: d476 43bf 2344 fd3d bfe9 b83d cd37 15c0
000000b0: 2456 71bf b0c9 4f3e 7c51 a6be cc54 683e
000000c0: fa8f 9abe a872 bcbe ac81 9e3f 153e 853d
000000d0: c91d 4640 5add 5a3f d925 c6be de1e e83f
000000e0: 423f a43f 1aa2 62be e651 2440 266c 903f
000000f0: 6cc1 9bbe a193 873e c3bd afbe 67bb dd3d
00000100: 3a88 ba3f 0fca 5b3f 0e23 07bf f0a3 1cc0
00000110: c991 2b3f f3e8 03bd 3b10 60bd b164 383d
00000120: a143 ecbe 00ab ca3e ec37 823e aed1 0cbe
00000130: 9f79 babd beb1 1bbe ce39 90be d613 3a3e
00000140: bcc0 c4be 4581 49be ce2c 2dbf b33c b53f
00000150: 8679 edbe 9a4a 71be 3903 04be fd6b abbd
00000160: 1da6 0640 cb40 aa3f 676f a6be 2cbb afbf
00000170: 4bc4 b5bf 099f 8e3e 9274 41be 283c 41bf
00000180: 4245 9ebe 9713 3d40 592e 0040 39a4 1dbe
00000190: 3552 c2be 55f4 1cbe fe4a d23d 5d3f 5abe
000001a0: e112 1a40 c929 4abe 3acf 123f bd05 01bf
000001b0: a67b 98bb e1cd b73f 3e70 b43f d220 193e
000001c0: 2870 1c40 df62 8d3f 1a6b 493e 3df7 0540
000001d0: 0799 fc3f 1d4e 39be 7da0 acbe aad4 b1be
000001e0: 163e ee3e e026 b33e 5221 b13e bcb0 283e
000001f0: ddfd 6fbe 8327 57bd 5a14 6fbe 0f3b 683f
00000200: 1ff9 493f 320b 413e bac4 123f 48b1 013f
00000210: 0fff b33d ebc4 533f 9fe3 7b3f 2905 d7bd
00000220: b453 2b3f 12b5 2040 1af9 98be 1fd5 32be
00000230: 0d7a f23b 5a88 d7be 899e 873e c466 4ebe
00000240: 3f88 d23c b1f0 5b3f c4a0 1940 08d4 523e
00000250: e7ec d5bf dd96 69bf

conv1.fc_self.weight f4 [50, 3]
-0.08669234 1.1148276 -1.9499096 -1.4851557 1.5827801 0.116581656 0.25322655 2.684022
1.771632 0.17838673 -0.95915496 -0.131531 -0.36406675 1.0002944 -2.0364358 -0.20075616
0.79118866 -1.002056 -0.18179756 1.1473857 0.75993556 -0.35629752 -0.27513313 2.1272347
0.64347464 1.9901124 -2.3597443 0.3996774 0.59339774 0.19539645 -0.03130408 2.1544113
0.35613665 -0.32349983 -0.37861413 0.34184352 0.20851664 0.9336329 0.18416184 0.33335188
0.35093388 -0.66634977 0.44358546 -0.50922537 -1.5011714 -0.030518282 -0.5516318 0.27695793
0.45886073 -3.61399 1.3854932 -0.007875516 2.8906736 0.5550355 0.30221382 0.66039467
1.9856801 0.18325569 2.3694205 1.1412687 0.3200283 -0.07021214 0.0012184768 0.077572584
0.9349377 0.5658787 0.19936539 -1.4945024 0.20480192 0.20903307 -0.0549592 -0.18932183
-0.2122151 -0.31401205 0.006603803 -0.32352564 -0.39611366 0.36776593 -0.27401355 0.32148832
-0.42155442 0.20235722 0.08163961 0.3919214 -0.036162004 -0.35066023 -0.33624193 0.08819969
2.2421222 0.893908 0.18444896 -3.861914 -1.5577118 -0.007156385 -0.5354617 0.21693015
0.19910558 2.4276528 -2.7583537 0.23965819 -0.36376843 -1.10453 -0.11265152 -0.69328666
3.5422194 0.41465136 0.08569538 -1.4811563 0.17538263 0.25086242 0.63084775 0.045861855
2.2815228 1.5914733 0.4926001 1.8950387 0.4966969 0.092876 -0.387639 0.21002892
-0.20827544 -0.32813647 -0.19799873 -0.015253905 0.20127478 -0.15421812 -1.3477578 1.3234109
0.39558268 -1.2204773 1.4647433 0.32577923 -0.16641279 1.1740577 1.2451699 0.27583674
0.051274233 3.0999699 -0.29054743 -0.2975147 -0.27841035 -0.034089897 -0.33244672 -0.2976526
-0.079828486 1.504593 0.8593634 -0.18774566 1.0931269 -0.7118097
00000000: c18b b1bd acb2 8e3f a396 f9bf 9519 bebf
00000010: 8a98 ca3f 5dc2 ee3d e9a6 813e 04c7 2b40
00000020: d6c4 e23f 03ab 363e 2e8b 75bf 10b0 06be
00000030: f566 babe a609 803f f754 02c0 0693 4dbe
00000040: 578b 4a3f 5f43 80bf 2429 3abe 89dd 923f
00000050: 238b 423f a16c b6be 40de 8cbe 9d24 0840
00000060: c1ba 243f 01bc fe3f 0d06 17c0 84a2 cc3e
00000070: eae8 173f 0216 483e b538 00bd e0e1 0940
00000080: 8b57 b63e c5a1 a5be b6d9 c1be 1d06 af3e
00000090: 6385 553e 9102 6f3f ec94 3c3e 19ad aa3e
000000a0: 9bad b33e e695 2abf a21d e33e 985c 02bf
000000b0: 6226 c0bf 7a01 fabc be37 0dbf 6ecd 8d3e
000000c0: cbef ea3e 9d4b 67c0 d757 b13f 4f08 01bc
000000d0: cc00 3940 ce16 0e3f c5bb 9a3e a00f 293f
000000e0: c42a fe3f 61a7 3b3e 96a4 1740 1815 923f
000000f0: c0da a33e 62cb 8fbd 4cb5 9f3a 60de 9e3d
00000100: 1458 6f3f 6ddd 103f 7126 4c3e db4b bfbf
00000110: 98b7 513e c40c 563e e61c 61bd 95dd 41be
00000120: ea4e 59be 30c6 a0be b764 d83b 27a5 a5be
00000130: 69cf cabe d14b bc3e 814b 8cbe 1e9a a43e
00000140: fbd5 d7be bb36 4f3e ab32 a73d eca9 c83e
00000150: 9c1e 14bd bd89 b3be e727 acbe 0aa2 b43d
00000160: ee7e 0f40 28d7 643f 30e0 3c3e 9929 77c0
00000170: 1a63 c7bf 1c80 eabb 0514 09bf f022 5e3e
00000180: 55e2 4b3e aa5e 1b40 de88 30c0 f568 753e
00000190: db3f babe 3d61 8dbf d7b5 e6bd 3c7b 31bf
000001a0: b9b3 6240 2f4d d43e 0f81 af3d 8896 bdbf
000001b0: 8197 333e 0a71 803e 3d7f 213f a4d9 3b3d
000001c0: 7804 1240 66b5 cb3f 1536 fc3e a190 f23f
000001d0: 0e4f fe3e c635 be3d 9e78 c6be d211 573e
000001e0: 2846 55be 8101 a8be 2ec0 4abe 84eb 79bc
000001f0: fa1a 4e3e 5beb 1dbe 5483 acbf 8765 a93f
00000200: d089 ca3e 9a38 9cbf b57c bb3f 89cc a63e
00000210: 1d68 2abe 8647 963f ba61 9f3f 793a 8d3e
00000220: ee04 523d e865 4640 a2c2 94be d953 98be
00000230: cd8b 8ebe d9a1 0bbd 7536 aabe ec65 98be
00000240: 1e7d a3bd 8196 c03f 3dff 5b3f 6640 40be
00000250: 95eb 8b3f 2939 36bf

conv1.fc_self.bias f4 [50]
0.48308924 -0.03082791 -0.4043606 0.38760337 0.54629993 0.3517515 0.51499605 0.030476237
-0.18443795 -0.46468854 0.33064795 -0.39577526 0.15372638 0.40635854 0.12405214 0.2573452
-0.19656391 -0.044249423 0.07692498 0.06820268 -0.42306334 -0.0687385 -0.014315008 -0.5109594
-0.57510215 -0.3042862 -0.49043518 0.48998916 -4.404833e-06 0.030838974 0.34414795 0.2538323
0.106847286 0.41119698 -0.050225202 -0.12509207 0.22588223 -0.19740024 -0.31944767 -0.2663809
-0.41361555 -0.46255633 -0.019020487 -0.102226056 0.13877882 -0.14309476 -0.21363853 -0.56149757
0.3021229 0.41738814
00000000: 7957 f73e d08a fcbc 5a08 cfbe f373 c63e
00000010: 50da 0b3f c618 b43e c8d6 033f 4da9 f93c
00000020: 4ddd 3cbe a8eb edbe b04a a93e 0ea3 cabe
00000030: 736a 1d3e 3a0e d03e 0c0f fe3d c0c2 833e
00000040: 0d48 49be e23e 35bd d88a 9d3d d9ad 8b3d
00000050: c29b d8be c5c6 8cbd 7f89 6abc 3cce 02bf
00000060: e539 13bf 67cb 9bbe 521a fbbe dcdf fa3e
00000070: 3acd 93b6 04a2 fc3c 2934 b03e 4ff6 813e
00000080: c0d2 da3d 6988 d23e f1b8 4dbd 2318 00be
00000090: ac4d 673e 4a23 4abe a58e a3be 1463 88be
000000a0: 6bc5 d3be 2fd4 ecbe dad0 9bbc e55b d1bd
000000b0: 091c 0e3e 6f87 12be 0fc4 5abe 4ebe 0fbf
000000c0: daaf 9a3e e6b3 d53e

conv2.weight f4 [50, 40]
-0.012231001 -0.03840689 0.105819695 0.26151738 0.25664216 0.09370673 0.5672586 -0.17489229
-0.14879501 0.12673187 0.04940625 -0.21532404 -0.24824113 0.0018703935 0.24749915 0.19586883
0.24038196 0.0047236076 0.21822827 -0.109993696 0.0844539 0.12168837 -0.1926552 0.35163465
0.1097157 -0.1353569 0.5030762 0.69197345 -0.07971743 0.12067024 -0.38599437 -0.1198282
0.066076264 -0.08602294 0.0808033 0.11196663 0.17158753 -0.09959561 0.013157995 0.0684119
0.70931566 -2.3381307 -0.067292824 0.8198328 -0.649072 0.10363603 -0.8679826 0.05995347
-3.3038516 -0.21544549 0.82382756 0.006668768 -0.17225517 -0.2813418 -1.1789366 -0.37466884
1.1055584 -0.0012827751 0.051748782 -0.18844432 2.023225 0.56380373 -0.67400867 2.4388568
-0.076617196 -0.069508605 2.2517855 1.9399753 0.25646645 -0.21147747 0.9045236 -4.6229796
-0.17884727 0.084265135 -0.11230208 0.05376747 -1.1635264 0.14289992 -0.6651812 0.19836095
-0.10737342 1.2136879 0.07834997 -0.41984275 1.1098343 1.25718 -1.8784583 0.16840822
-0.44364837 0.10282977 1.3860844 -0.061199915 -0.22170222 -0.11873229 1.4064131 -0.331944
-0.63872224 -0.05162131 0.6049663 -0.19153477 -0.49926454 1.8513519 0.13529696 0.059852865
-0.10679622 0.49573073 -0.34930193 -0.15372649 0.83965766 1.3107892 0.1451089 -1.1040716
1.0045214 1.796761 -0.20002681 1.1235652 0.47081232 1.6422739 0.41481614 -0.19099377
-0.07313937 0.019274157 -0.04215062 0.20605852 0.2793673 -0.14054139 0.9333373 0.117598996
-0.16201682 -0.06402474 -0.059019897 -0.07072057 0.17736965 -0.26058748 -0.14257649 -0.07825708
0.14035048 -0.18532453 0.13170734 0.19473743 -0.45811802 -0.030983802 -0.1236597 -0.11279928
0.04652821 0.20339757 -0.5204745 -0.12362813 -0.21294081 -0.09684047 -0.11703934 0.30258432
-0.25908625 -0.0047821184 -0.17943914 0.47352552 0.24747789 -0.16802709 -0.051199067 0.07668902
0.37678614 0.48422632 0.19719 -0.6827209 1.0220615 0.5510423 -0.732601 -0.036981393
-2.0883799 -0.11725721 2.263573 -0.25210637 0.14670919 -0.049772162 0.5799314 -0.24590798
-0.10382078 -0.025346395 0.8073865 0.21926734 0.29551196 1.5282663 -0.35041663 -0.16590975
-0.095344566 0.40389195 0.23833488 0.17192607 1.1529515 0.97088593 -0.24051079 -1.9623787
0.24868533 1.075817 -0.16092989 1.0745789 0.7327315 1.5270349 0.41358587 -0.011255014
0.01598517 -0.15277173 -0.10358568 0.19069439 0.4469328 -0.15621515 0.834232 -0.043985877
0.07609205 0.21730132 0.26173413 0.17055762 -0.22247787 0.06488282 -0.17552453 0.13367964
-0.12867546 -0.18103151 -0.00080156786 0.06663964 -0.25594422 0.027882703 -0.002399298 0.17300993
0.15901825 -0.20094524 -0.16236503 0.26229486 -0.01226419 0.23823783 -0.40481123 0.0043531167
0.10037587 -0.2906078 0.20638998 0.388472 0.28210816 0.12294822 -0.018648958 -0.1764545
-0.15362377 0.08119399 0.09233442 -0.014566001 0.7275733 0.4844011 0.55032134 0.11919108
-0.05925178 -0.15210067 0.6379408 -0.14069095 -0.15475906 0.19597773 0.41704044 -0.04988307
00000000: 8964 48bc 8b50 1dbd ffb7 d83d 9be5 853e
00000010: 9a66 833e 50e9 bf3d dc37 113f f716 33be
00000020: b85d 18be 00c6 013e 355e 4a3d e87d 5cbe
00000030: ec32 7ebe fe27 f53a 6b70 7d3e d791 483e
00000040: b026 763e 7ec8 9a3b 3b77 5f3e 6044 e1bd
00000050: 2bf6 ac3d c137 f93d 6847 45be 7509 b43e
00000060: a0b2 e03d 009b 0abe 9ac9 003f 2c25 313f
00000070: e442 a3bd f521 f73d 0ea1 c5be 7d68 f5bd
00000080: fe52 873d cc2c b0bd 337c a53d c34e e53d
00000090: a4b4 2f3e c8f8 cbbd a294 573c 8a1b 8c3d
000000a0: b695 353f efa3 15c0 d2d0 89bd 90e0 513f
000000b0: 9529 26bf 203f d43d 1c34 5ebf c591 753d
000000c0: 4e72 53c0 be9d 5cbe 5de6 523f ae85 da3b
000000d0: a963 30be 080c 90be 65e7 96bf 98d4 bfbe
000000e0: f082 8d3f ca22 a8ba 88f6 533d 8cf7 40be
000000f0: 857c 0140 7155 103f d58b 2cbf 3b16 1c40
00000100: 7ae9 9cbd 875a 8ebd 411d 1040 1c51 f83f
00000110: 924f 833e 8d8d 58be dc8e 673f 73ef 93c0
00000120: bd23 37be 3393 ac3d a2fe e5bd 473b 5c3d
00000130: 6fee 94bf 5b54 123e 5149 2abf 221f 4b3e
00000140: 98e6 dbbd 205a 9b3f f375 a03d a1f5 d6be
00000150: 0d0f 8e3f 46eb a03f 5271 f0bf 3473 2c3e
00000160: e125 e3be 6a98 d23d 376b b13f c3ac 7abd
00000170: e805 63be ea29 f3bd 5805 b43f 90f4 a9be
00000180: 4d83 23bf de70 53bd 12df 1a3f b121 44be
00000190: 9a9f ffbe 19f9 ec3f 498b 0a3e 4728 753d
000001a0: fab7 dabd 6bd0 fd3e b4d7 b2be 7a6a 1dbe
000001b0: cef3 563f f1c7 a73f 6d97 143e 3852 8dbf
000001c0: 2894 803f 44fc e53f d4d3 4cbe fcd0 8f3f
000001d0: 500e f13e 0836 d23f c862 d43e df93 43be
000001e0: 18ca 95bd d6e4 9d3c 21a6 2cbd 0101 533e
000001f0: 3b09 8f3e 15ea 0fbe 31ef 6e3f bed7 f03d
00000200: bde7 25be 671f 83bd d9be 71bd f2d5 90bd
00000210: 64a0 353e b96b 85be 92ff 11be 3f45 a0bd
00000220: 09b8 0f3e b7c5 3dbe 4ade 063e 4069 473e
00000230: 728e eabe bed1 fdbc 4c41 fdbd 4f03 e7bd
00000240: 5d94 3e3d 7447 503e d13d 05bf bf30 fdbd
00000250: 280d 5abe 4c54 c6bd 52b2 efbd 55ec 9a3e
00000260: f4a6 84be 51b3 9cbb e5be 37be f071 f23e
00000270: d86a 7d3e 4b0f 2cbe 1db6 51bd 220f 9d3d
00000280: 1dea c03e 83ec f73e 2dec 493e ccc6 2ebf
00000290: e9d2 823f 1c11 0d3f bd8b 3bbf cd79 17bd
000002a0: 04a8 05c0 8c24 f0bd 61de 1040 1614 81be
000002b0: ef3a 163e e5dd 4bbd 6276 143f 4dcf 7bbe
000002c0: fd9f d4bd 3ea3 cfbc e2b0 4e3f 9e87 603e
000002d0: 584d 973e 3b9e c33f cf69 b3be 3fe4 29be
000002e0: 0344 c3bd edca ce3e 0f0e 743e 630d 303e
000002f0: ea93 933f fb8b 783f 7648 76be 3a2f fbbf
00000300: 5ea7 7e3e 5fb4 893f ceca 24be cd8b 893f
00000310: 4b94 3b3f e175 c33f 87c1 d33e f366 38bc
00000320: 55f3 823c 3170 1cbe bb24 d4bd 6445 433e
00000330: 60d4 e43e ddf6 1fbe 3a90 553f 892a 34bd
00000340: 26d6 9b3d 3d84 5e3e 0402 863e a8a6 2e3e
00000350: 3dd1 63be 49e1 843d b4bc 33be 51e3 083e
00000360: 80c3 03be 5360 39be 4f20 52ba 5d7a 883d
00000370: 1f0b 83be 446a e43c 8a3d 1dbb 8429 313e
00000380: aed5 223e 97c4 4dbe 0543 26be 834b 863e
00000390: beef 48bc 9ef4 733e 6b43 cfbe 97a4 8e3b
000003a0: dd91 cd3d 8cca 94be e557 533e cde5 c63e
000003b0: 7b70 903e 47cc fb3d b3c5 98bc 7db0 34be
000003c0: 8d4f 1dbe 0949 a63d d419 bd3d 3ca6 6ebc
000003d0: 3e42 3a3f 6c03 f83e dce1 0c3f 741a f43d
000003e0: ffb1 72bd 47c0 1bbe 1750 233f 4a11 10be
000003f0: 2979 1ebe 63ae 483e 5386 d53e 3152 4cbd

conv2.bias f4 [40]
0.014772436 -0.028051127 -0.06639061 -0.27323207 -0.13971552 -0.010517008 -0.28191602 -0.01351355
0.331972 0.00034744962 -0.61831313 -0.022737734 0.0 -0.046686742 0.10769014 -0.15514575
-0.17960271 -0.03152421 0.22882809 -0.024898965 -0.18776488 -0.16619064 0.15433162 0.012800847
-0.01288813 -0.0060065566 -0.12418223 0.124083996 -0.006762812 0.0801723 -0.15900865 0.14168978
-0.43366158 -0.13442959 -0.016485652 -0.40673274 0.03602781 -0.6453094 -0.5310737 -0.014577807
00000000: 1608 723c 7acb e5bc cdf7 87bd 13e5 8bbe
00000010: 9611 0fbe 874f 2cbc 4c57 90be f067 5dbc
00000020: 3cf8 a93e e629 b639 c549 1ebf 7c44 babc
00000030: 0000 0000 993a 3fbd a68c dc3d 87de 1ebe
00000040: c6e9 37be 881f 01bd e951 6a3e eaf8 cbbc
00000050: 7045 40be e12d 2abe 1c09 1e3e a5ba 513c
00000060: bc28 53bc a6d2 c4bb 4153 febd c01f fe3d
00000070: 949a ddbb 6031 a43d 2ad3 22be 2017 113e
00000080: e408 debe e9a7 09be eb0c 87bc 463f d0be
00000090: e691 133d ff32 25bf 72f4 07bf c1d7 6ebc

conv3.fc_neigh.weight f4 [30, 40]
-0.08008369 0.05545623 -0.4077981 0.1384019 -0.01807927 0.028397437 0.14867005 -0.14430188
0.25305083 -0.27185285 0.046354968 -0.2551633 0.0067492207 -0.267786 0.15349206 0.18520743
-0.22996639 -0.3369683 -0.27900308 -0.08558219 -0.028967164 0.13534649 0.1874301 0.12230454
0.081664614 -0.35985142 0.10640195 0.91132504 0.20507878 0.30178887 -0.56004757 0.29185992
-0.576498 0.26477948 0.12470221 0.18245938 0.2991289 -0.16702107 0.15121506 -0.16058855
-0.38008147 -0.32108945 0.40276605 0.15278149 0.64176255 -0.05781065 0.32185894 -0.40059254
-0.31537026 0.3832657 -0.010156286 -0.24251297 -0.12073574 0.07040865 -0.16907613 0.59667295
0.41811863 -0.18244165 -0.20114608 -0.19175184 -0.31411687 0.40248442 0.23235144 0.07708742
-0.22543715 0.308591 0.44338357 0.8776528 -0.4685985 -0.59117025 -0.1330672 0.2659566
-0.7245322 -0.22710468 -0.33052886 0.4050456 0.5033484 -0.2048158 0.34649357 -0.35458148
-0.06510638 -0.25959417 0.41292152 -0.22606498 0.019558651 0.033882912 0.3197003 0.27676633
-0.16789502 0.38186252 0.3665575 0.041227113 0.32554963 0.3612804 -0.16018803 -0.18104443
0.09309715 -0.1508369 0.20310625 -0.18754241 0.6820197 0.016346527 -0.61405087 1.2021984
-0.25154978 0.30975878 0.78803724 0.6127225 0.123855576 -0.10465567 -0.50671065 0.1921999
-0.8890557 -0.32335284 0.021896856 0.2655893 0.20192377 -0.14271289 -0.52739346 -0.37647855
-0.19604191 -0.32022235 -0.15937158 0.18430291 0.051495545 -0.28527665 -0.04765895 -0.24585225
0.30930948 -0.30909583 -0.24678135 0.05882363 0.25201842 -0.19878612 0.09889374 -0.24717306
0.024407944 -0.39110383 0.23774101 0.108489595 -0.12971695 -0.3552365 0.19292721 -0.2464703
-0.33974713 -0.31571385 -0.33054987 0.23884173 0.2907056 -0.081190005 0.2418823 -0.20251314
-0.03050772 0.31373328 0.043611895 -0.37831637 -0.36346835 -0.110520154 -0.31157973 -0.4137619
-0.32578552 0.012243456 -0.33825475 -0.2214378 -0.29488173 0.04350805 -0.292593 -0.32157794
-0.5158754 0.06874487 -0.2717371 0.1870996 -0.081667736 0.24255067 0.31991035 -0.28445235
-0.4181959 -0.15410209 -0.1787508 0.21437585 0.11849527 0.008944238 -0.77846694 0.26985204
0.37358606 0.17724504 0.17577647 -0.2785554 0.3195284 0.10192043 0.5406792 -0.34314713
-0.05178811 0.1534577 0.2756928 -0.03932929 -0.3936528 0.3650248 0.25971955 0.39865625
0.3250795 -0.110126264 -0.2880688 0.40710703 -0.14218198 0.17720349 0.22698332 -0.27356353
0.24846517 -0.20288303 0.257066 -0.0027577328 -0.25253177 0.095069475 -0.18929009 -0.25371033
-0.29758644 -0.19511726 0.15667321 0.3728956 1.4207524 0.06768522 -0.33466008 0.9931864
-0.3257514 0.54077166 0.93548834 0.4198238 0.436737 0.44234812 0.95424014 0.10001752
-0.5128543 0.014722802 0.21005902 0.30352515 -0.26642913 0.07951797 -0.25033247 -0.3328935
-0.29117966 -0.16414137 0.31143117 -0.058478177 -0.23884399 -0.40298948 0.020963196 -0.12457387
-0.28640744 -0.14437905 -0.29915407 -0.24040908 -0.25870135 0.3021063 0.09607282 0.17433979
00000000: eb02 a4bd 1226 633d eaca d0be 3ab9 0d3e
00000010: fa1a 94bc bea1 e83c f63c 183e dfc3 13be
00000020: e18f 813e 4c30 8bbe b5de 3d3d c4a4 82be
00000030: 9128 dd3b 3f1b 89be 062d 1d3e 04a7 3d3e
00000040: 4f7c 6bbe 1c87 acbe 7ed9 8ebe b745 afbd
00000050: 8c4c edbc 4598 0a3e aded 3f3e cd7a fa3d
00000060: c73f a73d 723e b8be 44e9 d93d 994c 693f
00000070: 2c00 523e 1284 9a3e 475f 0fbf aa6e 953e
00000080: 5f95 13bf 2d91 873e df63 ff3d a2d6 3a3e
00000090: 6c27 993e 9207 2bbe 1fd8 1a3e 5371 24be
000000a0: 0a9a c2be d665 a4be 5a37 ce3e c072 1c3e
000000b0: 8d4a 243f dcca 6cbd b2ca a43e 771a cdbe
000000c0: 3678 a1be 673b c43e 8d66 26bc 5255 78be
000000d0: 4d44 f7bd 6932 903d 4b22 2dbe 8fbf 183f
000000e0: a513 d63e fcd1 3abe 3df9 4dbe 985a 44be
000000f0: edd3 a0be 7012 ce3e 89ed 6d3e 02e0 9d3d
00000100: ffd8 66be a4ff 9d3e 2c03 e33e dbad 603f
00000110: 25ec efbe ef56 17bf c542 08be 772b 883e
00000120: f17a 39bf 218e 68be 143b a9be 2362 cf3e
00000130: 71db 003f 3cbb 51be 9b67 b13e b48b b5be
00000140: 7e56 85bd 87e9 84be 736a d33e 947d 67be
00000150: 7739 a03c cfc8 0a3d c2af a33e 51b4 8d3e
00000160: acec 2bbe 7c83 c33e 6dad bb3e c3dd 283d
00000170: 71ae a63e bff9 b83e 5508 24be b663 39be
00000180: b8a9 be3d fd74 1abe 16fb 4f3e 1e0b 40be
00000190: d898 2e3f 27e9 853c 7032 1dbf a3e1 993f
000001a0: 22cb 80be b498 9e3e cfbc 493f 62db 1c3f
000001b0: fea7 fd3d b655 d6bd cab7 01bf 0dd0 443e
000001c0: 2899 63bf 818e a5be 0961 b33c 52fb 873e
000001d0: 1bc5 4e3e 5423 12be 4203 07bf ccc1 c0be
000001e0: 36bf 48be 2ff4 a3be 4e32 23be e7b9 3c3e
000001f0: feec 523d c80f 92be 0836 43bd b1c0 7bbe
00000200: d05d 9e3e cf41 9ebe 40b4 7cbe 0cf1 703d
00000210: 8f08 813e 978e 4bbe cd88 ca3d ef1a 7dbe
00000220: 2bf3 c73c c33e c8be 6172 733e cb2f de3d
00000230: 85d4 04be 8fe1 b5be b68e 453e b662 7cbe
00000240: 56f3 adbe 3fa5 a1be d53d a9be ed92 743e
00000250: 5dd7 943e f246 a6bd feaf 773e 9b5f 4fbe
00000260: 53eb f9bc a6a1 a03e 63a2 323d afb2 c1be
00000270: 8618 babe 6458 e2bd 6187 9fbe 9ad8 d3be
00000280: 5ccd a6be c798 483c ba2f adbe 97c0 62be
00000290: bdfa 96be 7f35 323d c0ce 95be dda5 a4be
000002a0: 6910 04bf 1cca 8c3d 2021 8bbe 0a97 3f3e
000002b0: 6a41 a7bd 345f 783e 4acb a33e bda3 91be
000002c0: c61d d6be f0cc 1dbe 730a 37be 5885 5b3e
000002d0: a6ad f23d da8a 123c 9c49 47bf 0c2a 8a3e
000002e0: ac46 bf3e b97f 353e bffe 333e d09e 8ebe
000002f0: 3a99 a33e a9bb d03d f469 0a3f fbb0 afbe
00000300: c51f 54bd 0424 1d3e 9b27 8d3e c017 21bd
00000310: dc8c c9be 88e4 ba3e f6f9 843e ac1c cc3e
00000320: d270 a63e e189 e1bd c17d 93be 5570 d03e
00000330: 2798 11be d574 353e 516e 683e 8510 8cbe
00000340: a76d 7e3e 92c0 4fbe 289e 833e 14bb 34bb
00000350: d84b 81be c9b3 c23d 43d5 41be 52e6 81be
00000360: 405d 98be d2cc 47be f16e 203e 2cec be3e
00000370: 37db b53f 8c9e 8a3d 9158 abbe 7741 7e3f
00000380: e3c8 a6be 0370 0a3f 2a7c 6f3f 25f3 d63e
00000390: fe9b df3e 747b e23e 1549 743f fcd5 cc3d
000003a0: 6b4a 03bf e837 713c b619 573e a667 9b3e
000003b0: 6669 88be 51da a23d 942b 80be 0471 aabe
000003c0: 8015 95be ad14 28be e873 9f3e d086 6fbd
000003d0: 8593 74be a354 cebe 02bb ab3c 9620 ffbd
000003e0: ffa3 92be 1ad8 13be b92a 99be cc2d 76be
000003f0: 8174 84be adad 9a3e d4c1 c43d 2186 323e

conv3.fc_self.weight f4 [30, 40]
0.19487527 -0.019589523 -0.037998773 -0.4083767 -0.12719975 -0.15035498 0.35319886 0.20819864
-0.0069729034 -0.11299086 -0.27657154 0.39118442 0.068212576 0.04318194 -0.10930419 0.36229908
0.18888144 -0.38315353 0.13728632 0.3171783 0.15736634 -0.16818607 0.21430548 0.16382943
-0.21381082 0.17638722 0.6646333 0.92208153 0.19991656 0.29423177 -0.4857647 -0.31539926
-0.6025003 0.18419388 -0.1174843 -0.034621507 0.11405349 -0.43704256 -0.21397418 -0.38579726
0.32878265 -0.20478953 0.32796368 -0.14688061 0.16688704 0.053626604 -0.21595858 -0.036424324
-0.33354107 0.0705407 0.22804707 -0.1949293 0.06866464 -0.1548401 0.4720136 -0.2630443
0.287478 0.10436652 -0.40440017 0.19139987 -0.4389734 -0.058255628 -0.5944623 -0.4241373
-0.20612618 -0.24850932 -0.2306551 0.7857248 -0.06394804 -0.7491556 -0.7498743 0.10128389
0.17541584 0.2330796 -0.18350707 0.0014683723 0.10140331 0.25627777 -0.47962794 -0.35371208
0.3411198 0.563188 -0.18702863 -0.43258667 0.26529437 0.35375974 -0.38532132 0.37445396
-7.0231617e-06 -0.22166719 0.021309799 0.31441033 -0.3388131 -0.05428161 0.16039571 0.29114822
-0.08270114 0.29752296 0.45219022 -0.28422493 0.55057096 0.36072114 -0.34557015 1.0858794
-0.115676664 -0.14109053 1.059922 0.9528254 -0.056214623 0.4620049 -0.023635807 -0.34080598
-0.6732895 0.44296595 0.09092379 -0.2507077 0.17369564 -0.114011765 0.038541198 -0.3934739
0.060361456 0.20476976 0.32057986 -0.15231906 -0.39900982 0.15846992 -0.00013227767 0.24578418
0.07609134 0.1874138 -0.14881907 -0.30268106 0.07222439 0.36698523 0.06221576 -0.08295991
-0.3851813 0.165872 -0.22864643 -0.035150174 0.20834492 -0.21524586 -0.12452436 0.36950445
-0.20002949 0.28924644 -0.21010949 3.4599492e-05 0.028226128 -0.27996552 0.16681877 0.050521627
0.24928465 -0.09141457 0.21436433 -0.28524336 0.0928871 -0.36049518 0.09856961 0.3824367
-0.2067426 0.46744043 0.044469967 0.47565004 0.43203017 -0.25049335 0.41819468 -0.19770107
-0.3948792 0.35083634 0.68563986 -0.12346045 0.017137805 0.19076923 -0.09178406 0.01209634
0.481744 -0.102239475 0.6365578 -0.10223008 0.021492511 0.5749573 -1.2627828 0.55545264
-0.04107518 0.486421 -0.05225316 -0.15357861 0.371129 0.4001948 0.4498164 -0.26298586
-0.67430514 0.24722366 0.110047095 -0.101536736 0.5073586 0.67346156 0.7855137 -0.075564064
0.07420377 -0.016558258 0.37673718 -0.42301536 0.39459166 0.41843176 -0.32238913 0.33242583
0.18468449 -0.38923663 -0.0045508863 0.1885606 0.19643475 -0.33521914 0.16068651 -0.35332367
-0.20118566 -0.30963176 0.5845512 0.18049252 1.5150858 0.72200656 0.0031364148 1.6976126
-0.28977972 0.18152818 0.8902566 0.97371405 0.52847344 -0.056852352 0.95213866 0.18351032
-0.0006907275 0.28149632 -0.27564907 0.15704893 -0.21892032 0.12678997 0.23537472 -0.16044925
0.2833553 -0.11516434 0.17667064 -0.36415896 0.026134709 -0.2701453 -0.096263684 0.056559805
-0.26217806 0.018847296 0.3610887 -0.10290383 -0.028708695 -0.077339835 0.10801868 0.01759589
00000000: 628d 473e 357a a0bc 9aa4 1bbd c016 d1be
00000010: a740 02be a8f6 19be 7bd6 b43e 0632 553e
00000020: f47c e4bb c167 e7bd c99a 8dbe 5349 c83e
00000030: 09b3 8b3d 8cdf 303d e0da dfbd 447f b93e
00000040: 236a 413e b32c c4be c994 0c3e 3265 a23e
00000050: a424 213e f838 2cbe e572 5b3e e7c2 273e
00000060: 39f1 5abe da9e 343e 6825 2a3f 890d 6c3f
00000070: edb6 4c3e 8ca5 963e 27b6 f8be 037c a1be
00000080: 763d 1abf 529d 3c3e 9c9b f0bd 48cf 0dbd
00000090: e094 e93d 0bc4 dfbe 0c1c 5bbe 3887 c5be
000000a0: 3356 a83e 59b4 51be dbea a73e df67 16be
000000b0: 70e4 2a3e 92a7 5b3d 3f24 5dbe ac31 15bd
000000c0: e5c5 aabe a477 903d 2c85 693e 8c9b 47be
000000d0: 0ca0 8c3d 678e 1ebe c4ab f13e bead 86be
000000e0: 5130 933e 1dbe d53d 8a0d cfbe 54fe 433e
000000f0: 1fc1 e0be 749d 6ebd ae2e 18bf 8628 d9be
00000100: be12 53be 3a79 7ebe da30 6cbe 4325 493f
00000110: 31f7 82bd a9c8 3fbf c3f7 3fbf ee6d cf3d
00000120: 36a0 333e 6bac 6e3e 47e9 3bbe 6676 c03a
00000130: 8aac cf3d d736 833e cb91 f5be c019 b5be
00000140: 41a7 ae3e 172d 103f 6f84 3fbe 007c ddbe
00000150: aad4 873e ff1f b53e d648 c5be 6eb8 bf3e
00000160: 80a8 ebb6 b9fc 62be e391 ae3c 64fa a03e
00000170: e978 adbe 6556 5ebd c63e 243e 6111 953e
00000180: 375f a9bd ee54 983e 7a85 e73e ee85 91be
00000190: 38f2 0c3f 71b0 b83e 92ee b0be 19fe 8a3f
000001a0: e3e7 ecbd 097a 10be 86ab 873f 5eec 733f
000001b0: 4e41 66bd e88b ec3e e19f c1bc 1f7e aebe
000001c0: b35c 2cbf 6fcc e23e 4136 ba3d c25c 80be
000001d0: 45dd 313e 007f e9bd 60dd 1d3d 6975 c9be
000001e0: 933d 773d 2aaf 513e 0b23 a43e 87f9 1bbe
000001f0: 044b ccbe f045 223e 04b4 0ab9 d9ae 7b3e
00000200: c7d5 9b3d 67e9 3f3e 0764 18be 03f9 9abe
00000210: 62ea 933d 7de5 bb3e f4d5 7e3d e3e6 a9bd
00000220: 7c36 c5be 59da 293e 4a22 6abe a1f9 0fbd
00000230: 5f58 553e 6969 5cbe a106 ffbd b02f bd3e
00000240: 88d4 4cbe 1c18 943e f126 57be ec1e 1138
00000250: 7b3a e73c a457 8fbe 8ad2 2a3e c4ef 4e3d
00000260: 7a44 7f3e 9037 bbbd 5382 5b3e 6b0b 92be
00000270: 983b be3d d392 b8be ddde c93d bece c33e
00000280: 55b4 53be 5a54 ef3e 2426 363d 6788 f33e
00000290: 0f33 dd3e aa40 80be 9d1d d63e 2672 4abe
000002a0: 9b2d cabe d2a0 b33e 1886 2f3f d5d8 fcbd
000002b0: 9564 8c3c 0259 433e 48f9 bbbd ba2f 463c
000002c0: 26a7 f63e ee62 d1bd 74f5 223f 015e d1bd
000002d0: 1011 b03c 6730 133f dea2 a1bf 2532 0e3f
000002e0: 733e 28bd 2c0c f93e 6907 56bd b643 1dbe
000002f0: 9f04 be3e 55e6 cc3e 564e e63e 15a6 86be
00000300: 439f 2cbf 3328 7d3e 5f60 e13d 7ef2 cfbd
00000310: 41e2 013f fa67 2c3f 6d17 493f 55c1 9abd
00000320: 25f8 973d 2fa5 87bc b2e3 c03e 7895 d8be
00000330: eb07 ca3e b03c d63e 3010 a5be b833 aa3e
00000340: ee1d 3d3e 064a c7be 9a1f 95bb 0816 413e
00000350: 3126 493e d8a1 abbe 018b 243e d7e6 b4be
00000360: 9d03 4ebe 0e88 9ebe 26a5 153f 08d3 383e
00000370: 55ee c13f 6cd5 383f 4f8c 4d3b 5f4b d93f
00000380: 025e 94be 86e2 393e dbe7 633f 5345 793f
00000390: 094a 073f 03de 68bd 5cbf 733f 21ea 3b3e
000003a0: f011 35ba 4920 903e e021 8dbe 6fd1 203e
000003b0: a62c 60be 3bd5 013e 1206 713e cf4c 24be
000003c0: f213 913e 48db ebbd 26e9 343e 0b73 babe
000003d0: 7518 d63c 7c50 8abe e525 c5bd 41ab 673d
000003e0: 343c 86be a565 9a3c 9ee0 b83e 3ebf d2bd
000003f0: 7f2e ebbc 5964 9ebd e638 dd3d 4225 903c

conv3.fc_self.bias f4 [30]
0.17088313 -0.025398599 0.2936919 0.035183538 -0.11797343 0.09860418 -0.03041025 0.59719944
-0.00020149586 -0.32843673 -0.10455409 -0.2683389 -0.17181818 -0.298377 -0.01879798 -0.40883645
0.0673746 0.010896072 -0.20036179 -0.08744785 -0.2079776 0.088114694 0.106839426 -0.01577384
-0.06943812 -0.15797897 -0.06582396 -0.108151086 -0.26882532 0.14501867
00000000: fdfb 2e3e b910 d0bc c95e 963e 9d1c 103d
00000010: 0e9c f1bd fdf0 c93d eb1e f9bc 10e2 183f
00000020: a248 53b9 dc28 a8be 7420 d6bd b763 89be
00000030: 1bf1 2fbe dfc4 98be 39fe 99bc 0353 d1be
00000040: b2fb 893d 7085 323c a42b 4dbe dc17 b3bd
00000050: 14f8 54be 7a75 b43d a1ce da3d 2438 81bc
00000060: 9335 8ebd 3dc5 21be b6ce 86bd 517e ddbd
00000070: 79a3 89be c67f 143e

conv4.fc_neigh.weight f4 [20, 30]
0.17476062 0.28868115 -0.14541493 -0.14352326 0.1565705 -0.0587167 -0.24208975 -0.27428082
-0.042805545 -0.39027393 -0.032603808 -0.45778278 0.24453089 0.46205127 0.044127624 0.33571047
-0.301567 -0.58317006 -0.21324795 0.14728536 -0.27600455 -0.53813726 0.06147166 0.037059017
0.03987803 0.15829659 -0.4092189 0.011770305 -0.34856156 -0.04320655 -0.38253096 -0.3847853
-0.011965246 -0.23689567 -0.38520217 0.25471464 -0.074051626 -0.15177421 0.20325167 -0.08502199
-0.39932117 0.4250471 -0.1954676 0.040853698 0.3886761 -0.48765022 -0.12020055 0.4164574
0.15287954 -0.10034296 -0.28473207 -0.098015584 0.15654114 0.293168 0.45687357 -0.28732476
0.067298226 -0.29639754 0.18692076 -0.0054854644 -0.08054474 -0.078313954 0.2754444 0.33117667
-0.06702686 0.014150069 -0.15395977 0.39152065 0.16164765 -0.11704684 -0.36250645 0.21471651
-0.11026582 1.6116929 -0.27143788 -0.26899812 0.12297352 0.46361244 -0.26767403 0.011264579
-0.73409694 -0.24015923 -0.5183854 0.23168954 -0.11675969 0.13260885 -0.4267393 0.09744139
0.5019583 0.041920103 -0.49227825 -0.2685264 -0.3141364 0.004110044 0.26324835 0.5771852
0.30682406 0.08651065 0.012145063 0.2886321 0.055528704 -0.006077963 -0.30646282 1.6086154
-0.28426608 0.18442298 0.21804656 0.007283809 0.2909541 -0.23098405 -0.53454334 -0.08325206
-0.25781345 0.007705806 0.37387425 -0.27364704 0.13487442 0.097916074 0.7852561 0.079421416
-0.4941017 -0.15851158 0.22559759 -0.2840016 0.23280433 0.49866092 0.23936555 0.3478208
-0.3012473 -0.023058254 -0.44415262 -0.11304225 -0.31729114 -0.8016815 -0.23689969 -0.33784723
0.2817129 -0.47250506 0.12589079 -0.2573931 0.23639283 0.38694614 -0.14147751 0.14027736
0.31752393 -0.311001 -0.280241 0.02173271 -1.7409453 0.087808326 -0.16628034 0.4992211
0.4638909 0.3361422 -0.38608518 0.61584496 0.1266726 -0.08631526 -0.49283028 -0.48244187
0.16128439 -0.55826503 -0.24626513 0.8131839 0.13013695 -0.46647954 -0.3416938 -0.17020637
-0.45681167 -0.38633144 0.30838314 -0.07175337 -0.13447572 0.16524634 0.17459142 0.06387784
0.39202428 -0.10863283 -0.581438 0.29767433 0.07289422 -0.2711111 0.038312346 0.37532666
-0.431295 0.08648657 -0.3858833 0.46980974 0.26905107 -0.39636743 0.24596836 -0.470384
-0.16126385 2.6098866 -0.08848829 0.29220414 -0.3929453 0.24923296 0.1227947 -0.098172955
0.6199549 0.61623645 0.8543048 0.277969 -0.42362505 -0.48129532 0.2613616 0.24521422
0.20208314 0.29819104 0.054337554 -0.26100376 0.26892203 0.33491594 -0.56125927 -0.111368835
0.001491429 0.035978615 -0.16633813 -0.021511069 -0.09276326 -0.56310815 -0.2712845 1.34116
-0.34803957 -0.32850656 -0.41768235 0.27246985 -0.4870112 -0.15656929 0.50409526 0.19608752
-0.10125886 -0.32728258 -0.12819754 -0.16110878 -0.25285912 0.13805962 0.142393 -0.17518573
-0.42709607 -0.25356728 0.13853812 -0.1607887 0.020740947 -0.2515251 0.06979331 0.09455344
-0.13716851 0.114105135 0.24953164 0.21455336 0.05754225 -0.16932297 0.46563017 -0.19695221
00000000: 73f4 323e 04ce 933e a7e7 14be c3f7 12be
00000010: 0454 203e ec80 70bd 60e6 77be 896e 8cbe
00000020: de54 2fbd fcd1 c7be 928b 05bd 8162 eabe
00000030: 4e66 7a3e fc91 ec3e 2bbf 343d 3ee2 ab3e
00000040: fd66 9abe a24a 15bf ac5d 5abe f9d1 163e
00000050: 7850 8dbe 5dc3 09bf b5c9 7b3d 32cb 173d
00000060: 2557 233d 8018 223e 2485 d1be 3dd8 403c
00000070: a976 b2be 5af9 30bd 19db c3be 9402 c5be
00000080: e109 44bc c794 72be 3839 c5be f569 823e
00000090: 61a8 97bd b36a 1bbe 3521 503e 0220 aebd
000000a0: d373 ccbe c69f d93e a928 48be 3556 273d
000000b0: 8e00 c73e 4aad f9be b52b f6bd e839 d53e
000000c0: 748c 1c3e 9c80 cdbd 67c8 91be 65bc c8bd
000000d0: 524c 203e 1e1a 963e 55eb e93e 3b1c 93be
000000e0: a7d3 893d 6bc1 97be 2868 3f3e 69bf b3bb
000000f0: a4f4 a4bd 1163 a0bd 0c07 8d3e fd8f a93e
00000100: 6145 89bd b1d5 673c a1a7 1dbe 6575 c83e
00000110: f686 253e 41b6 efbd 729a b9be a5de 5b3e
00000120: 0cd3 e1bd f44b ce3f e8f9 8abe 1fba 89be
00000130: 8ad9 fb3d 9c5e ed3e 920c 89be 128f 383c
00000140: c7ed 3bbf 4dec 75be e8b4 04bf 0640 6d3e
00000150: b41f efbd 9dca 073e 937d dabe 5a8f c73d
00000160: 5780 003f 6ab4 2b3d e50b fcbe 4b7c 89be
00000170: 7cd6 a0be 8cad 863b 7dc8 863e 69c2 133f
00000180: 0b18 9d3e 7f2c b13d 16fc 463c 96c7 933e
00000190: 1172 633d a629 c7bb b2e8 9cbe 1ce7 cd3f
000001a0: 538b 91be 61d9 3c3e 9947 5f3e 05ad ee3b
000001b0: f0f7 943e 1587 6cbe d5d7 08bf 0e80 aabd
000001c0: 2000 84be fc80 fc3b 726c bf3e 771b 8cbe
000001d0: 851c 0a3e 3988 c83d 8b06 493f b2a7 a23d
000001e0: e6fa fcbe dc50 22be 0e03 673e a868 91be
000001f0: 4264 6e3e 7c50 ff3e 3e1c 753e 9115 b23e
00000200: 163d 9abe aae4 bcbc f967 e3be b282 e7bd
00000210: fc73 a2be 003b 4dbf d595 72be 50fa acbe
00000220: ac3c 903e 2fec f1be 84e9 003e 07c9 83be
00000230: f610 723e ce1d c63e 7bdf 10be dea4 0f3e
00000240: 7f92 a23e 863b 9fbe c07b 8fbe cc08 b23c
00000250: 4cd7 debf dad4 b33d 6545 2abe e899 ff3e
00000260: 1c83 ed3e d51a ac3e f5ac c5be 04a8 1d3f
00000270: 76b6 013e 0ec6 b0bd 4054 fcbe 9f02 f7be
00000280: bc27 253e 75ea 0ebf ed2c 7cbe d22c 503f
00000290: 9f42 053e 68d6 eebe 7df2 aebe 944a 2ebe
000002a0: 38e3 e9be 3ccd c5be 65e4 9d3e 6ef3 92bd
000002b0: 01b4 09be 5636 293e 18c8 323e 63d2 823d
000002c0: 68b7 c83e e47a debd 1fd9 14bf c568 983e
000002d0: 9149 953d 13cf 8abe 68ed 1c3d d12a c03e
000002e0: b3d2 dcbe df1f b13d 7f92 c5be e78a f03e
000002f0: 10c1 893e acf0 cabe 21df 7b3e 2cd6 f0be
00000300: 5a22 25be 6208 2740 5939 b5bd c89b 953e
00000310: 2030 c9be ed36 7f3e ca7b fb3d e70e c9bd
00000320: 5db5 1e3f acc1 1d3f b8b3 5a3f f451 8e3e
00000330: 62e5 d8be 576c f6be 30d1 853e 7019 7b3e
00000340: e2ee 4e3e 7fac 983e 0e91 5e3d 49a2 85be
00000350: 26b0 893e 1a7a ab3e b0ae 0fbf 5815 e4bd
00000360: 0e7c c33a 505e 133d 8b54 2abe fb37 b0bc
00000370: aafa bdbd db27 10bf cde5 8abe 22ab ab3f
00000380: 3e32 b2be 0332 a8be 76da d5be 2b81 8b3e
00000390: 8859 f9be b353 20be 630c 013f 2bcb 483e
000003a0: ce60 cfbd 9591 a7be 3746 03be b3f9 24be
000003b0: c076 81be 805f 0d3e 78cf 113e e363 33be
000003c0: 56ac dabe 92d3 81be f0dc 0d3e cba5 24be
000003d0: ebe8 a93c e6c7 80be cbef 8e3d 3ca5 c13d
000003e0: e775 0cbe f4af e93d 3985 7f3e e0b3 5b3e
000003f0: 6cb1 6b3d 0063 2dbe 1467 ee3e d7ad 49be

conv4.fc_self.weight f4 [20, 30]
0.021129847 0.3483612 -0.056000363 0.27384368 -0.3128891 0.14082995 0.058858827 0.4933558
-0.085940324 -0.82396495 -0.009034863 -0.28351662 0.30244473 1.414827 -0.23213592 -0.60801876
-0.4031005 0.38134286 -0.18941426 0.039154965 -0.28875235 0.16422534 0.61758775 0.2774789
0.42695957 0.3055875 -0.33127123 0.28485996 0.41533408 -0.55876434 -0.26836476 0.10853841
-0.3245644 -0.39755097 0.22823803 0.2740239 0.44249597 -0.2960163 -0.4102248 0.14191689
0.07777547 0.070328616 0.076920375 -0.29865372 0.31064478 -0.34608516 0.14241354 -0.4272533
-0.3613104 -0.11140475 0.2222161 -0.11194874 0.2352962 0.090295814 0.22391537 -0.24745312
-0.15093428 0.2715122 0.008018977 -0.43087107 0.11824812 0.22832258 0.5372885 -0.32470334
0.46892005 0.10553132 -0.114058115 0.23706953 -0.12047815 -0.2614056 -0.28373882 -0.21943419
0.30230302 -1.2221197 -0.40735573 0.45294017 0.2665483 0.57334745 0.16228788 -0.3352319
-0.27276602 0.19130906 0.17592572 0.21615708 -0.13833816 0.24530375 0.16620295 0.07120829
-0.28388318 0.32419544 -0.520616 0.019710386 0.06307746 -0.21287915 -0.14665468 -0.21382108
-0.38175538 0.31983185 0.19428359 0.41631338 0.12205163 0.28244093 -0.32165903 2.1995785
0.22180806 -0.43992767 0.2789591 0.6121865 -0.2753227 0.13798761 -0.41690147 -0.21123049
0.67437017 -0.28258464 0.3466794 -0.026990553 0.22262712 -0.3387199 0.48109397 0.17990854
-0.47499192 -0.24575642 0.548132 -0.09088157 0.4876529 0.7586014 -0.16694562 0.18807556
0.11348498 -0.5060887 -0.14229815 -0.37168357 -0.35510227 0.17608237 0.19643724 -0.62216115
-0.113675416 -0.81241375 0.19113304 -0.4469688 -0.34417912 -0.06453485 0.21651511 -0.10585402
-0.21467923 0.35321915 -0.077399604 0.12725905 -1.8647101 -0.3757768 -0.025235204 0.050326847
-0.11008866 0.08200413 -0.50405914 0.18787262 -0.43365946 0.21747983 -0.3002552 -0.40050468
0.093440786 -0.10605942 -0.04675291 0.044716213 0.32599804 -0.23260619 -0.4496806 0.37412181
-0.37838894 0.008846349 0.144712 0.46163794 0.48841244 0.15118635 0.19754647 -0.037364535
0.19704902 0.07748306 -0.3201926 -0.16563143 -0.2781123 0.07346622 -0.32435557 -0.025381157
-0.51455843 -0.13720521 0.10307557 -0.4006245 0.3244809 -0.008239942 0.20682354 -0.06562325
0.3333105 2.292227 -0.24443622 -0.07052607 -0.40676048 -0.57436585 0.35702392 0.32831934
0.03429392 -0.10642923 0.09203689 0.39871 0.27843618 -0.31457266 -0.3747115 0.46462715
0.43087178 0.0046225833 -0.003963237 0.2266629 -0.09955166 -0.13776435 0.29404473 -1.104685
0.1961506 -0.63980484 -0.47174823 0.2865148 -0.30803165 -0.2706445 -0.08475391 0.056002118
-0.078191005 -0.15415244 0.011884047 -0.508821 -0.26323068 0.39050815 0.7394341 -1.9876536
-0.06911509 0.19573554 -0.011171243 0.36954468 0.31894577 0.3737571 -0.19636433 -0.31929743
0.2533885 0.0739158 -0.77192056 0.2248638 0.33695212 0.32964447 0.05492346 -0.30601
-0.4659259 0.22097892 -0.39521623 -0.28442565 0.4502891 -0.39001337 -0.46839416 0.5586666
00000000: 8018 ad3c 665c b23e a360 65bd 3d35 8c3e
00000010: 0033 a0be ba35 103e f415 713d 2299 fc3e
00000020: 7b01 b0bd 5eef 52bf f606 14bc 1729 91be
00000030: 09da 9a3e 0d19 b53f 0ab5 6dbe 1ea7 1bbf
00000040: 3063 cebe 5f3f c33e d0f5 41be f560 203d
00000050: 59d7 93be b02a 283e 3b1a 1e3f b711 8e3e
00000060: 729a da3e f775 9c3e 629c a9be 2ad9 913e
00000070: aba6 d43e 2e0b 0fbf 1b67 89be 6349 de3d
00000080: 4e2d a6be cd8b cbbe 3bb7 693e dc4c 8c3e
00000090: d58e e23e 738f 97be fc08 d2be a952 113e
000000a0: bf48 9f3d 7308 903d 6e88 9d3d 24e9 98be
000000b0: d50c 9f3e 1332 b1be dbd4 113e f2c0 dabe
000000c0: adfd b8be 2c28 e4bd 9e8c 633e 6245 e5bd
000000d0: 7df1 703e 03ed b83d 124a 653e 5a64 7dbe
000000e0: 848e 1abe a603 8b3e 0762 033c 229b dcbe
000000f0: 122c f23d 65cd 693e bd8b 093f 843f a6be
00000100: 4a16 f03e ce20 d83d 4d97 e9bd 5bc2 723e
00000110: 40bd f6bd f4d6 85be 3746 91be 5bb3 60be
00000120: 76c7 9a3e 6b6e 9cbf ee90 d0be c6e7 e73e
00000130: 0579 883e e6c6 123f cb2e 263e 84a3 abbe
00000140: fda7 8bbe 86e6 433e df25 343e 4858 5d3e
00000150: 85a8 0dbe e830 7b3e 1b31 2a3e a7d5 913d
00000160: 2359 91be f2fc a53e 1747 05bf ad77 a13c
00000170: c12e 813d fefc 59be a52c 16be eaf3 5abe
00000180: 7175 c3be 00c1 a33e 47f2 463e 0727 d53e
00000190: 34f6 f93d 199c 903e 7eb0 a4be e5c5 0c40
000001a0: a721 633e 333e e1be bad3 8e3e 41b8 1c3f
000001b0: 19f7 8cbe a04c 0d3e 1c74 d5be ce4c 58be
000001c0: 86a3 2c3f efae 90be f67f b13e 4b1b ddbc
000001d0: 5df8 633e b26c adbe f351 f63e f239 383e
000001e0: 2432 f3be 92a7 7bbe 6152 0c3f 1e20 babd
000001f0: a4ad f93e b433 423f cbf3 2abe e196 403e
00000200: d06a e83d 078f 01bf 9bb6 11be 4f4d bebe
00000210: f7cf b5be f04e 343e d826 493e f445 1fbf
00000220: a8ce e8bd 59fa 4fbf 61b8 433e 18d9 e4be
00000230: 3f38 b0be d92a 84bd 23b6 5d3e fec9 d8bd
00000240: dfd4 5bbe 24d9 b43e af83 9ebd 3250 023e
00000250: d2ae eebf d165 c0be 0fba cebc 8623 4e3d
00000260: 2a76 e1bd c8f1 a73d 050a 01bf ae61 403e
00000270: 9d08 debe 08b3 5e3e 0dbb 99be f30e cdbe
00000280: e25d bf3d ae35 d9bd fb7f 3fbd 5928 373d
00000290: 37e9 a63e 5130 6ebe 893c e6be e58c bf3e
000002a0: 32bc c1be 47f0 103c 622f 143e cf5b ec3e
000002b0: 3211 fa3e 98d0 1a3e 9f49 4a3e 8e0b 19bd
000002c0: 38c7 493e 70af 9e3d 49f0 a3be 499b 29be
000002d0: bc64 8ebe 7575 963d ef11 a6be 25ec cfbc
000002e0: 1aba 03bf 867f 0cbe 4919 d33d a81e cdbe
000002f0: 5c22 a63e d200 07bc 8dc9 533e 7c65 86bd
00000300: ada7 aa3e d9b3 1240 7d4d 7abe f96f 90bd
00000310: e942 d0be a409 13bf d7cb b63e 7919 a83e
00000320: c877 0c3d 91f7 d9bd d67d bc3d b823 cc3e
00000330: 308f 8e3e ab0f a1be 30da bfbe 9ce3 ed3e
00000340: 3a9b dc3e 0a79 973b 0bde 81bb 521a 683e
00000350: bee1 cbbd 1912 0dbe 088d 963e 5166 8dbf
00000360: b4db 483e 40ca 23bf fc88 f1be 11b2 923e
00000370: 53b6 9dbe ea91 8abe 7593 adbd 7a62 653d
00000380: 9b22 a0bd 23da 1dbe 4eb5 423c 1842 02bf
00000390: 2cc6 86be aff0 c73e 8e4b 3d3f 6f6b febf
000003a0: 368c 8dbd e66e 483e 9707 37bc f634 bd3e
000003b0: dc4c a33e 175d bf3e bb13 49be f47a a3be
000003c0: 23bc 813e 2b61 973d 969c 45bf b242 663e
000003d0: fd84 ac3e 29c7 a83e 6cf7 603d 58ad 9cbe
000003e0: d78d eebe 4c48 623e c859 cabe 3da0 91be
000003f0: 4b8c e63e d5af c7be 5cd1 efbe c604 0f3f

conv4.fc_self.bias f4 [20]
-0.21660939 0.099911325 0.055038977 -0.32701877 -0.31749606 -0.026271777 0.063948005 -0.13151444
0.027759232 -0.23557484 0.11723253 -0.74569565 0.023684071 -0.4071684 0.14999235 0.08744589
0.19330433 -0.05012481 0.06436173 0.16351284
00000000: dace 5dbe 4f9e cc3d 8d70 613d 016f a7be
00000010: d88e a2be e937 d7bc 2cf7 823d b9ab 06be
00000020: 5467 e33c 883a 71be 9c17 f03d e9e5 3ebf
00000030: 1905 c23c 6078 d0be 9897 193e d516 b33d
00000040: 92f1 453e ac4f 4dbd 15d0 833d e96f 273e

conv5.fc_neigh.weight f4 [10, 20]
-0.686554 0.039685283 -0.2919599 0.4638829 0.2648181 0.39417645 0.12280985 0.59948826
0.5802032 0.4914903 0.43062872 1.0905079 0.25399393 1.3416061 0.74640137 -0.43824515
-0.91994464 0.6155051 0.17351946 -0.09043858 0.7727575 -0.103098094 0.19804707 -0.40219745
0.87543637 -0.5036275 0.99286145 -1.0529944 0.6935568 -0.5606774 1.8469629 -0.44890246
-0.2873275 -0.23049419 0.5533599 0.5989211 1.3515049 -1.0240068 -0.31551936 0.7396409
-0.2507075 -0.24572161 -0.55684096 -0.8635686 -0.31570435 -0.37989333 -0.49244577 1.0788115
1.1350095 -0.15052424 -0.030926907 -0.9653805 -0.45554677 0.4136809 0.003912972 -0.007372006
-0.14966992 0.08031797 -0.027433028 0.3447078 -0.4412605 0.13426183 -0.41456196 -0.3360487
-0.12241544 0.53845507 0.48464146 0.7430891 -0.35077628 0.22345799 0.43557554 -0.6274516
-0.014349281 -0.5499501 0.20433721 -0.05833362 0.54537195 0.12524042 0.2941988 0.29055637
-1.8654468 0.24951617 0.47859398 -0.00911642 0.20798963 0.5956816 0.59947723 1.2974814
-0.14965498 -0.11044732 -0.90809697 -0.01214093 0.28340974 -0.4152539 -0.11668854 0.038156565
0.45657262 -0.37822163 -0.1616475 0.54160315 -0.82403827 -0.05397638 -0.4147913 -0.20718816
0.098667234 -0.55844164 -0.33061543 -0.25770292 -0.028969636 -0.143795 0.2576687 -0.80365103
0.31483576 -0.7335641 -0.37233722 0.43485585 -0.24065542 0.13486233 -0.12807739 -0.02483468
0.38969666 -0.19499834 -0.21506171 0.18014741 -0.03787104 0.470594 0.07160309 0.33490396
-0.52773064 -0.30061597 -0.32258603 -0.17807105 -0.20370021 -0.46717867 -0.4901601 -0.049860515
-0.3895776 -0.4353342 -0.53417474 -0.32315934 -0.5712713 -0.13578157 0.41506353 0.16235432
-0.21473007 -0.013785802 -0.5247512 0.2285294 -0.13553788 0.38577625 -2.0286992 -1.3085054
-0.84729123 0.98581564 0.29608646 0.09221823 -0.39348084 0.2822931 0.65996325 0.3818285
0.2911372 -0.5203123 0.4032021 0.07538326 1.0120769 0.23699579 0.22272804 0.21090654
0.6023601 -0.27203572 2.8427603 0.7275259 0.8840219 -1.011442 0.22112983 0.44242325
0.5124353 -0.6423271 0.021685084 0.3597428 -0.45939672 0.40761554 -0.114731885 -0.9184717
1.2218974 -0.42157465 -0.5151224 -0.6564428 -0.22363368 0.39135256 0.23147316 0.64312744
0.15318984 -1.4853863 0.1520962 -0.29266968 0.06156828 -0.18983676 0.045189716 0.57843286
00000000: 01c2 2fbf 098d 223d c57b 95be 0f82 ed3e
00000010: 3d96 873e 7fd1 c93e bb83 fb3d 1078 193f
00000020: 3288 143f 9ea4 fb3e 5e7b dc3e c395 8b3f
00000030: 7e0b 823e c0b9 ab3f 2914 3f3f ab61 e0be
00000040: 7e81 6bbf be91 1d3f 16af 313e dd37 b9bd
00000050: 6fd3 453f 1825 d3bd dacc 4a3e d3ec cdbe
00000060: 991c 603f bbed 00bf 2b2c 7e3f 85c8 86bf
00000070: f08c 313f 8e88 0fbf 4869 ec3f 8bd6 e5be
00000080: 971c 93be ab06 6cbe ffa8 0d3f e552 193f
00000090: 1dfe ac3f a812 83bf c18b a1be 1b59 3d3f
000000a0: bc5c 80be 729e 7bbe 218d 0ebf d512 5dbf
000000b0: 00a4 a1be 6181 c2be da21 fcbe 7f16 8a3f
000000c0: fe47 913f 0723 1abe 6d5a fdbc 2d23 77bf
000000d0: 6d3d e9be fccd d33e 6338 803b de90 f1bb
000000e0: 1243 19be bf7d a43d 3bbb e0bc 8a7d b03e
000000f0: e5ec e1be ef7b 093e 7741 d4be 930e acbe
00000100: f2b4 fabd 31d8 093f ed22 f83e 163b 3e3f
00000110: f398 b3be 2cd2 643e c203 df3e aba0 20bf
00000120: 3f19 6bbc 88c9 0cbf c63d 513e 3cef 6ebd
00000130: 7f9d 0b3f 063f 003e 3aa1 963e cec3 943e
00000140: f6c6 eebf 2b81 7f3e 450a f53e 095d 15bc
00000150: 3cfb 543e 977e 183f 5777 193f df13 a63f
00000160: 283f 19be 3432 e2bd 0b79 68bf c0ea 46bc
00000170: 151b 913e 299c d4be 67fa eebd 0f4a 1c3d
00000180: e3c3 e93e 44a6 c1be ec86 25be 81a6 0a3f
00000190: 2cf4 52bf 5616 5dbd 865f d4be 2229 54be
000001a0: 0c12 ca3d 08f6 0ebf 6d46 a9be a3f1 83be
000001b0: bb51 edbc ff3e 13be 27ed 833e 13bc 4dbf
000001c0: 2732 a13e dbca 3bbf fca2 bebe 6da5 de3e
000001d0: 606e 76be 5a19 0a3e b826 03be 1972 cbbc
000001e0: 5286 c73e a5ad 47be 2339 5cbe 9078 383e
000001f0: aa1e 1bbd b2f1 f03e a4a4 923d 8878 ab3e
00000200: 5b19 07bf 56ea 99be ff29 a5be 4258 36be
00000210: ca96 50be 0b32 efbe 44f6 fabe 8a3a 4cbd
00000220: b776 c7be 20e4 debe adbf 08bf 2475 a5be
00000230: d63e 12bf 530a 0bbe 3583 d43e 3640 263e
00000240: 33e2 5bbe d8dd 61bc 1856 06bf 9c03 6a3e
00000250: 71ca 0abe 7784 c53e 35d6 01c0 1b7d a7bf
00000260: 14e8 58bf 6a5e 7c3f a598 973e e9dc bc3d
00000270: 5276 c9be b988 903e 5af3 283f 067f c33e
00000280: ef0f 953e 3033 05bf 8170 ce3e 8a62 9a3d
00000290: bc8b 813f 06af 723e d212 643e e2f7 573e
000002a0: 4634 1a3f 4448 8bbe c9ef 3540 233f 3a3f
000002b0: 424f 623f ee76 81bf dc6f 623e 4d85 e23e
000002c0: f62e 033f 8c6f 24bf eba4 b13c 3530 b83e
000002d0: 0c36 ebbe fcb2 d03e 8df8 eabd f620 6bbf
000002e0: 2267 9c3f a2d8 d7be 10df 03bf a30c 28bf
000002f0: 3a00 65be 5d5f c83e 4d07 6d3e 00a4 243f
00000300: ccdd 1c3e 2321 bebf 1bbf 1b3e cdd8 95be
00000310: 052f 7c3d 9164 42be da18 393d 2d14 143f
