VVG/Experiment_4 - Swap_datasets/Images2/model2_rr.pth (torch, 2720 bytes, 4 tensors)

conv1.weight f4 [5, 20]
000000 0c 90 93 3f b6 84 d9 3e ca 99 ac bf 8d a1 62 be
       1.1528335 0.42484063 -1.3484433 -0.22131939
000010 f8 e5 76 bf 2b 36 62 bd 0f 62 8d be 99 3a 17 be
       -0.96444654 -0.05522744 -0.27613875 -0.14768447
000020 3a eb 89 bf 23 74 1d bf 5f 4e 95 be 9f b2 ac 3e
       -1.077491 -0.61505336 -0.29161355 0.33730027
000030 96 c2 d4 bf 32 3f 59 3c 79 d2 0d 3f 3e 24 fe bf
       -1.6621883 0.013259696 0.5539928 -1.985481
000040 33 48 a6 3f 83 55 2f be 1e 82 b6 3f d8 09 5a 3e
       1.2990783 -0.17122464 1.4258459 0.21292818
000050 fe 26 99 40 bc b6 ff 40 17 15 0b c1 09 0c d7 3d
       4.78601 7.9910564 -8.692649 0.105003424
000060 59 fe 27 c1 1e fd 05 41 03 e8 c9 3e 34 50 0b bd
       -10.499597 8.374296 0.39434823 -0.034012035
000070 4d 93 36 c1 34 52 30 c1 c9 ee be 3e 80 e9 c4 40
       -11.410962 -11.020069 0.37291554 6.1535034
000080 f0 f5 04 c1 c6 c1 6f be f2 50 af c0 be 49 e3 c0
       -8.310043 -0.23413762 -5.478631 -7.1027517
000090 70 03 69 c0 1e ff ec be f0 7b 94 3f db 60 77 be
       -3.6408348 -0.4628839 1.1600323 -0.24158041
0000a0 67 ab f2 40 ee 9b 29 41 06 d3 11 c1 d5 f6 a1 3e
       7.583423 10.600569 -9.114019 0.3163363
0000b0 0a 53 ea c0 77 99 33 41 88 27 44 bd b4 38 e5 be
       -7.3226366 11.224967 -0.047889262 -0.44769824
0000c0 44 cb ea c0 8c e7 e9 c0 c2 45 75 3e 5f 93 0f 41
       -7.3373127 -7.309515 0.23952392 8.973479
0000d0 c5 6e 11 c1 72 74 bf be c3 f3 0f c1 6e 51 02 c1
       -9.089543 -0.37393528 -8.997012 -8.14488
0000e0 0d 8d e3 3e af d6 fc be f5 6c 3d c1 be 5b 94 3e
       0.4444355 -0.4938254 -11.839101 0.28976244
0000f0 64 da d1 3e 22 03 3d 3f fc fc 03 3f 64 f6 01 bc
       0.4098693 0.73832905 0.515579 -0.007932279
000100 03 aa d9 3e b1 8f 6a 3f a5 22 df be 75 cf c5 be
       0.4251252 0.91625506 -0.4358112 -0.3863484
000110 83 49 e0 3e 19 9b e3 3d a5 7e f0 be c6 78 ff 3e
       0.43806085 0.11113567 -0.46971622 0.4989683
000120 b5 01 36 3f 99 90 97 be 3d 16 22 bf 46 d5 52 3f
       0.71096355 -0.29602507 -0.6331518 0.8235668
000130 21 83 33 3c 84 64 98 be 72 5e 8d be 29 07 94 be
       0.010956557 -0.29764187 -0.2761112 -0.28911713
000140 c8 77 44 be 4b 71 20 bf 91 a0 7e 3f f5 ea 01 be
       -0.19186318 -0.6267287 0.99463755 -0.12687285
000150 1d 3b a9 3f 6a 16 79 bd 54 31 8e 3d 8e eb a3 bd
       1.3221165 -0.06081239 0.06943002 -0.08003913
000160 ad d7 cb 3f 2a 26 9e 3f 13 1b 99 be d9 5f 25 3c
       1.5925194 1.2355397 -0.29903468 0.010093653
000170 74 1c 6b 3f 83 c9 1c 3d e2 de 84 3f 8d 12 90 3f
       0.9184029 0.038278114 1.0380518 1.1255661
000180 c0 07 a0 3d cb 27 a4 3d d0 5c dc bf 3f 69 be be
       0.07813978 0.080154024 -1.7215824 -0.3718967

conv1.bias f4 [20]
000000 65 c5 1d 3f 00 b8 73 3f 72 d2 9a be 77 d1 3a bc
       0.61629325 0.95202637 -0.30238682 -0.011402479
000010 82 1e 75 bf 05 13 2f 3f a8 ff 32 bc 00 00 00 00
       -0.95749676 0.68388397 -0.010925211 0.0
000020 f5 03 95 bf ee 05 5a bf 00 00 00 00 76 d9 1b 3f
       -1.1641833 -0.851653 0.0 0.60878694
000030 9f 21 89 be 65 19 60 bc 8f 4f 81 bd ba 3f a5 be
       -0.26783463 -0.0136779295 -0.06314003 -0.32275182
000040 52 88 d3 3d 94 24 56 bd c2 d1 61 3f 93 0f 24 bc
       0.103287354 -0.052280977 0.8821069 -0.010013479

conv2.weight f4 [20, 3]
000000 9b 57 73 bf bb 68 34 bf b0 4d 96 3f 6b 1c 0d c0
       -0.9505555 -0.70472306 1.1742458 -2.2048595
000010 ad 54 a9 3e f9 ac 99 3f ad 8d 08 40 82 25 47 3e
       0.33072415 1.2005912 2.1336472 0.19447902
000020 55 32 77 c0 63 67 00 3f 3a 34 2e 3e 9b cb c7 be
       -3.862447 0.50157756 0.1701211 -0.39022526
000030 0b 11 18 40 bd 6d 4c bf 57 99 6b c0 22 87 2e bf
       2.3760402 -0.7985495 -3.6812341 -0.68174946
000040 68 91 46 3f 83 e4 54 3f f6 48 ce be de ea 9f 3e
       0.7756562 0.8316118 -0.4029004 0.31233877
000050 e9 8f 2e be 89 bf 63 be 01 14 b2 3e bc 62 f7 be
       -0.17047085 -0.22241034 0.34780887 -0.48317516
000060 a7 e7 2e 40 45 da f2 be 30 ba 6f c0 87 55 6b 40
       2.732889 -0.4743215 -3.745739 3.6770952
000070 d8 d1 a1 bf 89 31 93 c0 20 7a 78 be b1 4e 27 3e
       -1.2642164 -4.599797 -0.24265337 0.16338612
000080 3d 78 e3 be 3a 36 41 bf 42 99 89 3c 9e 00 88 3f
       -0.44427672 -0.7547337 0.016796712 1.0625188
000090 63 b3 9c 3f 87 08 10 3f 3e a7 68 c0 15 a4 da be
       1.2242244 0.5626301 -3.6352077 -0.4270331
0000a0 9e ce c3 3e 51 d9 6b 3d ca b9 95 3f fa 57 2a 3f
       0.38243574 0.057580296 1.1697323 0.6654049
0000b0 8f 15 09 c0 7d a6 be 3f 87 94 65 3f 4b e6 78 c0
       -2.1419408 1.4894558 0.8967976 -3.889056
0000c0 63 27 9b 3e 7b 50 ec bf f1 ff 95 3f 08 00 d0 be
       0.30303487 -1.8462061 1.1718732 -0.40625024
0000d0 8a e4 15 3d 85 72 2e bd 0a 55 f3 40 4a c3 10 3f
       0.036594905 -0.042589683 7.6041307 0.5654799
0000e0 ad 66 c4 c0 e7 da ae be 9b 51 00 bf 36 49 90 3e
       -6.1375337 -0.34151384 -0.5012452 0.28180856

conv2.bias f4 [3]
000000 f9 27 b9 3d d9 c5 9f be 18 9f 83 3e
       0.09040827 -0.31205633 0.25707316
