VVG/Experiment_4 - Swap_datasets/Images2/model2_stats.pth (torch, 4088 bytes, 4 tensors)

conv1.weight f4 [22, 20]
-1.3834009 -1.3269812 0.043180257 0.20159523 0.33469853 0.4299533 0.4840641 0.12804073
-0.678936 -0.3113191 -0.18769024 0.30170855 -0.123287 0.3480494 -0.96898055 -0.7053919
0.588648 -0.29526734 0.73339224 -1.0855563 0.028077539 -0.114128396 0.09449616 -0.43257818
-0.11287248 -0.12159218 -0.2520472 0.05114903 0.1919374 -2.2427967 0.11729398 0.048859432
0.17834507 -0.14694026 -0.21160333 -0.3763485 0.2994142 -0.31985015 0.11512838 -0.41878334
0.12292347 0.005464806 -0.26181117 -0.1588401 -0.49193618 0.6122252 -0.40056324 0.1905656
-0.46128696 -2.448999 0.0906592 -0.061292395 0.3940392 0.0908509 0.14302212 -0.85978836
-0.024330905 -0.25690192 0.15977627 -0.050666973 0.73124766 0.45731822 -0.17911878 -0.28277755
-0.4616199 0.5104733 -0.07161155 0.36819255 -0.013376533 0.38641033 -0.25352407 0.46968082
-0.14034878 -0.49383497 0.30913755 0.2173989 -0.19717135 -0.3547613 0.5729477 0.22043817
-0.21709764 0.7865149 -0.36574918 0.49423167 0.7237895 -0.22814432 0.3218313 0.16770805
0.9000392 0.11107303 -0.083740614 0.5112562 0.16868906 0.71447504 0.6172547 0.43350273
0.45145422 -0.034610394 -0.3599931 0.876079 -0.4816858 0.08913307 0.10461846 0.27695262
-0.16504264 0.1939125 -0.14651307 -0.4536525 -0.121387415 -1.8975693 0.22796504 0.31049815
0.107521884 0.3481265 -0.24359241 -0.05514071 -0.031043388 -0.25707772 0.17198622 0.21442038
0.1179087 0.2958065 -0.066785105 0.0702054 -0.15677972 -0.119888544 -0.3880193 -0.049791276
-0.13571058 -1.9095513 0.05646988 0.3326874 -0.048591185 -0.39550558 0.351143 0.3772867
0.78509647 -0.027767695 -0.2217238 -0.7098496 -0.27707997 -0.34191394 0.19129829 -0.81336045
-0.038789365 0.13141564 -0.4544558 0.3427977 0.11216613 -2.36646 -0.1522498 0.10095614
-0.15098414 -0.3824617 0.011216039 -0.49079177 0.25656655 0.3590323 0.19870964 0.062724784
-0.25882548 -0.010725875 -0.20100202 0.56932664 0.6816135 -0.37193197 2.3163004 -0.6714948
0.23633063 -2.343594 0.02238334 0.32303664 1.7755003 0.346104 -0.18324608 -0.031007651
1.4438628 -0.24124257 -0.8799435 0.62492347 0.45865732 -0.07427611 0.062695384 0.7666024
0.24751411 -0.79694784 0.41331273 -0.8470003 0.061183494 0.40121472 0.097806744 -0.2888758
-0.077950895 0.37234446 0.30249006 0.7219104 -0.40029767 0.27101818 -0.7649937 -0.022716096
0.48340175 0.20333311 -0.008643576 -0.82066673 -0.7701265 0.881002 -1.2793258 0.9889387
-0.8472517 0.9280765 0.2611374 -0.037014667 -2.5571148 -0.088759586 -0.71775645 -0.41048545
-0.2867241 0.27788097 1.2291087 -0.5085648 0.9147279 1.8126482 -0.33586383 3.113325
1.6414113 -1.2392612 0.37389806 -1.637527 1.2625347 8.822045 0.3093459 -1.6166177
-0.026248777 1.0008599 2.6770809 5.056907 -0.8104093 0.1740652 -1.8267685 1.2957929
0.04156856 -0.18360935 -0.27185017 -0.46938545 -0.6095205 0.29810655 -0.6637238 0.39303815
-0.2054031 -1.1825687 0.10146101 0.41317913 -0.123879395 0.06970372 -0.17322409 -0.3719643
00000000: 4813 b1bf 85da a9bf c8dd 303d fb6e 4e3e
00000010: 9b5d ab3e d722 dc3e 40d7 f73e 1c1d 033e
00000020: c0ce 2dbf 3865 9fbe df31 40be 8b79 9a3e
00000030: e57d fcbd 8833 b23e 1c0f 78bf 9094 34bf
00000040: a3b1 163f 482d 97be 98bf 3b3f 82f3 8abf
00000050: de02 e63c 26bc e9bd 3487 c13d e37a ddbe
00000060: b029 e7bd 5205 f9bd 550c 81be a581 513d
00000070: 3d8b 443e fb89 0fc0 d437 f03d d420 483d
00000080: 17a0 363e 8277 16be 8bae 58be c0b0 c0be
00000090: d14c 993e 66c3 a3be 6ec8 eb3d c56a d6be
000000a0: 4dbf fb3d 1e12 b33b 1d0c 86be fba6 22be
000000b0: 0fdf fbbe caba 1c3f a016 cdbe a123 433e
000000c0: ce2d ecbe 66bc 1cc0 88ab b93d bc0d 7bbd
000000d0: 82bf c93e 0910 ba3d 6474 123e 171b 5cbf
000000e0: 9b51 c7bc a688 83be 649c 233e 2c88 4fbd
000000f0: 0c33 3b3f 9d25 ea3e ea6a 37be 38c8 90be
00000100: 7259 ecbe 61ae 023f 14a9 92bd bc83 bc3e
00000110: 3f29 5bbc 93d7 c53e e8cd 81be 017a f03e
00000120: 97b7 0fbe f0d7 fcbe 4747 9e3e d19d 5e3e
00000130: 49e7 49be 46a3 b5be b3ac 123f 8bba 613e
00000140: d84e 5ebe 0a59 493f 7a43 bbbe ef0b fd3e
00000150: 454a 393f aa9e 69be 12c7 a43e a9bb 2b3e
00000160: f868 663f 427a e33d 3380 abbd b0e1 023f
00000170: d3bc 2c3e d6e7 363f 6704 1e3f 12f4 dd3e
00000180: 0225 e73e a1c3 0dbd 0451 b8be b746 603f
00000190: 859f f6be 668b b63d 3442 d63d bccc 8d3e
000001a0: f000 29be 0091 463e 8607 16be 2445 e8be
000001b0: f799 f8bd 8de3 f2bf ab6f 693e 9df9 9e3e
000001c0: 6f34 dc3d a33d b23e 4a70 79be 3adb 61bd
000001d0: b44e febc b19f 83be 281d 303e 0491 5b3e
000001e0: 1e7a f13d f373 973e a1c6 88bd d9c7 8f3d
000001f0: dd8a 20be 2088 f5bd 77aa c6be f0f1 4bbd
00000200: b7f7 0abe 2d6c f4bf f64c 673d 0156 aa3e
00000210: 8d07 47bd b57f cabe 04c9 b33e b92b c13e
00000220: 15fc 483f 1479 e3bc 900b 63be b4b8 35bf
00000230: 6ddd 8dbe 580f afbe b3e3 433e 6438 50bf
00000240: 99e1 1ebd d291 063e 6eae e8be 2e83 af3e
00000250: 5bb7 e53d 1574 17c0 5fe7 1bbe 18c2 ce3d
00000260: 969b 1abe 05d2 c3be 7ac3 373c 0f49 fbbe
00000270: b15c 833e 15d3 b73e 8a7a 4b3e da75 803d
00000280: c684 84be 95bb 2fbc 79d3 4dbe 64bf 113f
00000290: 397e 2e3f de6d bebe 443e 1440 15e7 2bbf
000002a0: a800 723e 72fd 15c0 445d b73c 0f65 a53e
000002b0: 9843 e33f 8b34 b13e dca4 3bbe c203 febc
000002c0: 7fd0 b83f 4b08 77be fa43 61bf fcfa 1f3f
000002d0: 22d5 ea3e 131e 98bd 7066 803d 0e40 443f
000002e0: 5774 7d3e c604 4cbf ba9d d33e 03d5 58bf
000002f0: 8b9b 7a3d 046c cd3e e74e c83d 87e7 93be
00000300: b8a4 9fbd efa3 be3e fadf 9a3e 1fcf 383f
00000310: d1f3 ccbe e5c2 8a3e a1d6 43bf 1b17 babc
00000320: 6f80 f73e 8e36 503e c99d 0dbc 3717 52bf
00000330: 0327 45bf 5989 613f f3c0 a3bf 162b 7d3f
00000340: 7de5 58bf 6c96 6d3f cdb3 853e b19c 17bd
00000350: c5a7 23c0 96c7 b5bd e3be 37bf 262b d2be
00000360: 80cd 92be 6a46 8e3e 6f53 9d3f 4d31 02bf
00000370: 9c2b 6a3f db04 e83f 58f6 abbe b840 4740
00000380: c419 d23f 1ca0 9ebf 916f bf3e 7c9a d1bf
00000390: bd9a a13f 1927 0d41 9662 9e3e 54ed cebf
000003a0: ad07 d7bc 2d1c 803f 4b55 2b40 2fd2 a140
000003b0: fc76 4fbf 263e 323e 8dd3 e9bf 8bdc a53f
000003c0: cb43 2a3d 1704 3cbe f22f 8bbe 4a53 f0be
000003d0: 8909 1cbf 6ca1 983e cee9 29bf 4c3c c93e
000003e0: 3155 52be 695e 97bf caca cf3d 378c d33e
000003f0: 7bb4 fdbd d3c0 8e3d a861 31be 1b72 bebe

conv1.bias f4 [20]
-0.029199472 -0.19516294 0.0 -0.03234718 -0.018946808 0.43919665 -0.04140684 0.29474017
-0.34933504 0.054863784 -0.13487796 0.25341323 0.15089981 -0.05415501 -0.14314225 -0.10401686
0.16912605 0.0 0.5482769 -0.19727644
00000000: bb33 efbc cbd8 47be 0000 0000 7a7e 04bd
00000010: 5636 9bbc 62de e03e 389a 29bd 2fe8 963e
00000020: 0bdc b2be d9b8 603d 731d 0abe 61bf 813e
00000030: 7b85 1a3e a5d1 5dbd e293 12be cb06 d5bd
00000040: 612f 2d3e 0000 0000 e05b 0c3f d602 4abe

conv2.weight f4 [20, 3]
0.018624052 3.0290918 -4.321287 1.2124554 0.28896093 -3.981014 0.48628044 0.013459229
0.31722832 2.1672435 -0.058699675 -4.879244 1.4368398 0.084498025 -3.453479 -1.3532679
0.19572094 1.1353492 0.729997 -0.9301039 -0.062239442 -1.5534258 0.30273354 1.6320292
1.8789765 -0.6293142 -3.0823011 2.803156 0.8849839 -5.7813816 0.02231074 0.4118537
0.039219342 -0.7929768 -0.34832266 1.0667615 1.2084342 -2.0966685 1.5239685 0.76646775
0.80893445 -2.4797091 2.071774 0.13796388 -4.774221 2.5605996 0.3519424 -5.846886
-0.39650118 -1.0805203 1.9948941 0.31463972 0.24116042 0.26779127 -1.4724411 0.23428714
1.0587162 2.1158464 -0.23632579 -3.3703043
00000000: 7891 983c a4dc 4140 fc47 8ac0 bd31 9b3f
00000010: b0f2 933e efc8 7ec0 c0f9 f83e 1984 5c3c
00000020: c06b a23e 1eb4 0a40 126f 70bd c422 9cc0
00000030: 5eea b73f 4d0d ad3d cd05 5dc0 e237 adbf
00000040: 126b 483e 1f53 913f 15e1 3a3f 4a1b 6ebf
00000050: c9ee 7ebd a8d6 c6bf e4ff 9a3e 55e6 d03f
00000060: 4d82 f03f bc1a 21bf 6c44 45c0 e866 3340
00000070: 4e8e 623f 1401 b9c0 03c5 b63c 7dde d23e
00000080: 76a4 203d 8700 4bbf 5957 b2be a48b 883f
00000090: f9ad 9a3f d12f 06c0 6611 c33f 3b37 443f
000000a0: 5416 4f3f 8eb3 1ec0 f297 0440 6746 0d3e
000000b0: 6bc6 98c0 dde0 2340 cb31 b43e b119 bbc0
000000c0: 3402 cbbe 7d4e 8abf b158 ff3f 7518 a13e
000000d0: c2f2 763e f01b 893e f378 bcbf f8e8 6f3e
000000e0: 0384 873f 076a 0740 63ff 71be 11b3 57c0

conv2.bias f4 [3]
0.07842553 -0.34215552 0.4277556
00000000: 909d a03d 022f afbe c802 db3e
