VVG/Experiment_5 - Intra_patient/Images2/model2_rr.pth (torch, 2720 bytes, 4 tensors)

conv1.weight f4 [5, 20]
000000 37 a3 80 3f 64 07 42 bf 0b 66 9a 3f 7b b2 a4 3f
       1.0049809 -0.7579253 1.2062391 1.2866968
000010 1e 33 cc bc 8d 2d 8f be 9d 70 ad be 8f 75 18 bc
       -0.024926718 -0.2796444 -0.3387498 -0.009305372
000020 53 ab 17 c0 f4 5f 86 3f 6a cb ad 3e 84 a1 85 3f
       -2.3698318 1.0498033 0.33944255 1.0439916
000030 ae e5 74 bf 3c 6e 52 3f 45 ff ee bd ce 6c 00 3d
       -0.95662963 0.82199454 -0.116697825 0.031353764
000040 9b 40 3b 3d 91 b9 f4 3e ca 8d 87 bf 0b e7 6b bf
       0.04571591 0.47797826 -1.0590146 -0.9214942
000050 a2 7c d7 40 cb 40 be c0 a8 dd d3 40 ec 5b 79 be
       6.733964 -5.9454093 6.6208076 -0.24351472
000060 e3 34 9c c0 a5 63 c6 c0 db fb 21 3e 32 eb 89 c0
       -4.881456 -6.1996636 0.15818731 -4.3099604
000070 c7 72 df c0 da f9 cb 40 e6 d0 1f 40 67 b7 40 bf
       -6.982761 6.3742495 2.4971251 -0.7527985
000080 42 11 b8 c0 94 c3 4c 40 0d 9c ec be e4 96 de be
       -5.7521067 3.1994371 -0.46212807 -0.43474495
000090 19 a1 75 c0 28 d6 9e 40 b7 4c 91 c0 eb e1 b2 c0
       -3.8379576 4.963642 -4.5406146 -5.590078
0000a0 7e ff 2d 41 90 20 1f c1 f0 f3 28 41 95 7e ee c0
       10.874876 -9.94545 10.559555 -7.452952
0000b0 4c 3e 1b c1 e0 5a 25 c1 57 ce 70 3e 5e 7c 09 c1
       -9.702709 -10.334686 0.23516212 -8.592863
0000c0 7e 2d b9 3d 19 99 23 41 06 4e a5 40 47 53 10 c1
       0.0904188 10.224877 5.1657743 -9.020331
0000d0 b8 e6 23 c1 ca f3 09 41 27 99 9b be db b8 5b 3c
       -10.243828 8.622019 -0.30390283 0.013410772
0000e0 7d ed d8 c0 ce 1f 14 41 86 24 95 bc d0 d3 1f c1
       -6.7789903 9.257765 -0.018205892 -9.989212
0000f0 ea 07 b9 be 4f a3 e3 3d 1f 43 33 be 92 64 af be
       -0.3613885 0.11115133 -0.17506073 -0.34256417
000100 d1 a5 6c 3e f8 18 5f 3d 7e eb b2 be f0 9b 86 3e
       0.23110129 0.05446717 -0.3494529 0.26290846
000110 e7 13 80 3f c6 fe e9 bd ad 60 d7 3e 21 3c 0c bf
       1.0006074 -0.11425547 0.42065945 -0.5477925
000120 93 d0 e9 3e 2e 05 25 3f d1 be f8 be d1 f5 f1 be
       0.45666942 0.6446103 -0.4858308 -0.47257856
000130 05 5d 06 3f fd 9d 02 bc 20 b3 69 3f ef c7 a7 3e
       0.52485687 -0.007972238 0.9128895 0.32769725
000140 97 19 1f 3d ad 8f 7f 3f e5 9e e7 be d0 e3 ad bf
       0.038842764 0.99828607 -0.45238414 -1.3585148
000150 f6 67 66 3e 74 bf 88 3f 47 3d 1f 3d 2a 53 2b 3d
       0.22500595 1.0683427 0.038876798 0.04182736
000160 8f e9 d1 3d 7a 69 b9 be 04 0c 9c be f3 c5 6a bf
       0.10249626 -0.36213285 -0.30477917 -0.91708297
000170 17 43 6e 3f b0 f9 b4 bf a9 43 bb 3d a1 26 5e be
       0.9307112 -1.4138699 0.091437645 -0.21694423
000180 41 e6 ce 3e 18 ba 55 be 77 44 a4 bf 70 0b 89 3f
       0.40410045 -0.2087177 -1.2833394 1.0706615

conv1.bias f4 [20]
000000 1c c5 f5 3e 86 53 38 be 8a 49 23 3f 21 b8 b5 3e
       0.48001945 -0.18000612 0.63784087 0.35492042
000010 ef e0 1b bc f3 c4 76 be 88 15 ee bb 42 28 f4 bd
       -0.009514078 -0.24098568 -0.0072657503 -0.11921741
000020 59 78 28 be 94 a0 ea 3e 63 91 09 3f 26 55 49 3f
       -0.16452159 0.45825636 0.5373747 0.7864555
000030 74 cc 2c bf 3e a1 14 3e 27 5d 18 bd 00 00 00 00
       -0.6749947 0.14514634 -0.037198212 0.0
000040 0a dd 8c 3e 19 8b be 3e 1d 82 cd 3d 07 0e a7 be
       0.2751239 0.37215498 0.10034583 -0.3262789

conv2.weight f4 [20, 3]
000000 9c 66 f8 bf 40 c9 22 3f f9 18 e1 3f e0 87 b2 3f
       -1.9406314 0.63588333 1.7585746 1.3947716
000010 c8 0a 23 3e bd 19 fc bf 42 0a f4 bf 71 6c dc bc
       0.15922081 -1.9695355 -1.906563 -0.026907178
000020 9c 50 ae 3f f2 74 aa 40 0c 1f 67 40 e4 43 b2 c0
       1.361835 5.3267756 3.61127 -5.5707874
000030 c0 bb 4f 3f 91 b9 61 be 83 63 6b be 5e 05 53 3f
       0.8114586 -0.22043444 -0.2298718 0.82430065
000040 d3 36 e2 be a7 72 94 bf 6e 97 b3 be 48 7c 9b 3e
       -0.44182453 -1.1597489 -0.3507647 0.30368257
000050 d7 25 f5 3e 4c 84 0c 3f 09 60 a5 be 5e fc 4e bf
       0.47880432 0.5488937 -0.32299832 -0.8085383
000060 a9 2c 15 3f 0e d6 8f 40 8d fa 5e c0 12 90 f9 bf
       0.5827127 4.4948797 -3.4840424 -1.9497092
000070 1a d0 1d 3f da 15 e0 3f f3 3e 07 3d 9d 16 22 bf
       0.6164566 1.7506669 0.033019017 -0.63315755
000080 a6 bc 5d 3f 0c bf aa 40 0e c9 1f 40 d8 36 b7 c0
       0.8661598 5.335821 2.4966464 -5.725445
000090 8b f2 0f 40 c9 af 96 be 2a 6d 08 c0 25 11 02 bf
       2.2491786 -0.29430988 -2.1316628 -0.5080741
0000a0 d9 28 07 c0 18 96 22 40 8a 02 83 3c 24 2e b5 3e
       -2.1118681 2.540411 0.015992422 0.35386765
0000b0 43 c4 94 3e ad 7b ad be f1 37 cc bd 6e 09 d1 be
       0.29055986 -0.3388342 -0.099716075 -0.40827507
0000c0 ef 91 88 3e 71 77 12 bf 99 62 f5 bd b0 23 61 bf
       0.26673838 -0.57213503 -0.11981697 -0.8794508
0000d0 1f b6 80 be 07 d9 86 3f 9e 4c b3 c0 4e 13 14 40
       -0.25138947 1.0534981 -5.6031027 2.3136783
0000e0 78 52 1c 3d e0 15 ff 3f 30 e7 cc bd 31 20 27 c0
       0.038164586 1.9928551 -0.10005033 -2.6113398

conv2.bias f4 [3]
000000 13 37 77 3f ec 07 60 bf 3b 7e 82 be
       0.9656841 -0.8751209 -0.2548693
