VVG/Experiment_5 - Intra_patient/Images2/model2_stats.pth (torch, 4088 bytes, 4 tensors)

conv1.weight f4 [22, 20]
0	0x3ecfd53a	0.40592366
1	0x3e8b5950	0.27216578
2	0x3eba6cd1	0.36411145
3	0x3f016e7c	0.5055921
4	0x3f2ecfa8	0.6828561
5	0x3f5046b3	0.8135788
6	0xbe85e814	-0.26153624
7	0xbe07c9a1	-0.13260509
8	0xbefe95fb	-0.497238
9	0xbea1d49a	-0.31607515
10	0x3ea81c9d	0.3283433
11	0x3f0f6036	0.5600618
12	0xbdcb02d9	-0.099126525
13	0xbd0590a3	-0.03260864
14	0xbda3f21c	-0.08005163
15	0xbf0f34cb	-0.5593993
16	0xbf4aef16	-0.79271066
17	0xbeab5c90	-0.33469057
18	0xbf09118f	-0.5354242
19	0x3ec386ab	0.3818868
20	0x3dea5632	0.11442222
21	0xbeb96841	-0.36212352
22	0xbfc4293a	-1.5325081
23	0x3ea63457	0.32461807
24	0xbe06bbc5	-0.13157566
25	0xbdbf2da8	-0.0933488
26	0x3de50cdd	0.11184094
27	0x3f0209e9	0.5079637
28	0x3d778eba	0.06043885
29	0x3ed3cb93	0.41366252
30	0xbfad6f19	-1.3549529
31	0xbd4c96b9	-0.049948428
32	0xbdf14810	-0.11781323
33	0x3e14ec72	0.14543322
34	0xbf627325	-0.88456947
35	0xbd97cc2a	-0.07411988
36	0x3e5d1a8b	0.21592157
37	0x3baf5eff	0.0053519006
38	0x3e80a824	0.2512828
39	0xbebbaae3	-0.36653814
40	0xbdcce527	-0.10004645
41	0x3c733afb	0.014845605
42	0xc02c865d	-2.695701
43	0x3ebd6c89	0.36996868
44	0xbc8ec24e	-0.017426636
45	0xbd3594e7	-0.044331457
46	0xbc2cc71a	-0.010545516
47	0x3e82d725	0.25554767
48	0x3cc0ee15	0.023551026
49	0xbd49f0a8	-0.049301773
50	0xc0146101	-2.3184206
51	0xbe8dbbd4	-0.27682364
52	0xbc6bba60	-0.014387697
53	0x3eff4bd6	0.49862546
54	0xbf1c80b5	-0.6113389
55	0xbe4eba13	-0.20188169
56	0xbdab34fd	-0.08359716
57	0x3e164901	0.14676286
58	0xbe9618cd	-0.29315796
59	0xbec6c1f3	-0.38819847
60	0x3e4d11a8	0.20026267
61	0x3e74afd1	0.23895194
62	0x3db77eb4	0.089597136
63	0x3e11bf8b	0.14233224
64	0x3e568ca8	0.20952094
65	0xbf255c0b	-0.6459357
66	0xbd3550bb	-0.044266444
67	0x3e8905bc	0.26762187
68	0x3e5aaeeb	0.21355788
69	0x3ec4c25d	0.38429537
70	0x3daf6d8f	0.085658185
71	0x3e18f0be	0.14935586
72	0xbea3f155	-0.3202006
73	0xbdb43edb	-0.08801051
74	0x3eed6724	0.46367753
75	0xbbd28c54	-0.00642542
76	0x3e5dafd6	0.21649107
77	0xbd70c3d9	-0.058780525
78	0x3deb5078	0.114899576
79	0xbe124dc0	-0.14287472
80	0xbec95d65	-0.39329067
81	0xbe9b5b4b	-0.30343089
82	0xbc3525d0	-0.0110563785
83	0xbefc2ceb	-0.4925302
84	0xbf0065bc	-0.50155234
85	0x3e9bfc0d	0.30465737
86	0xbdb3851a	-0.087656215
87	0x3e8aea27	0.2713177
88	0x3f1c9b8d	0.6117485
89	0x3e55853b	0.20851605
90	0x3d4e15e2	0.050313838
91	0xbe815d21	-0.25266364
92	0xbebb4fcc	-0.36584318
93	0x3ed8a7bb	0.42315468
94	0x3d4cff70	0.05004829
95	0x3f4a4e4d	0.7902573
96	0x3f210785	0.629021
97	0xbe74021e	-0.23828933
98	0x3f0dfa6a	0.55460227
99	0x3d959b02	0.07304956
100	0xbe63aff5	-0.22235091
101	0x3ddf9330	0.10916746
102	0xbfa4bd8e	-1.2870347
103	0xbed472e6	-0.4149391
104	0xbe1fac8b	-0.15593164
105	0xbcd53f85	-0.026031265
106	0x3e3e1c53	0.18565492
107	0x3e0f04a4	0.13966614
108	0x3e75388d	0.23947354
109	0x3ee41150	0.44544458
110	0xbf60ebc6	-0.8785976
111	0xbeca727e	-0.39540476
112	0xbeb1d61c	-0.34733665
113	0x3ec7131c	0.38881767
114	0xbf6d5c05	-0.92718536
115	0x3f1ce77c	0.6129072
116	0x3e9174df	0.28409478
117	0x3e990f43	0.29894456
118	0x3e238b06	0.15971002
119	0xbe09c6d6	-0.13454756
120	0x3e8c526e	0.2740664
121	0x3dfea892	0.12434496
122	0x3f7ab093	0.9792568
123	0x3df287b4	0.118422896
124	0x3dca47ac	0.098769516
125	0x3e92e1ee	0.28687996
126	0xbe48db8d	-0.19615002
127	0x3f2ae35e	0.66753185
128	0x3e1cfcb6	0.15330777
129	0xc04ea14b	-3.2285945
130	0xbd94e6e5	-0.07270602
131	0x3ed766b0	0.42070532
132	0xbe67434b	-0.22584264
133	0x3f291a61	0.66055876
134	0x3f319505	0.6936801
135	0x3ee2eadd	0.4431981
136	0x3ed4eb94	0.41585982
137	0xbe85b0d1	-0.26111463
138	0xbf907f46	-1.1288841
139	0xbdc4b459	-0.09604711
140	0x3e504f78	0.20342815
141	0xbdf94402	-0.121711746
142	0xc04118bf	-3.0171354
143	0x3dae32b9	0.08505768
144	0xbdd77215	-0.10519806
145	0x3e8e3342	0.27773482
146	0xbe88ce54	-0.26719916
147	0x3e91b375	0.28457227
148	0x3ec08ce0	0.3760748
149	0xbebe798c	-0.37202108
150	0xbffc8c2a	-1.9730275
151	0xbedf42c9	-0.4360564
152	0xbe93956c	-0.28824937
153	0x3f1d2fd1	0.6140109
154	0xbe13f954	-0.1445058
155	0x3eec2b99	0.46127012
156	0xbc667dbb	-0.014068062
157	0xbebb8044	-0.36621296
158	0xbeb9e1cf	-0.3630509
159	0x3de995a8	0.11405498
160	0x3e73fe8c	0.2382757
161	0x3f2f7782	0.6854173
162	0xbfed715a	-1.8550217
163	0x3f128ae4	0.5724318
164	0x3ee9dce4	0.4567634
165	0x3ed604dc	0.41800582
166	0xbe67b493	-0.22627477
167	0x3f948238	1.160224
168	0x3ef078e9	0.46967247
169	0xbdd7e900	-0.10542488
170	0xc0135582	-2.302094
171	0xbf8139ee	-1.0095804
172	0x3df93e24	0.121700555
173	0x3f4ad540	0.79231644
174	0x3f233418	0.63751364
175	0xbed90716	-0.4238822
176	0xbeb92ac8	-0.36165452
177	0x3e2f2687	0.17104541
178	0xbea3c74c	-0.3198799
179	0x3ea44bbe	0.32089037
180	0x3e070535	0.1318558
181	0xbebd0261	-0.36915877
182	0xbe09bf87	-0.13451968
183	0xbf3f258d	-0.7466667
184	0x3c5870d5	0.013210495
185	0x3f0e8138	0.5566592
186	0x3db1390f	0.08653461
187	0xbe440eb9	-0.19146241
188	0x3e632f7c	0.22186083
189	0xbd9add02	-0.07561685
190	0x3e89a0f0	0.26880598
191	0x3f267808	0.65026903
192	0xbea897a6	-0.329282
193	0xbe9f8107	-0.31153128
194	0xbf0f8b07	-0.56071514
195	0x3e7794ca	0.24177852
196	0x3ead005e	0.33789343
197	0x3db539b3	0.08848896
198	0x3e95f47a	0.29288083
199	0xbeb29f06	-0.3488695
200	0x3e3c7ba3	0.18406539
201	0x3ea86d36	0.3289582
202	0xbf089e19	-0.5336624
203	0x3e826a92	0.25471932
204	0x3f4028c2	0.7506219
205	0x3f9a12eb	1.2037023
206	0x3d07b77c	0.03313397
207	0xbf3d1ba6	-0.73870313
208	0xbf91df28	-1.1396227
209	0xbe3b742c	-0.18306035
210	0x3eec7bb9	0.46188143
211	0x3f33f961	0.70302397
212	0xbc89ee4a	-0.016837258
213	0xbf4a6ac6	-0.79069173
214	0xbed904b0	-0.4238639
215	0xbf95383f	-1.165779
216	0xbe3464ac	-0.17616528
217	0xbd4a59bb	-0.04940198
218	0xbe3da461	-0.18519737
219	0x3f4da888	0.80335283
220	0xbf9eab8e	-1.2396104
221	0xbf9abde1	-1.2089196
222	0x40c1851b	6.047498
223	0xbf8576c2	-1.0426867
224	0xbfa70ec6	-1.3051383
225	0xbf4fb599	-0.8113647
226	0xbeb8d29a	-0.36098176
227	0x3e774bce	0.24150011
228	0x3fdff4a8	1.7496538
229	0x3f982cf3	1.1888717
230	0x40a57ba0	5.171341
231	0x405b249a	3.424109
232	0x3eb85e0b	0.3600925
233	0xbed36c37	-0.412935
234	0xc03843e7	-2.8791444
235	0x3ff80579	1.937667
236	0x3fcdfc8a	1.6092694
237	0xbd7b0683	-0.061285507
238	0x3fb35650	1.4010715
239	0xbf97f222	-1.1870768
240	0xbe8a29c1	-0.2698498
241	0xbc90f10c	-0.017693065
242	0xbe245828	-0.16049254
243	0xbd6be331	-0.057589713
244	0xbe9aa5e5	-0.30204692
245	0xbe018380	-0.1264782
246	0xbdb3555c	-0.087565154
247	0x3e95a07b	0.29224
248	0x3efd4c5a	0.49472314
249	0x3f0ea47c	0.55719733
250	0xbe82c596	-0.2554137
251	0x3dfa68b8	0.12227005
252	0xbd2b45e9	-0.04181472
253	0x3e517c07	0.20457469
254	0xbf4e2fc1	-0.80541617
255	0x3e1048ca	0.14090267

conv1.bias f4 [20]
0	0x3ea3e9be	0.3201427
1	0x3e32598a	0.17416969
2	0x3e0b53f8	0.1360625
3	0x3e203bb3	0.15647773
4	0x3eb84ed2	0.35997635
5	0xbd96471e	-0.07337783
6	0x00000000	0.0
7	0x3df2deef	0.118589275
8	0xbe0cf3bd	-0.13764854
9	0xbe30f0d8	-0.17279375
10	0x3e1d8ce6	0.1538578
11	0x3e36f8f9	0.17868413
12	0x00000000	0.0
13	0x3ded5e5b	0.115902625
14	0x3e96a0c7	0.29419538
15	0xbd63ec6a	-0.055645384
16	0xbe0b2898	-0.13589704
17	0x00000000	0.0
18	0xbdc2f19d	-0.0951874
19	0x3e5a0438	0.21290672

conv2.weight f4 [20, 3]
0	0xbfbfc530	-1.4982052
1	0xbd67a48b	-0.056553405
2	0x4007dd67	2.1228883
3	0xbffd07c2	-1.9767992
4	0xbf106564	-0.5640471
5	0x4005d84a	2.0913262
6	0x4042aa85	3.0416577
7	0x3f5b6092	0.8569423
8	0xc0c4487c	-6.133848
9	0xbf51cc0e	-0.8195199
10	0xbe194199	-0.1496643
11	0x3fad9120	1.3559914
12	0xbfd91eca	-1.6962521
13	0x3e2efcd6	0.17088637
14	0x3fbb17d5	1.4616648
15	0xc012ceb7	-2.2938669
16	0x3ffee10c	1.9912429
17	0x3f71f611	0.9451609
18	0x3e7321c8	0.23743355
19	0xbe24a4d6	-0.16078505
20	0x3e46660b	0.19374864
21	0x3e2ec3d2	0.17066887
22	0xbfad3046	-1.3530357
23	0x3f9972ca	1.1988156
24	0x3f97f270	1.1870861
25	0xbf1afc07	-0.60540813
26	0xbf3ae187	-0.7300038
27	0x3f74c41e	0.9561175
28	0x3f0cb12e	0.54957855
29	0xbff49f3d	-1.9111096
30	0x3ff26c1f	1.8939246
31	0x40036943	2.0532997
32	0xc09dcc0d	-4.9311585
33	0x3fb25b98	1.3934202
34	0x400d2504	2.2053843
35	0xc077628e	-3.8653903
36	0x3df9610d	0.12176714
37	0xbefa583f	-0.4889545
38	0xbcec408b	-0.02883937
39	0xbecd89f8	-0.40144324
40	0xbfb9b01e	-1.4506872
41	0x3fce3c97	1.611224
42	0xbf898b9c	-1.074573
43	0xbf406fa8	-0.75170374
44	0x4018a07a	2.3847947
45	0x40022d77	2.034025
46	0xbf2ceca4	-0.67548585
47	0xbffcbeef	-1.9745768
48	0x3fd3344c	1.6500335
49	0x3efbaa75	0.49153486
50	0xbfc51876	-1.539809
51	0xbe703d39	-0.23460855
52	0x3efa442f	0.48880145
53	0xbee9f645	-0.456957
54	0x3fd1e00a	1.6396496
55	0x3ea1aa4e	0.31575245
56	0xc029ebc7	-2.6550157
57	0xbfbaec12	-1.4603293
58	0xbdc5d132	-0.096590415
59	0x3fb86825	1.4406782

conv2.bias f4 [3]
0	0x3ee0f93f	0.4394016
1	0xbed99837	-0.42498943
2	0xbc5edb50	-0.013602093
