VVG/Experiment_3 - Aggregation/Images2/model2_std.pth (torch, 2984 bytes, 4 tensors)

conv1.weight f4 [8, 20]
-0.92468405 0.23424426 0.5507557 -0.17554091 0.5554992 0.19939908 0.624507 0.50470096
-0.23178613 -0.33704302 -0.0011128628 -0.2134128 -0.4759762 -0.8622491 0.9518761 0.23448056
0.8070405 0.8174601 -0.29307482 -0.36587113 0.15259537 -0.06519767 -0.024510106 0.0024233959
0.35641608 -0.28211245 -0.12132736 0.14971489 0.19452146 -0.13626619 0.0507194 -0.4297015
-0.3544404 -0.26656693 -0.18077554 -1.4383178 -5.3368 -0.13450189 0.082878344 0.27018416
0.037630007 0.17449005 0.03402545 0.22255689 -0.48887968 0.42678288 0.20944586 -0.1017507
0.36428192 0.2691446 0.15636471 -0.059914056 0.06458705 0.23579156 0.047998648 -0.8823081
-6.7614284 0.6976782 0.38914564 0.36179477 -0.19620515 0.14054266 0.0923049 0.8015623
-0.29942912 0.79217714 -0.2976579 -0.10372536 -0.41872436 -0.078298874 0.93165565 0.106981255
0.551784 0.23142427 0.054822367 -0.8308156 0.3748749 0.2529375 -0.1542665 -0.15306413
1.5124701 -0.44030556 -0.58917 0.34886485 -0.35908106 0.75454605 -0.40812594 -0.48422843
0.07986588 0.9820137 -0.9502928 0.36313856 0.8563624 1.0640826 -0.56544197 -1.043255
-0.763593 0.44802704 -0.065822 1.0507835 -0.33358777 -0.4244098 0.35847148 0.4576523
0.22679274 0.049881406 0.02750789 0.106970444 0.013733051 0.041365292 -0.30771685 0.10285293
0.4001649 0.4954631 0.19578749 -1.1358663 -3.4234703 0.458317 -0.092020765 0.013577589
0.9374405 0.04729339 -0.13184449 0.8144265 -0.06770761 -0.13325636 -0.041686036 0.08236955
-0.07475981 -1.7848022 0.008240543 0.58397967 0.9263059 0.8475741 -0.10125594 0.29129025
0.09619225 -1.2568979 -0.32893297 -0.80072457 0.36354038 0.074265264 -0.30275667 0.23755254
-0.054891374 0.29973802 -0.10389449 -0.25989386 0.01781566 -0.1460524 0.19263372 0.40239328
-0.15113197 -0.21252134 -0.2912728 -0.8710557 -7.239003 0.39901105 -0.25317878 0.23484741
00000000: 18b8 6cbf badd 6f3e 53fe 0c3f ffc0 33be
00000010: 3235 0e3f 462f 4c3e b1df 1f3f 1534 013f
00000020: 5859 6dbe e790 acbe 7bdd 91ba e388 5abe
00000030: 27b3 f3be 5bbc 5cbf 27ae 733f ac1b 703e
00000040: 359a 4e3f 1145 513f e70d 96be 7653 bbbe
00000050: f641 1c3e 5b86 85bd 6bc9 c8bc d6d1 1e3b
00000060: 2b7c b63e 0b71 90be 7b7a f8bd dc4e 193e
00000070: a230 473e 5d89 0bbe 25bf 4f3d d601 dcbe
00000080: 3679 b5be 767b 88be 391d 39be cc1a b8bf
00000090: 11c7 aac0 ddba 09be 1fbc a93d 9455 8a3e
000000a0: ec21 1a3d 85ad 323e 455e 0b3d f4e5 633e
000000b0: 704e fabe 4983 da3e fa78 563e ac62 d0bd
000000c0: 2983 ba3e 52cd 893e 121e 203e 7168 75bd
000000d0: 3746 843d 5873 713e 3b9a 443d f2de 61bf
000000e0: 9f5d d8c0 0a9b 323f 193e c73e 2a3d b93e
000000f0: 01ea 48be 6aea 0f3e 5a0a bd3d 3033 4d3f
00000100: c64e 99be 1fcc 4a3f 9e66 98be f66d d4bd
00000110: 0a63 d6be 295b a0bd fc80 6e3f fd18 db3d
00000120: b741 0d3f 7cfa 6c3e 6b8d 603d 55b0 54bf
00000130: 9aef bf3e 0681 813e 0af8 1dbe d8bc 1cbe
00000140: 9f98 c13f bb6f e1be d8d3 16bf 6a9e b23e
00000150: 79d9 b7be ee29 413f e2f5 d0be caec f7be
00000160: b990 a33d 4065 7b3f 6446 73bf 4ced b93e
00000170: 913a 5b3f dc33 883f cec0 10bf 6189 85bf
00000180: d57a 43bf cd63 e53e afcd 86bd 1380 863f
00000190: 04cc aabe 3e4c d9be 9389 b73e 6751 ea3e
000001a0: 5b3c 683e 7250 4c3d 3a58 e13c 5213 db3d
000001b0: 9700 613c a76e 293d 108d 9dbe 8fa4 d23d
000001c0: 6ae2 cc3e 57ad fd3e 847c 483e 1164 91bf
000001d0: 231a 5bc0 87a8 ea3e 6275 bcbd 8974 5e3c
000001e0: 1afc 6f3f b7b6 413d 3e02 07be 417e 503f
000001f0: 4aaa 8abd 5b74 08be fabe 2abd 5eb1 a83d
00000200: ac1b 99bd 6674 e4bf 5803 073c b17f 153f
00000210: 6222 6d3f 9efa 583f 465f cfbd ff23 953e
00000220: 7100 c53d 08e2 a0bf e769 a8be 49fc 4cbf
00000230: f721 ba3e 6318 983d ec02 9bbe f940 733e
00000240: c7d5 60bd 4377 993e a2c6 d4bd cf10 85be
00000250: 26f2 913c c38e 15be c641 453e 7e06 ce3e
00000260: 57c2 1abe 329f 59be b521 95be 82fd 5ebf
00000270: eaa5 e7c0 2d4b cc3e a6a0 81be d77b 703e

conv1.bias f4 [20]
-0.72576064 0.84056103 0.5227184 -0.3925918 0.6842726 -0.51882374 0.665975 0.617175
-0.06701867 -0.46699753 0.00806431 0.70568645 0.06637037 -0.7549714 0.48775968 0.071161345
0.08122258 -0.49392095 0.0 -0.43959132
00000000: 73cb 39bf 022f 573f e0d0 053f cb01 c9be
00000010: 7d2c 2f3f a2d1 04bf 567d 2a3f 2eff 1d3f
00000020: 1641 89bd 4d1a efbe 2b20 043c dea7 343f
00000030: 30ed 873d ce45 41bf a3bb f93e 0abd 913d
00000040: 0658 a63d 35e3 fcbe 0000 0000 1d12 e1be

conv2.weight f4 [20, 3]
2.9419694 -3.2960947 -1.6922717 -0.83803177 0.5911242 1.1898022 -0.6570127 1.0315151
0.425412 0.9533004 -0.6633255 -0.7261559 -1.5605049 0.12255161 1.2787333 0.81848305
-0.31605396 -0.33824083 -1.2204778 -0.026189836 0.5388256 -1.1675184 0.3282923 0.65412855
-0.36369038 -0.34843835 -0.12710442 1.9262112 -0.5212059 -1.6705844 -1.1131284 -1.5694988
2.1273825 -0.085314624 -0.648117 0.72256595 0.54940015 -0.41126314 0.36491102 2.6816423
-0.47926763 -1.9570609 -0.97213393 1.2877029 -0.29044592 -1.9816226 -3.788763 1.9943506
3.997539 1.5466291 -3.7955818 0.6020009 0.10951167 -1.146347 0.319876 0.04040734
-0.37747288 1.5517019 -0.7670048 -1.4476844
00000000: 3a49 3c40 37f3 52c0 5c9c d8bf 4089 56bf
00000010: ea53 173f 704b 983f fc31 28bf b008 843f
00000020: 9acf d93e 7f0b 743f b3cf 29bf 5ae5 39bf
00000030: a0be c7bf 57fc fa3d 88ad a33f 1b88 513f
00000040: d3d1 a1be e72d adbe 9e38 9cbf 118c d6bc
00000050: 79f0 093f 3e71 95bf ee15 a83e f874 273f
00000060: a035 babe 8366 b2be a927 02be 178e f63f
00000070: c06d 05bf b6d5 d5bf fe7a 8ebf 56e5 c8bf
00000080: 0927 0840 6fb9 aebd ffea 25bf 15fa 383f
00000090: 7da5 0c3f 1591 d2be 9ed5 ba3e 07a0 2b40
000000a0: 9162 f5be f980 fabf c5dd 78bf 73d3 a43f
000000b0: 54b5 94be cfa5 fdbf 187b 72c0 e146 ff3f
000000c0: aed7 7f40 f1f7 c53f d0ea 72c0 bb1c 1a3f
000000d0: a847 e03d 80bb 92bf c9c6 a33e 2b82 253d
000000e0: 2044 c1be 2b9e c63f 6d5a 44bf b94d b9bf

conv2.bias f4 [3]
-0.48726922 0.09280937 0.4073696
00000000: 5a7b f9be d712 be3d c092 d03e
