VVG/Experiment_3 - Aggregation/Images2/model2_ii_v1.pth (torch, 2552 bytes, 4 tensors)

conv1.weight f4 [3, 20]
00000000: e294 553d c603 1d3e 2d79 b03c 140b a83e
00000010: 5b07 2c3d 9579 92be 3a98 9fbe e12f 013f
00000020: 1d00 bd3f 9b4f 133e 3446 a7be e6eb 0a3e
00000030: 5de3 1a3d 5ec9 3e3e 65e9 063e 7e58 613e
00000040: 7d0a ef3e 5ae1 303e a99e 303e d015 abbe
00000050: 6428 3241 0f32 2cc1 f982 2241 1e46 2bc1
00000060: d126 2141 5bcb edbc 615e e5be fb37 ee40
00000070: 1ee7 a840 fb2b 2341 7d12 653d b812 5ac1
00000080: 03f6 1141 c3cf 4fc1 aed7 62c1 168c 52c1
00000090: eea5 0f41 c31f 63c1 2c29 1441 b462 bebe
000000a0: 78cb 1e40 f8a1 4840 c3a2 4e40 7c58 923f
000000b0: a3e5 6840 3cc1 1bbe 401b 7ebe 98ba 5240
000000c0: 666d adc0 5dde 1040 612b 083e 5653 11c1
000000d0: 31b4 7040 64c9 11c1 bfc6 06c1 eb8b 08c1
000000e0: 0acc 0e40 4a71 10c1 0a70 4c40 c45d e3be
0.05214394 0.1533347 0.021542156 0.32820952 0.041999202 -0.28608385 -0.31170827 0.5046368
1.476566 0.14385836 -0.32670748 0.1356655 0.037814487 0.18631503 0.1317497 0.22006413
0.4668769 0.17273465 0.17248024 -0.3341508 11.134861 -10.762221 10.156976 -10.704618
10.071977 -0.029027632 -0.44798568 7.4443336 5.2782125 10.198237 0.055925835 -13.62957
9.122561 -12.988223 -14.177656 -13.159201 8.97801 -14.195254 9.260052 -0.3718468
2.4811687 3.1348858 3.2286842 1.1433253 3.639016 -0.15210432 -0.24815083 3.2926388
-5.4196043 2.263572 0.13297798 -9.082846 3.760998 -9.111668 -8.423522 -8.53416
2.2312036 -9.027658 3.1943383 -0.44407475

conv1.bias f4 [20]
00000000: 4386 5e3d 056f 203e 890e 323e a3c9 af3d
00000010: 2eee 223e 0000 0000 0000 0000 2342 3a3d
00000020: 1824 2bc0 2522 8c3d 3828 7dbd 62ee b93d
00000030: fe6a 1f3e e425 263d 6c57 c23d 532b 483c
00000040: 30df 793d 1f85 893d 38ce 9c3d 0000 0000
0.05432726 0.1566735 0.17388357 0.08583381 0.15911171 0.0 0.0 0.04547323
-2.674078 0.0684245 -0.061805934 0.09078671 0.15568158 0.04056348 0.09489331 0.012217361
0.061003864 0.06714844 0.076565206 0.0

conv2.weight f4 [20, 3]
00000000: d71b 92c0 9b20 d0bf 47f0 9540 3f9a 943f
00000010: c2bd 25bf 2a18 22bf b730 ccbf a6cc 9bbf
00000020: 1a66 0c40 ad88 663f bdca a1be 13a9 3bbf
00000030: 7045 8ebf e31f 9cbf 6083 fa3f 0145 c3be
00000040: f6b8 5d3e 6b1c f5be 4e71 96be 5bed bebe
00000050: 3448 383e 9444 48be db44 eebe babd e63e
00000060: bc5e 1041 aaaa 943f 50a8 25c1 d32a c8bf
00000070: cd37 3dbf ec8e c63f 177d e43c f2bb 86be
00000080: 478c 113e 1616 cf3f 2682 ac3f 3559 17c0
00000090: 5b21 5fbf 8240 8dbf 7142 f33f 999f 9d3f
000000a0: 7b78 a43f 51b1 1cc0 647b c53f 7342 9c3f
000000b0: d912 2ec0 48eb 823f 5592 7b3f 46e1 ebbf
000000c0: df12 a4be 7b37 3fbe f03a 773f 7e60 cb3f
000000d0: f69f aa3f 2192 12c0 4d4e a0bf f977 85bf
000000e0: 0a26 703f 1d45 8dbe 8245 943d a7cb 5b3e
-4.5658984 -1.625995 4.6855807 1.1609572 -0.6474267 -0.6331812 -1.5952367 -1.2171829
2.1937318 0.900523 -0.3159999 -0.7330486 -1.1114941 -1.2197231 1.9571342 -0.38138583
0.21652588 -0.47873244 -0.2938332 -0.37290463 0.17996293 -0.1955741 -0.46536908 0.45066625
9.0231285 1.1614583 -10.353592 -1.5638069 -0.7391327 1.5512366 0.027891679 -0.26315266
0.14213668 1.6178615 1.3477218 -2.3648198 -0.8716027 -1.1035311 1.9004651 1.231433
1.2849268 -2.4483225 1.5428281 1.2207779 -2.7199004 1.0228052 0.9827016 -1.8428123
-0.32045648 -0.18673508 0.96574306 1.5888822 1.3330066 -2.290169 -1.2523896 -1.0427238
0.93808043 -0.27591792 0.0723982 0.21464406

conv2.bias f4 [3]
00000000: f0de 193f 9956 9d3c c940 18bf
0.601058 0.019206332 -0.59473854
