VVG/Experiment_3 - Aggregation/Images2/model2_avg.pth (torch, 2856 bytes, 4 tensors)

conv1.weight f4 [7, 20]
0.3858943 0.19611685 1.746238 0.54857236 -0.35901555 0.7325969 -0.4532957 1.4206908
0.0013609823 0.44271508 0.16135545 0.22124979 -0.40805498 0.1476086 0.5033274 0.20931245
-0.52732164 0.3908014 0.0028952574 0.27072844 -0.13493216 -0.19999684 0.33538097 -0.27670756
0.1801798 -5.048979 0.038524553 -0.22358996 0.043222692 0.18594389 0.26591223 0.17153434
-0.4965243 0.23350534 0.1995848 0.4631136 0.23818296 -0.013120754 -0.2542853 0.058710005
0.6332806 0.8503704 -0.24088642 -0.083956905 -0.020512192 -6.0953035 -0.028675457 0.08026833
0.3818994 -0.311895 -0.2465769 0.23203954 -0.066918656 -0.41611487 -0.093964204 0.7936422
0.0831529 -0.7717636 0.37313697 0.3016023 0.68351907 0.03587727 -1.1257643 0.7410411
-0.43222907 0.23117177 0.3488206 -1.1150196 0.842513 -0.11755653 0.37929296 0.53619814
-0.73979753 0.35054854 0.18208934 0.672812 0.3339038 0.26222417 0.78768677 -1.1266183
-0.006839363 0.67768365 0.17280856 -0.079684235 -0.22091573 -0.37793112 0.19029301 0.32653728
-0.8511458 -0.30301586 -0.6731344 0.5833036 1.596714 -0.5942529 -0.6773256 0.72019595
0.41491532 -0.54700494 -0.7962852 0.6159525 0.7085282 -0.08576986 -0.06613003 0.73273903
-0.15946664 -3.6487916 -0.28438208 0.092350304 -0.3805732 -0.13993356 0.23945469 0.10418926
0.33092895 0.040811248 -0.35795423 -0.076183096 0.11594808 -0.046809457 -0.07354977 -0.16793317
0.29317573 0.26550728 0.26628602 0.43684793 0.057478473 -1.6818209 1.0126896 0.08256753
0.0066911248 -0.14497477 -0.15638834 -1.9009905 0.60405123 -0.15652196 -0.18052472 0.9435489
0.5797894 -0.011329491 0.008233738 -0.007367804
00000000: f093 c53e dbd2 483e ba84 df3f 3d6f 0c3f
00000010: e3d0 b7be 788b 3b3f 6016 e8be 32d9 b53f
00000020: fd62 b23a 8dab e23e 5d3a 253e 4e8f 623e
00000030: 95ec d0be b526 173e 11da 003f 0156 563e
00000040: 8dfe 06bf 1f17 c83e 5cbe 3d3b eb9c 8a3e
00000050: a82b 0abe f9cb 4cbe 0eb7 ab3e 9dac 8dbe
00000060: 0e81 383e 3c91 a1c0 eccb 1d3d c4f4 64be
00000070: 470a 313d 1368 3e3e a625 883e b3a6 2f3e
00000080: 6f38 febe 061c 6f3e f55f 4c3e 3a1d ed3e
00000090: 3ce6 733e 6ef8 56bc af31 82be e779 703d
000000a0: ad1e 223f e0b1 593f eeaa 76be 99f1 abbd
000000b0: 2f09 a8bc ba0c c3c0 cbe8 eabc b963 a43d
000000c0: 5188 c33e b4b0 9fbe a87e 7cbe c69b 6d3e
000000d0: a60c 89bd 020d d5be 4e70 c0bd 232c 4b3f
000000e0: 114c aa3d 4d92 45bf cf0b bf3e 9e6b 9a3e
000000f0: 1bfb 2e3f 0bf4 123d 0b19 90bf dfb4 3d3f
00000100: 214d ddbe 4bb8 6c3e 9d98 b23e f6b8 8ebf
00000110: efae 573f 7ac1 f0bd b032 c23e 4844 093f
00000120: 5f63 3dbf 197b b33e a175 3a3e 683d 2c3f
00000130: 70f5 aa3e 3f42 863e d7a5 493f 0735 90bf
00000140: bc1c e0bb ad7c 2d3f baf4 303e 7d31 a3bd
00000150: bc37 62be 3080 c1be 2cdc 423e e52f a73e
00000160: b1e4 59bf e524 9bbe 8952 2cbf 6253 153f
00000170: 2061 cc3f f520 18bf 3665 2dbf c35e 383f
00000180: c86f d43e 8408 0cbf 59d9 4bbf 10af 1d3f
00000190: 1b62 353f 1ca8 afbd 2e6f 87bd c994 3b3f
000001a0: 394b 23be cd85 69c0 879a 91be 2822 bd3d
000001b0: 7eda c2be be4a 0fbe 9c33 753e 2e61 d53d
000001c0: 856f a93e b229 273d c745 b7be e205 9cbd
000001d0: 3076 ed3d 46bb 3fbd 43a1 96bd acf6 2bbe
000001e0: 211b 963e 92f0 873e a456 883e 88aa df3e
000001f0: 8c6e 6b3d e845 d7bf d09f 813f 2a19 a93d
00000200: 3941 db3b 4474 14be 4424 20be a853 f3bf
00000210: 1aa3 1a3f 4b47 20be 79db 38be 6c8c 713f
00000220: 146d 143f 549f 39bc cde6 063c 9f6d f1bb

conv1.bias f4 [20]
-0.36602223 -0.112744264 -0.6542744 -0.39264506 -0.074591994 0.015686363 0.34788987 -0.5268032
0.0022361665 0.6784554 0.6265135 -0.63787556 -0.23825897 0.6701208 0.6982266 -0.14027272
0.30061102 0.3352511 0.002292988 0.03800376
00000000: 4467 bbbe 77e6 e6bd 877e 27bf c608 c9be
00000010: b0c3 98bd b080 803c 9f1e b23e 93dc 06bf
00000020: a68c 123b 41af 2d3f 3063 203f d04b 23bf
00000030: 29fa 73be 098d 2b3f fabe 323f a7a3 0fbe
00000040: b0e9 993e 08a6 ab3e f445 163b d5a9 1b3d

conv2.weight f4 [20, 3]
0.46675727 -0.41287148 -0.7205337 0.6692634 -0.95719385 0.013277027 -6.8139195 3.6957746
2.2753065 0.7197671 -0.23325005 -0.8206283 0.16825208 0.43790764 -0.11147347 1.6181859
0.6831818 -2.2301514 -0.14041846 -0.5827576 0.3448282 -6.6278677 2.852711 3.206645
-1.9356133 -0.67859155 2.2919557 -1.5015925 0.29440567 0.57690513 -0.8505752 0.3461237
0.1262044 1.3106518 0.067613326 -1.090079 2.9787076 -3.4663663 -1.859678 -0.80458254
0.25470793 0.5165163 -1.2486778 0.3256417 0.08968044 0.42804423 -0.3290667 -0.015073222
-0.14884606 -0.8454676 0.23563184 -0.66908115 0.5623471 -0.39826944 -1.4908803 -0.83555204
1.7057359 3.0431905 -3.4000595 -0.5278754
00000000: cffa ee3e e463 d3be e674 38bf d954 2b3f
00000010: a80a 75bf e387 593c a10b dac0 9287 6c40
00000020: 9f9e 1140 a842 383f 1ad9 6ebe b214 52bf
00000030: 464a 2c3e 6e35 e03e 344c e4bd b720 cf3f
00000040: 01e5 2e3f cdba 0ec0 dbc9 0fbe 9a2f 15bf
00000050: 528d b03e 7e17 d4c0 d192 3640 ac39 4d40
00000060: 2dc2 f7bf 2db8 2dbf 67af 1240 2f34 c0bf
00000070: 57bc 963e 0eb0 133f 4cbf 59bf 2037 b13e
00000080: ba3b 013e 70c3 a73f db78 8a3d b587 8bbf
00000090: 25a3 3e40 f2d8 5dc0 ee09 eebf 1ff9 4dbf
000000a0: 1469 823e 6a3a 043f add4 9fbf 82ba a63e
000000b0: 61aa b73d 9d28 db3e 6e7b a8be adf5 76bc
000000c0: 1a6b 18be 9170 58bf 7949 713e e748 2bbf
000000d0: fbf5 0f3f f9e9 cbbe 2ad5 bebf bde6 55bf
000000e0: 8e55 da3f a2c3 4240 939a 59c0 d822 07bf

conv2.bias f4 [3]
-0.2305018 0.2737735 0.029625678
00000000: aa08 6cbe 0a2c 8c3e 8db1 f23c
