VVG/Experiment_3 - Aggregation/Images2/model2_rr.pth (torch, 2720 bytes, 4 tensors)

conv1.weight f4 [5, 20]
00000000: e0ab 1ebf d12b 473c 9d8d 77bf cdb7 c4be
00000010: 4e44 8abe 1956 babe 0c83 163f 9b8a 1dbf
00000020: 93fe 3f3d 9f4e 0d3f 51c2 f6be e936 1f3c
00000030: b9bd 6f3f 9d28 14bf f612 5d3f b71d fdbe
00000040: a7a2 f5bb 9143 68bf 88a7 a73f dfa3 41be
00000050: 8693 fbc0 68c8 0141 208d e6c0 018a aac0
00000060: 2602 ddbe fd50 6b3e 32a1 28c1 e17c 2cbf
00000070: de7f 1641 ffbf 3f40 d529 59be 8a6c fd40
00000080: be89 8740 f1a5 dcbf 1c85 d640 9da6 99c0
00000090: bbe7 9740 a885 0f41 80f6 7cc0 8171 d2c0
000000a0: 2f02 15c1 b900 0041 7aa5 1dc1 d911 66c0
000000b0: 266f 8dbe e258 f03e 1a66 24c1 b050 1940
000000c0: d195 1941 f887 c23f b8fb d73d f1d5 fd40
000000d0: ef60 d53f 3dfa b4bf a753 a240 b12c edbf
000000e0: 6af9 ab40 b90c 2941 22d3 96c0 13be 8ac0
000000f0: 22a4 f53e db76 163f 22d8 3c3f 9c92 fc3d
00000100: da5c 45be 6cf5 7dbe 26fa 443e 9b03 683f
00000110: e264 e13d a1d9 923e 24d4 85be 86c5 243f
00000120: 8b8d f3be 72a9 2fbf c22d b7be 15ea 653f
00000130: 0384 5c3f f52f 7e3e aa0e 5c3f bf70 3f3f
00000140: e45d 453f 5798 27bf 4c07 52bc c69e 883f
00000150: a32f 263d 047d 55bc 80d1 553f 69e3 e53e
00000160: 5011 a8be 607f 65bf 6220 51be 41b0 35bf
00000170: b2ea 02bf 220c c43f d46b 17bf 369a 3b3f
00000180: c808 68bf b79c 2f3f dd19 38c0 8371 143f
-0.6198101 0.012156443 -0.9670046 -0.3842148 -0.27005237 -0.36393812 0.5879371 -0.6153962
0.04687364 0.5519809 -0.48195127 0.009717681 0.9364887 -0.5787447 0.8635706 -0.49436733
-0.0074961963 -0.907281 1.3098001 -0.18910168 -7.861758 8.111427 -7.204727 -5.329346
-0.43165702 0.22980113 -10.539354 -0.6737805 9.406218 2.9960935 -0.21207364 7.9194994
4.235564 -1.7238141 6.7037487 -4.8015885 4.7470374 8.970131 -3.9525452 -6.5763555
-9.313033 8.000176 -9.8529 -3.5948393 -0.27623862 0.46942812 -10.274927 2.3955498
9.599076 1.5197744 0.105460584 7.932366 1.6670207 -1.4138867 5.0727115 -1.8529264
5.374196 10.565606 -4.713273 -4.3357024 0.47976786 0.5877511 0.7376729 0.12332651
-0.19273701 -0.24800652 0.19236049 0.906305 0.1100557 0.28681663 -0.26138413 0.64363897
-0.47568926 -0.6861793 -0.35777098 0.89810306 0.86138934 0.24822982 0.85959876 0.7478141
0.7709639 -0.6546683 -0.0128191225 1.0673454 0.040572774 -0.013030294 0.83522797 0.44900063
-0.32825708 -0.89647484 -0.2042251 -0.7097207 -0.51139367 1.5316203 -0.5914891 0.7328218
-0.906384 0.685985 -2.8765786 0.57985705

conv1.bias f4 [20]
00000000: c8f9 3bbf 2280 1cbc ccb8 9c3d 8105 c9be
00000010: 88c3 b9bc 0000 0000 ed73 00bf 7756 efbd
00000020: ffb1 343f 8675 2e3f 0000 0000 495e 16bc
00000030: 7e28 5e3f 6417 cfbd 6848 583f 4de9 aabe
00000040: e8a8 4ebb 854f 893e d43c ed3e 297a debe
-0.7342801 -0.009552034 0.07652435 -0.39262012 -0.022676244 0.0 -0.5017689 -0.11686414
0.705841 0.68148077 0.0 -0.009177753 0.86780536 -0.10111883 0.84485483 -0.3338112
-0.0031533781 0.2681848 0.4633547 -0.43452576

conv2.weight f4 [20, 3]
00000000: 2ad1 eb3f f14d cd3f 2886 69c0 b918 b7bf
00000010: 24c7 c6bf 78ec 0b40 76d3 3ac0 592e 4040
00000020: ce74 4dbf 30fb 9f3f c1fd 1abf e8f3 22bf
00000030: b9dc b13d 91f8 143e 7f2d 4f3e e90b d5be
00000040: 8211 933e 1527 36be 3b98 6e3f 3d51 bc3e
00000050: e63d e5bf cca8 273f 7cab 81bf ca04 32be
00000060: a963 eabf fd0a 41be 00c6 d33f 4d6b 76bf
00000070: 8fca 733f 91b8 d63d fe43 85be f5b6 b5bb
00000080: be4c c7be 5e6b a4bf c5e6 8cbf 7ea4 1040
00000090: 6b7f 03c0 a5a0 b13f 13f6 013f a939 1a40
000000a0: a07b 6dc0 934d d03e a752 debf a995 883f
000000b0: d343 863f eadd 893f fc7d 50bf 736f d4be
000000c0: 5151 13c0 eaf5 1fbf 03b0 e03f f12a 2ebd
000000d0: 7327 d3bf a7b2 9d3f be32 c240 7a07 cebf
000000e0: f8a0 5ec0 e1f2 843f 2063 44bf e55b 77bf
1.8423207 1.6039411 -3.6488132 -1.430442 -1.5529523 2.186308 -2.9191566 3.0028288
-0.80256355 1.2498531 -0.6054345 -0.6365342 0.08684678 0.14547946 0.20232199 -0.4161065
0.28724295 -0.17788346 0.93201035 0.3678073 -1.7909515 0.6549194 -1.0130458 -0.1738464
-1.8311664 -0.18851848 1.65448 -0.9625748 0.95230955 0.10484422 -0.26028436 -0.005545492
-0.38925737 -1.2845266 -1.1007925 2.2600398 -2.054652 1.387715 0.50766104 2.4097693
-3.7106705 0.40684184 -1.7368973 1.0670673 1.0489448 1.0770848 -0.81442237 -0.4149128
-2.3018382 -0.6248461 1.7553715 -0.04252142 -1.6496414 1.2320145 6.068694 -1.6096032
-3.4785748 1.0386621 -0.7671375 -0.96624595

conv2.bias f4 [3]
00000000: 38c3 02bf c173 cd3e e629 423e
-0.5107913 0.40127376 0.18961295
