VVG/Experiment_3 - Aggregation/Images2/model2_dif.pth (torch, 2792 bytes, 4 tensors)

conv1.weight f4 [6, 20]
0	0xbd8493c1	-0.06473494
1	0x3f59b48a	0.85041106
2	0xbf2098a1	-0.62732893
3	0xbfc1c2e1	-1.5137597
4	0xbf536d02	-0.8258821
5	0xbc97cfd5	-0.01853172
6	0x3f46622a	0.77493536
7	0xbc4626a0	-0.01209417
8	0xbf2680cb	-0.6504027
9	0x3dbd9d8f	0.092585675
10	0x3f31976b	0.6937167
11	0xbed2dd81	-0.4118462
12	0x3ef6f9b0	0.4823737
13	0xbf04986f	-0.51795095
14	0x3f3fef7c	0.749748
15	0xbd184cb1	-0.037182514
16	0xbec4b8e0	-0.38422298
17	0x3f39a8b3	0.7252304
18	0x3ef05f37	0.46947643
19	0x3f47f6a7	0.78110737
20	0x40a18d9d	5.048537
21	0x3f8f4d20	1.1195412
22	0xbf668ebe	-0.9006156
23	0x408c3f5b	4.382734
24	0xbffacabc	-1.959312
25	0x40836223	4.1057296
26	0x40286935	2.6314213
27	0x3f558edf	0.8342113
28	0xbfd526cb	-1.6652464
29	0xbeb5cea4	-0.35509217
30	0xc10e98d3	-8.912311
31	0xbf8e91f6	-1.1138294
32	0x407e2ee5	3.9716122
33	0x3e82741f	0.25479218
34	0x405e6609	3.4749777
35	0x40d57f1b	6.671766
36	0xbe4bb821	-0.19894458
37	0xc0efacd5	-7.4898477
38	0xc085e365	-4.184008
39	0x3f6952d0	0.91141987
40	0x40bb4b15	5.8529153
41	0x3f2a0078	0.66406965
42	0x3e187d4c	0.14891547
43	0x401dadd1	2.463734
44	0xbfda6c8b	-1.7064375
45	0x40450dba	3.0789628
46	0x3fdcfec3	1.7265247
47	0xbd559ba7	-0.052150395
48	0xc0059f78	-2.0878582
49	0xbdd9a2c8	-0.10626751
50	0xc13a5398	-11.645409
51	0xbeb247cd	-0.34820405
52	0x407bcc7f	3.9343565
53	0x3fb74a87	1.4319619
54	0x4036fb8c	2.8591032
55	0x40ea3b77	7.319759
56	0x3e8337e6	0.25628585
57	0xc14e6075	-12.898549
58	0xc0870df4	-4.2204533
59	0xbf5f485f	-0.87219805
60	0x3f1d26c5	0.6138728
61	0x3f5c709f	0.86109346
62	0xbf0594db	-0.5218026
63	0x3f1ed497	0.62043136
64	0x3e92e95b	0.2869366
65	0x3ead98e7	0.33905718
66	0xbf32c45f	-0.6983089
67	0xbf57f72a	-0.8436152
68	0xbda7aefe	-0.08187674
69	0xbea79669	-0.3273194
70	0xbeb8eeef	-0.36119792
71	0xbdbb996b	-0.091601215
72	0x3c6e9229	0.0145612145
73	0xbe8e0976	-0.27741593
74	0xbe20316f	-0.15643857
75	0x3f063993	0.524316
76	0xbeab7acf	-0.33492133
77	0x3e286ad1	0.16446997
78	0x3e295e92	0.16539982
79	0xbe8b0e81	-0.27159503
80	0x3f0ceab1	0.5504561
81	0xc00107a5	-2.0160916
82	0x3fceb0e2	1.614773
83	0x3e04e6d4	0.12978679
84	0x3f88a6f4	1.067595
85	0xbec6b94d	-0.38813248
86	0xbe362390	-0.17787004
87	0x3f5c80e9	0.861342
88	0x3fc55323	1.5415996
89	0xbe534b75	-0.20634253
90	0xbf0da985	-0.5533679
91	0x3f8eedd7	1.1166333
92	0xbf2156d5	-0.6302312
93	0x3f81fb6a	1.015485
94	0xbf2f30d5	-0.68433887
95	0x3e5df1ce	0.21674272
96	0xbe8a6c0a	-0.27035552
97	0xbf08d366	-0.5344757
98	0x3f76f895	0.96473056
99	0xbf103a81	-0.5633927
100	0x4062793b	3.5386493
101	0x3f0aed5f	0.5426845
102	0xbf9cbe08	-1.2245493
103	0x409a9958	4.8312187
104	0xbfb595b0	-1.4186306
105	0x4085d260	4.1819305
106	0x40134e43	2.3016517
107	0x3fd5d362	1.6705134
108	0xbf7495dc	-0.9554117
109	0x3e97f3f3	0.29678306
110	0xc0a1f8ce	-5.0616217
111	0xbf880a5b	-1.062816
112	0x408e8df7	4.4548297
113	0x3f17ab70	0.5924597
114	0x4045f302	3.092957
115	0x4098519c	4.759962
116	0xbddc1321	-0.10745836
117	0xc0742080	-3.8144836
118	0xc08acd27	-4.337543
119	0x3f5a066a	0.8516604

conv1.bias f4 [20]
0	0xbe0a35f1	-0.1349714
1	0x3d109230	0.035295665
2	0xbe7e02ca	-0.24805751
3	0x3f00fa7f	0.50382227
4	0xbf426aee	-0.7594441
5	0x3f25347f	0.6453323
6	0x3f3ba3b9	0.73296696
7	0xbbf3c50a	-0.0074392604
8	0xbf0df8d5	-0.5545781
9	0x00000000	0.0
10	0x3f17b147	0.5925488
11	0xbeddfffb	-0.4335936
12	0x3ed49ead	0.4152731
13	0xbdd957f3	-0.10612478
14	0x3f2ea7aa	0.68224585
15	0x3c8dce6e	0.017310347
16	0x00000000	0.0
17	0x3ddf4b30	0.10903013
18	0xbf1de8e3	-0.6168348
19	0x3f4018be	0.75037754

conv2.weight f4 [20, 3]
0	0x3effe87b	0.49982056
1	0xbf57ad41	-0.8424874
2	0x3e22d52d	0.15901633
3	0x408a17a5	4.3153863
4	0xc035fe52	-2.8436475
5	0xbf888795	-1.0666376
6	0x3ff72494	1.9308038
7	0xc02d52c6	-2.708177
8	0xbfd7c70b	-1.6857618
9	0xbfb6ed99	-1.4291259
10	0x3e375629	0.17903961
11	0x3fd1cdcb	1.6390928
12	0x400778a5	2.1167386
13	0x3ea864af	0.32889315
14	0xc00ed7ea	-2.2319283
15	0xbfb4f63d	-1.4137646
16	0xbee769b6	-0.4519784
17	0x3fc6946f	1.5514048
18	0xc00e033b	-2.2189472
19	0x3f354e9d	0.7082308
20	0x3f69a501	0.912674
21	0xc05ffcce	-3.499805
22	0xc005d217	-2.0909479
23	0x408b0c5c	4.3452587
24	0x400ae14a	2.1700006
25	0xbe4fc3eb	-0.2028958
26	0xbff60f2a	-1.9223378
27	0x3ed5acf3	0.41733512
28	0x3e98c7ce	0.2983994
29	0x3dfee66f	0.124462955
30	0x401da5a9	2.463236
31	0x401a1bec	2.4079542
32	0xc08f6466	-4.4810057
33	0x3f75eafd	0.9606169
34	0xbd296e80	-0.041365147
35	0xbf7563b5	-0.95855266
36	0xbf026d49	-0.50948006
37	0xbecac1ec	-0.39601076
38	0x3f96c190	1.177782
39	0x4002aacb	2.0416744
40	0xbffc8790	-1.972887
41	0xbf1841dc	-0.59475493
42	0xbfe5f687	-1.7965859
43	0x3bebbafa	0.00719392
44	0x3fc1e9e1	1.5149499
45	0x3f079158	0.5295615
46	0xbf1e444f	-0.6182298
47	0x3f04e0eb	0.519057
48	0xbe07e90d	-0.13272496
49	0xbed1e0dd	-0.4099187
50	0x3e9bbaf4	0.3041607
51	0x402422fc	2.5646353
52	0x40045605	2.0677502
53	0xc0877e61	-4.234177
54	0x3f858905	1.043244
55	0x3f2a402d	0.66504174
56	0xbf699a92	-0.9125148
57	0xbfc58d9d	-1.5433842
58	0x3f3810da	0.71900713
59	0x3f1f3420	0.6218891

conv2.bias f4 [3]
0	0xbf12fa9a	-0.5741364
1	0x3ee92727	0.45537683
2	0x3e1d8464	0.15382534
