VVG/Experiment_3 - Aggregation/Images2/model2_stats.pth (torch, 4088 bytes, 4 tensors)

conv1.weight f4 [22, 20]
-0.33820733 0.086042225 -0.38077357 0.18367274 0.6638391 -0.11666112 0.27148673 0.027767466
0.63636625 -0.3390733 0.73970103 -0.2606291 0.34189862 -0.1806215 0.20175998 0.64595133
0.66828275 0.3198793 -0.19700177 0.19895771 -0.03907632 0.245864 0.17266725 0.30116805
0.39742976 0.36702684 0.21717481 -0.099167265 -0.42177874 0.04834802 -0.011714126 0.41306913
0.22612709 0.08134078 0.053266797 -0.04678143 -0.12037537 0.3767439 0.33323723 -0.158615
0.11720951 -0.28759262 0.069435574 -0.1954487 -0.22103846 0.6377943 -0.27503917 -0.06055052
-0.8971823 -0.01678038 0.013980535 0.22701757 0.31491408 0.34833196 -0.09034802 0.2918303
-0.33537978 0.5142593 0.5181374 0.11079275 -0.096567504 0.24352507 -0.31640667 -0.28635865
-0.45894915 -0.44768137 0.3168742 0.1808629 0.49320084 -0.6415528 -0.3529608 0.40556654
-0.016529085 0.88101023 -0.5810564 0.09955426 -0.03523826 -0.23278564 0.34629187 0.99845433
0.53682977 -0.14049754 0.09072717 -0.3272472 0.022621104 -0.8729481 0.50143653 0.78440905
-0.642427 1.3334992 -0.2654197 -0.2730219 -0.14011244 0.5237442 1.0537057 -0.5356121
-0.21749784 0.22345404 0.80236715 0.49072784 0.6362553 -0.035230562 -0.052858155 0.2790043
0.08841958 0.09708942 -0.15942228 0.5055771 -0.26296934 0.5159798 0.12956494 0.39387396
-0.15481007 0.27618256 0.29737827 -0.12593298 -0.24005583 0.13808669 0.16625464 -0.21146257
0.9612879 -1.4701679 -0.14190112 -0.18924157 -0.04723238 0.41090187 -0.5925524 -1.8440439
-0.08875615 0.47602552 -0.08884087 -0.20393308 0.14427361 0.26204854 0.4713088 0.06521987
0.0956479 -0.10858544 0.328807 0.64599705 0.4606517 -0.056646325 -0.20896372 0.08504795
-0.1452392 0.44393614 -0.10070116 -0.39480206 -0.7339067 0.0029216385 -0.14873222 0.10018527
0.5267947 0.48252574 0.34299225 0.20734394 -0.69163007 -0.0029823876 0.27030846 0.35836083
-0.1293388 0.116014585 0.010472238 0.23719612 0.19271156 0.07980884 -0.66290593 -0.6200609
-0.33237347 -0.47821146 0.9108745 0.47676548 0.7397151 0.16553654 -0.19741954 0.5655802
-0.59546363 0.2221437 0.70563066 -0.18054628 0.79255545 -0.17182368 -0.15315194 0.10991429
-0.17960559 -0.3610871 0.37157556 0.59369093 0.7126352 -0.47220364 -0.009898543 -0.45294937
-0.7173652 0.002098515 0.8306301 -0.19966324 0.15392917 -0.1437934 -0.38780805 -0.026709663
0.920135 -0.28930664 0.19916354 -0.12423627 -0.14625102 -0.38794044 0.43365416 0.6435339
0.19284344 -0.124207854 -0.4286232 -0.80495876 -0.4395018 1.2983654 0.9354335 -0.88742155
-0.6703751 0.058986455 0.62494296 0.77053255 1.1944566 0.9195091 -0.37489858 -0.21042213
-0.80515283 -0.2486652 0.7817106 3.9526346 1.2377893 1.4283919 -1.3609495 -0.64635855
-0.9742636 1.1222842 0.6689406 -1.1724639 -0.12208395 -1.1736301 -0.004031918 1.3185014
0.73404974 0.78547126 0.13300087 -0.37548193 -0.11188562 0.08967278 0.44159815 1.0679873
-0.16520736 0.24221495 -0.33842567 -0.30284944 -0.27122974 0.3292602 0.42637074 -0.2834113
00000000: 8329 adbe e836 b03d c1f4 c2be b514 3c3e
00000010: 5cf1 293f 06ec eebd 4f00 8b3e 9978 e33c
00000020: e6e8 223f 049b adbe 0c5d 3d3f 2d71 85be
00000030: 560d af3e d8f4 38be 2b9a 4e3e 115d 253f
00000040: 9414 2b3f 38c7 a33e d5ba 49be 92bb 4b3e
00000050: 7e0e 20bd c6c3 7b3e afcf 303e b332 9a3e
00000060: ea7b cb3e f1ea bb3e 1363 5e3e 3518 cbbd
00000070: 62f3 d7be 9308 463d 9bec 3fbc cc7d d33e
00000080: dc8d 673e ff95 a63d 492e 5a3d e29d 3fbd
00000090: 5d87 f6bd 94e4 c03e 129e aa3e f86b 22be
000000a0: 8a0b f03d 573f 93be 3d34 8e3d b423 48be
000000b0: e857 62be 7d46 233f efd1 8cbe d203 78bd
000000c0: bdad 65bf 0277 89bc 9d0e 653c 4b77 683e
000000d0: 6b3c a13e 9158 b23e 6208 b9bd c86a 953e
000000e0: e6b6 abbe 7fa6 033f a7a4 043f 4fe7 e23d
000000f0: 2fc5 c5bd a35e 793e 0e00 a2be 9a9d 92be
00000100: 62fb eabe 7e36 e5be 563d a23e 2034 393e
00000110: d284 fc3e ce3c 24bf 47b7 b4be 6ba6 cf3e
00000120: 0168 87bc e389 613f 1dc0 14bf 1be3 cb3d
00000130: fe55 10bd 5c5f 6ebe 2b4d b13e b49a 7f3f
00000140: ad6d 093f 96de 0fbe 2bcf b93d f28c a7be
00000150: e54f b93c 8779 5fbf 255e 003f 08cf 483f
00000160: 1976 24bf 1ab0 aa3f 17e5 87be 87c9 8bbe
00000170: a379 0fbe 1a14 063f d4df 863f e01d 09bf
00000180: c1b7 5ebe 23d1 643e ef67 4d3f ae40 fb3e
00000190: a1e1 223f ec4d 10bd cb81 58bd a7d9 8e3e
000001a0: 5315 b53d d1d6 c63d 983f 23be 806d 013f
000001b0: eba3 86be 4117 043f acac 043e d9a9 c93e
000001c0: 8886 1ebe cd67 8d3e f741 983e 93f4 00be
000001d0: 32d1 75be 9966 0d3e a83e 2a3e a589 58be
000001e0: f716 763f 762e bcbf 874e 11be 8bc8 41be
000001f0: bd76 41bd bb61 d23e 84b1 17bf a109 ecbf
00000200: c9c5 b5bd 9eb9 f33e 34f2 b5bd d5d3 50be
00000210: 76bc 133e 3a2b 863e 634f f13e ff91 853d
00000220: 0ce3 c33d 0b62 debd 6459 a83e 1060 253f
00000230: 8ada eb3e fa05 68bd 96fa 55be 9f2d ae3d
00000240: 96b9 14be 994b e33e 693c cebd 7f23 cabe
00000250: 4fe1 3bbf f678 3f3b 424d 18be ef2d cd3d
00000260: 04dc 063f 9d0d f73e ae9c af3e f851 543e
00000270: ab0e 31bf 2974 43bb df65 8a3e 127b b73e
00000280: 6471 04be 0e99 ed3d c093 2b3c 8ae3 723e
00000290: 2e56 453e d172 a33d 34b4 29bf 50bc 1ebf
000002a0: db2c aabe 22d8 f4be 122f 693f 9b1a f43e
000002b0: f85d 3d3f 6982 293e 5928 4abe ddc9 103f
000002c0: 4e70 18bf a379 633e 36a4 343f 20e1 38be
000002d0: eae4 4a3f 8cf2 2fbe ddd3 1cbe be1a e13d
000002e0: 87ea 37be 69e0 b8be 273f be3e 21fc 173f
000002f0: 436f 363f adc4 f1be 802d 22bc fbe8 e7be
00000300: 3fa5 37bf 3d87 093b 2da4 543f 8574 4cbe
00000310: 9c9f 1d3e 943e 13be c78e c6be 39ce dabc
00000320: f88d 6b3f 0020 94be 87f1 4b3e 966f febd
00000330: d4c2 15be 21a0 c6be eb07 de3e a3be 243f
00000340: c078 453e b060 febd 8074 dbbe c711 4ebf
00000350: 6106 e1be d630 a63f 9278 6f3f 0f2e 63bf
00000360: b49d 2bbf c89b 713d 43fc 1f3f 9f41 453f
00000370: f4e3 983f f364 6b3f b5f2 bfbe e678 57be
00000380: 7f1e 4ebf 17a2 7ebe 301e 483f f7f7 7c40
00000390: e16f 9e3f 8cd5 b63f 9833 aebf c177 25bf
000003a0: 5769 79bf 02a7 8f3f b13f 2b3f 4c13 96bf
000003b0: 2607 fabd 8339 96bf 2e1e 84bb a7c4 a83f
000003c0: afea 3b3f a514 493f 6131 083e 2b3f c0be
000003d0: 4a24 e5bd 5da6 b73d 2719 e23e cfb3 883f
000003e0: 1e2c 29be 3207 783e 2146 adbe 150f 9bbe
000003f0: a0de 8abe cb94 a83e 444d da3e 491b 91be

conv1.bias f4 [20]
-0.30301172 0.011824489 -0.078263246 -0.009938597 0.6137606 0.1848369 -0.31702185 -0.4506178
0.19510765 -0.15603085 0.7339111 0.30495933 0.43584582 -0.19902185 -0.31214687 0.7028874
0.37386748 0.34062138 0.03236879 -0.25451204
00000000: 5a24 9bbe 80bb 413c 7b48 a0bd 7fd5 22bc
00000010: 6a1f 1d3f e245 3d3e b050 a2be 60b7 e6be
00000020: 4dca 473e 8dc6 1fbe 99e1 3b3f a123 9c3e
00000030: 2f27 df3e 62cc 4bbe b7d1 9fbe 6ef0 333f
00000040: 8f6b bf3e ed65 ae3e 2395 043d 674f 82be

conv2.weight f4 [20, 3]
1.2575117 0.24078244 -2.4619677 0.55240613 0.9102236 -1.9147618 -0.15188076 -0.34172958
0.20820378 0.28066307 -0.4839959 -0.42407182 -1.3015109 0.6145734 1.9166648 -0.7662727
-3.8102615 1.0394764 0.82703793 -0.22457081 -1.8093116 1.7372997 0.3281828 -3.6889179
1.4463348 2.2950947 -3.145419 3.8108296 -3.2599208 -1.5846272 -1.9858121 0.71776015
1.5433 -1.2144873 -1.055121 2.4258075 -1.3749832 -1.0872223 2.274332 0.57933605
-1.0894567 0.07891305 1.2397972 1.3185972 -3.0230112 -1.0062776 0.36955345 1.7207584
-0.43690756 2.2371068 -2.342783 -1.7519141 -1.0244663 2.8282905 -0.33339337 -1.8241388
0.8873787 0.7579107 -0.63036805 0.06026463
00000000: 25f6 a03f ac8f 763e e190 1dc0 7d6a 0d3f
00000010: 6a04 693f ea16 f5bf a186 1bbe 2ef7 aebe
00000020: 5f33 553e 12b3 8f3e 50ce f7be f11f d9be
00000030: e997 a6bf af54 1d3f 4655 f53f 732a 44bf
00000040: 53db 73c0 900d 853f c2b8 533f e4f5 65be
00000050: 8697 e7bf d65f de3f 9307 a83e 3b17 6cc0
00000060: 8021 b93f d5e2 1240 8b4e 49c0 a2e4 7340
00000070: 8ba2 50c0 10d5 cabf 172f febf 21bf 373f
00000080: db8a c53f 5274 9bbf 340e 87bf 6e40 1b40
00000090: 73ff afbf 1a2a 8bbf a88e 1140 5e4f 143f
000000a0: 5173 8bbf 2a9d a13d adb1 9e3f cbc7 a83f
000000b0: 0479 41c0 b4cd 80bf 1c36 bd3e d041 dc3f
000000c0: 59b2 dfbe c22c 0f40 28f0 15c0 b93e e0bf
000000d0: b621 83bf b602 3540 89b2 aabe 617d e9bf
000000e0: 402b 633f 7006 423f cd5f 21bf 0bd8 763d

conv2.bias f4 [3]
-0.36052552 0.30764458 0.11514556
00000000: cd96 b8be 9783 9d3e 6fd1 eb3d
