VVG/Experiment_4 - Swap_datasets/Images7/model7_stats.pth (torch, 39630 bytes, 18 tensors)

conv1.fc_neigh.weight f4 [50, 22]
00000000: ff85 ddbe 5998 e53e 96df 3cbd e745 b0be
00000010: d885 1f3d c03d da3e 16a1 05be cfc9 8ebe
00000020: 234c e6bd e7a9 be3e 3ae0 9f3e f6bb 553e
00000030: 9e92 29bc 7e8d b03e 05ea 353d 526c b43e
00000040: b946 9a3e 986f debe ea80 21be dd94 89bd
00000050: 6a38 793e 2492 173f 4ffd aabe fc99 693e
00000060: 37da 7d3e ffb3 73bd ab8b a3be a1df 5c3e
00000070: a9a6 9d3e 5178 95be 446d 4f3c ae72 c9be
00000080: a4b7 b0be ea8f 8fbd e3da a8be ef1c 6e3d
00000090: 249d 633e f3cc ca3e 97c0 3c3e 9e7e 863e
000000a0: c66e fb3d 17cf 893e 6fcb d33d f72c 89be
000000b0: 5f94 973e 9dd7 623e 3856 953e 3549 173e
000000c0: d421 e43d 09f7 b0be 0645 c83e 2f21 20be
000000d0: b2d1 513d ac7b 163c 685d e6be c621 01bf
000000e0: 3aa2 713e 13c2 9fbe 0442 223f f147 b6be
000000f0: 44b3 d63d 9da4 693e e5f0 bd3e 22d8 bdbd
00000100: ed8b b1bd 91c4 e7be 44b8 d63e 8ab0 143e
00000110: 62c1 593e f499 e93c 7fce 0bbe 43bb 753d
00000120: bf18 0cbe 83b6 72bd 5e5b a03e 1be2 6ebe
00000130: 4d9e f83d dc6f 683e fe0a c1be b9cf 95be
00000140: 5336 e7be 8300 82be 8e30 dabe 1d1f 633e
00000150: e5a0 afbe ba8a 593e eb00 863e 4c34 003f
00000160: 9244 f4be 09b9 febb 795d cebe 02e6 a53e
00000170: 5408 653c 00e0 033f 3084 4bbe d0ed acbe
00000180: 0c19 05bf 2760 a33e 834f f9bd ba91 623e
00000190: 6c60 62be 5005 0c3f bd5e acbe 32ae 673e
000001a0: fe69 2dbd 78c3 6cbe d454 613e 4c6b 693e
000001b0: c4fb 333f 94e1 be3e 68a9 5ebe cdf3 173e
000001c0: 835e 93be 5423 bd3e 436a 58be 424d 863e
000001d0: 455e 82bf 1bcb b63e 8f69 c53d f0bc c2be
000001e0: 9b75 6c3e 5c57 3cbe 2471 943e 4558 483e
000001f0: 7cd7 e73e 4c2a 8d3e c1ed 993e d925 b33e
00000200: 4010 863e ccc9 8bbe 0b15 e6bb c091 583d
00000210: f0e7 9dbe 3146 f73e e8b2 bdbe 0314 81be
00000220: 43c2 56bc 3107 783e b510 cf3c 8ab7 ddbe
00000230: 320a 57bc d803 05bd 25ec 853e 1791 233f
00000240: 239e 3b3e 701b d1bd b3db 33be 192d b4bc
00000250: 6f7d 233e 721a af3e 6b21 2f3e 1ff0 153e
00000260: 553f 633e 2a37 ce3e 6623 ae3e 7dbd f43e
00000270: 5b07 22bf b9a8 8ebe 6e25 a4be 6752 863f
00000280: fda9 0c3e 2e77 09bf bed9 403e 0e61 f23d
00000290: 169a 73be afa3 833d 2046 1fbf 2182 9c3e
000002a0: 4b8d 6fbe 1693 09bf 212f 98be 79aa 043e
000002b0: 4feb e0be 673c 9c3e 24d7 a5be a769 093f
000002c0: 9598 39bf f7c1 bbbd 71ad a1be 9022 30bd
000002d0: 47b9 ac3e 8ad5 77be be91 113d 6905 1c3e
000002e0: 0824 693e c15a 843d 8161 22be 8d66 f4bd
000002f0: 95dd 203d 03f4 123e 80dc 593f 56c0 463e
00000300: 10b3 083e 579a 7fbe 66a7 5abe af34 bebd
00000310: 0586 cfbe 3ecc ccbd cb4c c63e 13c3 0cbe
00000320: 520f d4be 0df8 a0be 3281 ca3e 3c15 a53d
00000330: a36c 223e 2362 19bf b5e3 553f ac09 663e
00000340: 6fdb 3f3f df48 42be 85b3 b23d 1a62 ba3b
00000350: 103d 153e 2bfd acbe d953 e6be 9d37 e1be
00000360: a634 1abe 7eb9 a2be 0bf2 f63e f6b5 dd3b
00000370: 9ee0 a13e 5b05 e9bd 0022 c43e ecc6 503e
00000380: 101a babe d464 303e d55c 23bf 251f 663e
00000390: 22d0 df3c b24d b6be 8c7a 86bc 73fe a93d
000003a0: 52d1 25be 62ba 8d3d c356 933c 026e 563e
000003b0: 66ba 8bbe 6b49 a13e a7f7 ab3d 7d60 7c3e
000003c0: 50a2 42be 69d9 a63e 1083 ebbe c29e cbbd
000003d0: 730c 93be 906e 6f3e 6eae cc3e 75dd bc3e
000003e0: a76d df3e 9412 a2be fb1c d0bd 78d1 3abd
000003f0: 1d72 c33e 5fec 243e 2d0f d23e 3583 86be
-0.43266293 0.44842795 -0.046111666 -0.3442833 0.038946003 0.42625237 -0.1304973 -0.27888343
-0.11244991 0.37239 0.3122576 0.20872483 -0.010349898 0.3448295 0.04441263 0.35238892
0.30132082 -0.43444514 -0.15771833 -0.067178465 0.24337927 0.5920737 -0.33396384 0.22812647
0.24790274 -0.05949783 -0.31942496 0.21569683 0.30791214 -0.29193357 0.012660328 -0.39345306
-0.34515107 -0.07009871 -0.32979497 0.058133062 0.22227913 0.3960949 0.18432842 0.26268476
0.12276988 0.2691581 0.10341536 -0.26792118 0.29605386 0.22152562 0.29167342 0.1477402
0.11139265 -0.34563473 0.3911516 -0.15637659 0.05122537 0.009184759 -0.44993138 -0.5044216
0.23597041 -0.31202754 0.6338198 -0.35601762 0.10483411 0.22816701 0.3709785 -0.0926974
-0.08669267 -0.45267156 0.4193746 0.1452047 0.21265176 0.028515793 -0.13652991 0.05999304
-0.13681315 -0.059256088 0.31319708 -0.2332844 0.121395685 0.22698921 -0.377037 -0.29260042
-0.45158634 -0.25391015 -0.4261517 0.22179838 -0.3430244 0.21244326 0.26172575 0.500798
-0.47708565 -0.0077735228 -0.4030569 0.32402045 0.013979036 0.5151367 -0.19874644 -0.33775187
-0.51991343 0.31909296 -0.12173369 0.22125903 -0.22107095 0.54695606 -0.3366603 0.22625044
-0.04233741 -0.2312144 0.22005016 0.22794837 0.7030604 0.37281477 -0.21744311 0.14839096
-0.28783044 0.36941016 -0.21134286 0.26230818 -1.0185019 0.35701832 0.09639274 -0.38034773
0.23091738 -0.183927 0.2899257 0.19564922 0.4528159 0.27571332 0.30064204 0.34989813
0.26184273 -0.27302396 -0.0070215515 0.052873373 -0.30841017 0.4829574 -0.37050557 -0.2521058
-0.013107839 0.24221493 0.025276521 -0.43304092 -0.013124989 -0.03247437 0.26156726 0.63893265
0.18322043 -0.102103114 -0.17564277 -0.02199416 0.15965818 0.34199864 0.17102592 0.1464238
0.22192128 0.40276462 0.34011382 0.47800818 -0.63292474 -0.278631 -0.32059807 1.0493897
0.1373672 -0.5369748 0.18833062 0.11834918 -0.23789248 0.064277045 -0.6221638 0.3056803
-0.23393743 -0.5374006 -0.29723457 0.12955655 -0.43929526 0.30514833 -0.32390702 0.5367684
-0.72498447 -0.09167855 -0.31577638 -0.04300171 0.33735105 -0.24202552 0.03553938 0.15236439
0.22767651 0.064626224 -0.15857507 -0.119336225 0.039273817 0.14350896 0.8510208 0.19409308
0.13349557 -0.2496122 -0.2135292 -0.09287392 -0.40531936 -0.099998936 0.38730463 -0.1374629
-0.41417938 -0.31439248 0.39551693 0.08060691 0.15861754 -0.5991537 0.8355058 0.22464627
0.74944204 -0.1897311 0.08725647 0.005687964 0.14574075 -0.33786902 -0.44985846 -0.43987742
-0.15059146 -0.31782144 0.4823154 0.006766076 0.31616682 -0.113779746 0.3830719 0.20388383
-0.3634801 0.17225963 -0.63813525 0.22472818 0.027320925 -0.35606152 -0.016415857 0.083004855
-0.1619313 0.06920315 0.017985707 0.20940402 -0.27290648 0.31501326 0.08396845 0.24646182
-0.1900723 0.32587746 -0.4599843 -0.0994239 -0.28720436 0.2338202 0.3997683 0.36887708
0.43638346 -0.316548 -0.101617776 -0.04560992 0.38173 0.16105793 0.41027203 -0.26271978

conv1.fc_self.weight f4 [50, 22]
00000000: 63a1 613e 2b06 15be d216 1cbe 1862 6a3e
00000010: e024 c53e 1fc2 8bbe d664 3cbe 61ac bb3e
00000020: 390f 79bc 917c c0be 49aa f53e 8376 fd3d
00000030: 8e9c f03d 7258 ed3e 810c 35bf 8c6f c2be
00000040: 3863 e5bc 0725 7fbe a09c 0abf 44c7 a23e
00000050: a339 f53e 01b9 523f 81b3 88bd 4fc6 f6bd
00000060: 2f55 003e 71e1 8ebe 34ce c4be 03d4 9abe
00000070: ce30 97be 8c33 cdbe 6a56 543d bb30 0f3e
00000080: 61f4 43bd 3824 723c 099d 973d 22e3 9d3c
00000090: e226 203e 0d03 f1bd fba1 743e c8e4 73bd
000000a0: df1b 73bd 85ce f7b7 ecac b83e 1e11 bcbe
000000b0: 182c 2f3e 19c1 0abc 6d0f 3f3d 2daf 563e
000000c0: 90de c03d dfc6 84be c9c1 85be d8b2 7d3e
000000d0: 7474 68bd 7651 233e eb1b 5bbd adef c3be
000000e0: a196 953e 4ec0 913e 7082 863e 2d53 453e
000000f0: 1e29 943e 1f7f 953e 62a8 003f 2104 4dbe
00000100: 7f55 f4be d46f 01bf 5c4f cc3d fb8c 98be
00000110: 7d7a 39bd 708e 663e e717 a5be 63d0 743d
00000120: b08f 153e 5068 9abe 8a40 bdbe 5105 64bc
00000130: a27e 76be 8ff1 f33e d53e 73bd 5a43 0e3d
00000140: d32b 54bf a09d e1be 1938 49bd 6453 63be
00000150: 0eca da3d 81ca a9be ad2f 533f 7ce2 653f
00000160: b8b6 2dbe fde5 5ebe 94bf 0d3c 38af 853e
00000170: 91af 94be 0cbe 9f3e 2982 3bbf 4c8f 1fbd
00000180: 0f7d bdbd 48e7 b73e 99da 613e 348f 4e3f
00000190: 2c39 583e c204 1a3e 6f4c 82bf f1d2 6c3d
000001a0: b915 a5be 2947 8ebe ed02 013d bef2 9d3e
000001b0: 9568 1c3f 3c5d c83d 390e 2f3c 31c6 033e
000001c0: 1824 aebe 8bbb 023d e7a3 d2be 991c 87bc
000001d0: f2cd 18be 5f22 933e ecd5 cfbe c4d0 1cbf
000001e0: e96d 81be d6fe c6be 124d f8bb 0300 4abe
000001f0: f7b3 233e caca 103d 4c56 cb3d 9c95 bebe
00000200: 6177 3b3d 2b89 56be ac6e 533e 2a96 e0be
00000210: eb3a fcbd 9f83 3d3d 9773 0b3e a60d b63e
00000220: 6723 cf3e 05fb 37bf 366d d1be a0c7 dfbd
00000230: 4169 9bbe 45ee 033e 3d5e a6bd e297 d93e
00000240: bb65 733d b218 5bbe 3dcb 6bbf 4a7c cbbe
00000250: 1ec0 8abd 9cc0 a6be 12de f3bd b755 503e
00000260: e6fc 76bd 7d7c 1c3f 98d0 2c3e 3293 f53c
00000270: 65a8 04bd 4227 f53d bf69 b6ba c2d1 07bf
00000280: f1d9 933d 51f2 083f ec0f 5c3f e129 663e
00000290: ec29 bcbd d791 73be c86e 55bf 667e 61bd
000002a0: e253 0abd 529b e8be 7f9e cabe 630f 81be
000002b0: 94a9 123e 763e 3cbe 27f9 0ebf ecad 783f
000002c0: f6eb 06bf b4f2 b33e 3cab 0fbd 5930 f13d
000002d0: 26a1 54bd 23af f13e 681e bcbd b232 10bf
000002e0: 5c89 103e 9fcc 2a3f 868a 873e 5eb9 85be
000002f0: f7ad c6be 500a babe fb5d 153f bf03 96be
00000300: 8715 a73e 551e f73e 7717 6a3d 599c 9ebe
00000310: 422f 92be b9f4 44bf bd37 b33d 4926 b2bd
00000320: bad7 0ebf f699 cebe 3104 cebe 1aaf 58be
00000330: ba89 133e 2243 983d 42b9 753e 0354 b63d
00000340: cb0f 493f dfb2 19bd ca55 2e3e 86cf 87be
00000350: 5347 563e 2ef3 b6be edfe 873e d031 35bd
00000360: d644 363e d101 973d 9985 eebd c3dc 61be
00000370: b7da 48bd df06 453f 32a7 91be 3a77 aebe
00000380: 98f5 3f3d 8e41 223f 1ed9 a33e 7268 d2be
00000390: af5d be3d 0ee0 8abf 4bd7 91be 6ce4 8abf
000003a0: a7b0 d1bd ccbe 633e be97 9d3e 9788 a4be
000003b0: d111 903e 298c a93d 8b2f b5bd aad5 ef3e
000003c0: b57b 14bf 0d63 b7be ed0b 54be c5d2 e03d
000003d0: 7573 ca3e 011d cdbe f7fd db3e 78d6 05be
000003e0: dc34 0abe d60b 273e 3312 85be 2a95 aabe
000003f0: 592f abbe e947 2d3f 5660 483d f537 8c3e
0.2203422 -0.14553134 -0.1524308 0.22888982 0.38504696 -0.2729654 -0.18397841 0.36654952
-0.015201383 -0.37595037 0.4798148 0.1237612 0.117486104 0.4635654 -0.70722204 -0.3797573
-0.028001413 -0.24916469 -0.5414524 0.31792653 0.47895536 0.82313544 -0.06674863 -0.12049543
0.12532495 -0.27906373 -0.3843857 -0.30239877 -0.29529423 -0.4007839 0.051840223 0.13983433
-0.04784048 0.014779143 0.07402999 0.019273344 0.15639833 -0.1176816 0.23889916 -0.059544355
-0.05935275 -2.9540863e-05 0.3606943 -0.3673181 0.17106664 -0.00846889 0.04664557 0.20965262
0.094174504 -0.25932977 -0.2612441 0.24775255 -0.056751683 0.15949044 -0.05349342 -0.38268796
0.29216483 0.2846703 0.2627139 0.1927001 0.2893762 0.29198548 0.5025693 -0.20021106
-0.47721478 -0.5056126 0.09976074 -0.2979506 -0.04528283 0.22515273 -0.322448 0.059769046
0.14605594 -0.3015771 -0.36963302 -0.013917283 -0.24071744 0.47645232 -0.059386093 0.0347322
-0.8287937 -0.4406557 -0.049125765 -0.2219978 0.1068307 -0.3316231 0.8249462 0.8979871
-0.16964233 -0.21767421 0.008651633 0.26110244 -0.29040197 0.31199682 -0.73245484 -0.038955018
-0.09252369 0.3591864 0.22056045 0.8068726 0.2111556 0.15040877 -1.0179576 0.057818357
-0.32243136 -0.27788666 0.03149693 0.3084926 0.6109708 0.09783408 0.010684543 0.12868573
-0.34011912 0.031917136 -0.41140673 -0.016493129 -0.14922312 0.2873716 -0.40592897 -0.6125605
-0.25279167 -0.388663 -0.007577547 -0.19726567 0.1598662 0.035349645 0.09928569 -0.37223518
0.045768145 -0.20950763 0.20647687 -0.43864566 -0.12315925 0.0462681 0.13618313 0.35557288
0.40456697 -0.718674 -0.40903634 -0.10926747 -0.3035374 0.12883861 -0.08123443 0.4249869
0.05942319 -0.2139614 -0.9210699 -0.39743263 -0.06774925 -0.32568824 -0.11907591 0.20345198
-0.060299776 0.61127454 0.16876447 0.029977415 -0.032387156 0.119703785 -0.0013917013 -0.5305444
0.072193034 0.53494745 0.85961795 0.22476913 -0.091876835 -0.23786102 -0.83372164 -0.055052184
-0.033771403 -0.45431 -0.39574048 -0.25207052 0.14322501 -0.18383202 -0.55848926 0.97140384
-0.527038 0.35146105 -0.03507541 0.117768 -0.051911496 0.4720393 -0.09185487 -0.56327355
0.14114898 0.66718477 0.26472872 -0.26117986 -0.388046 -0.36335993 0.5834653 -0.29299733
0.32633612 0.4826533 0.057151284 -0.3097866 -0.2855168 -0.7693592 0.087508656 -0.086987086
-0.5579792 -0.40351838 -0.40237573 -0.21160546 0.14408007 0.074346796 0.23996451 0.08902743
0.78539723 -0.0375241 0.17024913 -0.26525515 0.20925646 -0.35732406 0.2656168 -0.044236958
0.17799696 0.07373393 -0.116465755 -0.2205687 -0.049036708 0.7696361 -0.28447872 -0.34075338
0.046865076 0.6338128 0.32001585 -0.4109531 0.092952125 -1.0849626 -0.28484568 -1.0850959
-0.10238772 0.22240752 0.30779833 -0.3213546 0.28138593 0.082786866 -0.08846959 0.468427
-0.5800126 -0.35817757 -0.20707674 0.10977701 0.39541212 -0.4006119 0.42967197 -0.13070095
-0.13496727 0.16313109 -0.25990447 -0.33316928 -0.3343456 0.6768785 0.048919998 0.27386442

conv1.fc_self.bias f4 [50]
00000000: fea0 f2bd 80ab 54be 0e8c a3be 5d33 16bd
00000010: b4c8 fe3d 4dfd b13d 5213 05be 5fc5 003e
00000020: 884f 243e 0b9f 7b3e e510 0c3e 97cc 193d
00000030: a009 d13d 1f6a 643e 737b e2bd d19b 13be
00000040: 9622 fa3d 6855 37be 1d07 a1be 29f3 46bd
00000050: 67bd 71bd c503 3f3c 3651 51be fef6 17be
00000060: 8b3a b53d 0b82 29be e4ea 663e e98d 26be
00000070: b0d2 df3d 9c93 0bbe 031a 51be f33e 143e
00000080: 5554 35be 34f2 15be 2828 483c e2b4 203e
00000090: a47f fb3d 39be 083c 6033 e6bd 7141 9a3e
000000a0: 3719 82bd 8ba3 eb3d e64f 3ebe 7b7a 1cbd
000000b0: 1191 09be 70e4 4f3d 7cfd bd3d f7a5 36be
000000c0: f414 13be 029e dcbd
-0.11847113 -0.20768547 -0.3194279 -0.036670078 0.12440625 0.086908914 -0.12995651 0.12575291
0.16045964 0.24572389 0.1367832 0.037548628 0.10206914 0.22306107 -0.11058702 -0.14414908
0.12213628 -0.17903674 -0.3145074 -0.04857174 -0.05901852 0.011658614 -0.20441136 -0.14840314
0.08849057 -0.16553514 0.22550541 -0.16265072 0.10928857 -0.13630527 -0.20420079 0.14477138
-0.17707951 -0.14643174 0.012216605 0.15694001 0.12280205 0.008346134 -0.11240268 0.30128053
-0.063524656 0.11505803 -0.18585166 -0.038202744 -0.13434245 0.050754964 0.09276864 -0.17836748
-0.14363462 -0.10772325

conv2.weight f4 [50, 40]
00000000: 8759 543e 0905 75bd 31dc e7be c91d 893e
00000010: 0838 e6ba 13c9 153e 9bc2 403e f48a e43d
00000020: 13ca 023e c24d a8bd 0780 d43e 3e19 a93d
00000030: 0a95 bf3d 1ba8 7cbd 1fa2 3c3e 1e22 a0be
00000040: 6f83 6d3e 30ff 3abb ff90 3abd 42c1 d53e
00000050: e409 6abe ea77 6d3d d863 523e 76db bb3d
00000060: 8528 eebe 66a6 98be d8e3 82be 8676 6c3e
00000070: 594b 2fbe 0533 62be ad35 9b3c 93e7 883d
00000080: 2a25 933e f13c 783e f4c2 59be 956c 77be
00000090: 73eb b83b 7be7 bb3c be52 a5be 6ce0 c93d
000000a0: c41b 093e a24f 75be f3c7 e43d 2cd7 953d
000000b0: 9aa5 083e ccdd 3bbe ddc8 37be c49c b63d
000000c0: 9582 dfbd ad2d 16be 644f e9bd 3780 7b3e
000000d0: 08d9 bc3d b397 74be f2ed dbbc 16d3 18be
000000e0: 55dc b33d fa8a a9bb 02cc 513e 9ddf 34bd
000000f0: 26a6 70be 4cc7 e33d 4a9f 2abe 489d a33d
00000100: dc26 b5bd cf24 1fbe b47a 20bd c8a8 69be
00000110: 0668 413d cdd5 19be f303 3bbe a937 153e
00000120: 9c0c 2d3e 18e5 ffbd b96a 90bb 4369 7d3e
00000130: 4169 38be 9c5a d33c 16e7 38bb 9356 2abe
00000140: 8bb1 913d 6d2d 7ebe 2d16 72be 3a55 94bd
00000150: f5a1 903e b914 5ebe 1f03 75be a2aa 3c3e
00000160: d9fa bebe 7adb a73e c003 633e dfce b0be
00000170: a82b 233c 4d7c 543d 7d3a 39bd 8a57 e1bc
00000180: a88f 34be 9f6d 903d 9940 3fbe bbe6 02be
00000190: 2d0d 463e a63c 9a3e 02e4 82be 12dd 1dbc
000001a0: af3d 433e cee7 2ebd 3971 9dbe 6615 8a3d
000001b0: 5952 253e fbaa 213e 8cad 8d3e 5673 193d
000001c0: 698d 89bc 7a09 41be a727 53bb d103 8d3d
000001d0: bb12 3bbe 09f7 173e d0c8 6c3c 879a 863e
000001e0: c737 f1be 03b0 25be 97aa 93be 572f 52be
000001f0: 2891 b9be 0f1a c4bd c02e d4be ae3a f8be
00000200: a3ee ef3d 1a31 87bc d567 663e acdc c23b
00000210: 2b2f 3c3e 340c 16bd 377a 1abd 305a 7f3d
00000220: c426 bdbe a855 eb3e 0929 43bc 3c4c da3d
00000230: 5029 9d3e 5f07 16bf 94f4 b63d 5de7 1a3e
00000240: 80b5 56bd 13a6 813d 4958 fe3c a1c9 943d
00000250: 99d7 3b3e b639 a13c fe21 92be 3d5a 833e
00000260: 2b31 973e 4b0a e8bc ed4f 183e e284 8dbe
00000270: efb3 fc3d 6e8e 57be 09a7 bcbe 7c14 143e
00000280: e8f0 a6be c334 8e3d bed3 aabd b552 6fbd
00000290: b575 683e e741 c2bb c4e7 e9bb 8bb2 4c3d
000002a0: 006e 4ebd bb20 b8be 40c1 3b3e dd74 04be
000002b0: 37ab eb3d dc0a 933e 4e90 a4bd c203 80bc
000002c0: db6a 05be 613c 8cbd 9ee2 8a3e 1b1a 763e
000002d0: d538 a53d 42b5 473e 5c5e 66be 44a5 24bb
000002e0: 07bb 66be d8e4 113e dc1c 953e f276 8dbc
000002f0: 852e 923e 2cac 63be ac33 143d 8f6a 843e
00000300: a7f9 873c e570 3fbe a2b5 27be 5baa 343e
00000310: d4aa 1b3e 9064 133e f10b 82bd d0c4 683d
00000320: ab4f d2be 9352 78be eb84 40be 0d60 acbe
00000330: 7d66 123f 50f8 5abe ca39 96be bc25 92be
00000340: d26e a63d 42d7 8abc 63ec de3e 429a 103e
00000350: 2477 3c3e 0f69 20be 4954 aabe a30f 273f
00000360: cca5 bdbd 40d7 52bf 4fbe e83d 87fb b9be
00000370: 5394 913d 75b1 743e 3f3b febd 764b ae3e
00000380: 2db0 ab3b 891c babc 55cd dbbd d425 a7be
00000390: ee57 273e 02d2 ba3d 6313 053d 329c 873d
000003a0: d2dd 953e f960 77bd a5a0 5f3c 18e2 1e3e
000003b0: 4d47 053d 6836 12bd b04e fe3d c395 cfbd
000003c0: 6c35 51bd 4f71 953e 4ef5 663e 39d2 8a3e
000003d0: 6571 f2bc 8274 9fbe 2803 e1bd 8160 acbd
000003e0: 2d77 aebe 17f7 75be de17 f23c 6d8e bd3d
000003f0: 6629 a03e 78e1 353e abc7 9b3e 4b9c 233d
0.20737277 -0.059819255 -0.4528518 0.26780537 -0.0017564306 0.14627485 0.18824236 0.11159316
0.12772398 -0.08217956 0.41503927 0.08256768 0.09354599 -0.061683755 0.1842122 -0.3127603
0.23194669 -0.0028533451 -0.045548435 0.41749007 -0.22855335 0.057975687 0.205459 0.09172718
-0.4651529 -0.29814452 -0.25564456 0.23092088 -0.17118587 -0.22089775 0.018946493 0.06684794
0.2873929 0.24241997 -0.21265775 -0.24162515 0.005643302 0.022937527 -0.3228969 0.09857258
0.13389498 -0.23956159 0.1117095 0.073164314 0.13344422 -0.18346328 -0.17947717 0.089166194
-0.109135784 -0.14665861 -0.11392096 0.24560629 0.09221083 -0.23885994 -0.02684686 -0.14924273
0.087822594 -0.005174038 0.20487979 -0.044158567 -0.2350088 0.11121997 -0.16662326 0.079889834
-0.088453025 -0.15541385 -0.03917952 -0.22818291 0.047218345 -0.15022965 -0.18263225 0.14572014
0.16899341 -0.12494868 -0.0044072536 0.24747185 -0.18008901 0.025800042 -0.002821391 -0.16634588
0.07113942 -0.24822016 -0.23641272 -0.07242818 0.28248563 -0.21687593 -0.23926972 0.18424466
-0.37300757 0.32784635 0.221694 -0.3453283 0.009959139 0.051876355 -0.045221794 -0.027507562
-0.17632926 0.070521586 -0.18676986 -0.12783329 0.19340964 0.30124396 -0.2556458 -0.009635227
0.19066499 -0.042701535 -0.30750445 0.06742363 0.16144694 0.1578788 0.27671468 0.03746351
-0.016791062 -0.18851271 -0.003221968 0.068854935 -0.18268864 0.1484033 0.014452174 0.2628977
-0.47112867 -0.16180424 -0.28841087 -0.20525871 -0.36243558 -0.09575283 -0.41441917 -0.4848227
0.11715438 -0.016502906 0.22500546 0.0059467163 0.18377368 -0.03663273 -0.03771421 0.06234187
-0.36943638 0.45963788 -0.011911639 0.10659072 0.3069558 -0.58605 0.08933368 0.1512732
-0.052419186 0.06330504 0.031047957 0.0726502 0.18343963 0.019680839 -0.2854156 0.25654784
0.295297 -0.02832522 0.1487424 -0.27640444 0.12339007 -0.21050426 -0.36846188 0.14460939
-0.32605672 0.06943657 -0.08341168 -0.058428485 0.22701152 -0.0059282663 -0.0071382243 0.04997496
-0.050397873 -0.3596247 0.18335438 -0.12935205 0.11507266 0.28719223 -0.080353364 -0.015626792
-0.13029043 -0.06847454 0.2712602 0.24033396 0.080674805 0.19502738 -0.22496933 -0.002512292
-0.22532283 0.14247453 0.2912358 -0.017268632 0.28551117 -0.22233647 0.03618209 0.25862548
0.016598536 -0.1869541 -0.16377881 0.1764311 0.15201885 0.1439383 -0.06349934 0.05682832
-0.41076407 -0.2425025 -0.18800704 -0.3366703 0.57187635 -0.21383786 -0.29340965 -0.28544414
0.08126606 -0.016948346 0.43539724 0.14121345 0.18404824 -0.15665077 -0.3326743 0.65258235
-0.09260139 -0.82359695 0.113644235 -0.36324713 0.07108369 0.2389582 -0.12413644 0.34041947
0.0052395076 -0.022718685 -0.10732523 -0.32646048 0.16342136 0.09122087 0.03248919 0.06621589
0.29270798 -0.060395215 0.0136491405 0.15515935 0.0325387 -0.035696417 0.12417352 -0.10135987
-0.051076338 0.2918801 0.22554514 0.27113512 -0.029595086 -0.31143576 -0.1098693 -0.08416844
-0.340753 -0.24020039 0.029552396 0.09255681 0.31281585 0.17761791 0.30425772 0.039943974

conv2.bias f4 [40]
00000000: 2c84 80bd 3e62 033e 3abe 3f3e 421c 11be
00000010: f7ac 07be fb54 d8bd 24c9 98bb 2297 26be
00000020: 0dc5 d7bd df6c 3dbd 59e3 3cbe 9f9e b3bd
00000030: b1de 12be 158e 8abd ee04 c23d 4c8c 90bd
00000040: 7851 b2bd 5ce3 15be f725 15bd ceea 3fbb
00000050: b337 60bd ce82 0ebe 3543 72bd a79b ecbd
00000060: 368c 813d 76c2 28bd 7cd5 b2bd beb6 51be
00000070: 60e7 50bd feb7 233c ac8a 82be d4e9 49bc
00000080: f1d7 b6bd 2ca9 09be a5f3 96bd acca 85bc
00000090: c6ce 4cbd 2ab1 6dbd d743 cc3d 1859 d43b
-0.0627521 0.12830445 0.1872491 -0.14170936 -0.13249575 -0.10563084 -0.0046626497 -0.1626859
-0.10535631 -0.046246406 -0.18446101 -0.08770489 -0.14342763 -0.06765381 0.094735965 -0.070580095
-0.08706945 -0.14637512 -0.03641316 -0.0029284242 -0.05474062 -0.13917086 -0.059146125 -0.11553126
0.06325571 -0.041201077 -0.08732125 -0.20479867 -0.051001906 0.009992598 -0.25496423 -0.012323815
-0.08927906 -0.1344344 -0.0737069 -0.016331993 -0.050001882 -0.058030285 0.09973877 0.0064803474

conv3.fc_neigh.weight f4 [30, 40]
00000000: 13d6 10bc b729 3dbf 2b82 bfbe 26e2 753c
00000010: 2fca 10bf 23f5 04be 6728 e03e 9cf4 ebbe
00000020: 5795 68bd e18a c1bd 785e 38bf 1321 ba3c
00000030: 7976 aebe 70e8 1f3d ca09 b23c 4d2e 1f3e
00000040: f9ca bfbe 2e07 e03e b616 97be 48c7 b8bd
00000050: 78d3 6a3d 6df3 7a3e 24fc 083e b58d 29be
00000060: ae5f 45bf f47e c13d 1cba c1bd 0360 593f
00000070: e1fe 933d b86b 4dbf fff9 4bbe 438d f23e
00000080: 32ed bcbe c849 c4bd e7c5 debc d9ca 4abd
00000090: 6f21 acbe ce78 003f 21c7 b9be 6573 03bf
000000a0: b956 3a3e 6284 d7be e457 70be 2d26 b53b
000000b0: de06 41be fbc7 80bd 3dcb 9d3e c11b 113d
000000c0: cfa4 603e 00c0 45be 021e 64bd cc01 59be
000000d0: 9c51 d5be d682 63be 20c5 39be 4862 48be
000000e0: eb8e abbe b8ca 2b3e 8dc0 503e fc8a 35be
000000f0: a550 47be 87a6 1fbe 99a7 cb3d e02e 5bbe
00000100: 6ccb cdbe 5c80 86be 3800 993e abf9 2ebd
00000110: 9ce5 46be ead9 913e f19a 85be 241b cb3c
00000120: 2159 9a3d c630 6d3e fb8e 7bbd 9fe4 543c
00000130: bbde a6be 942d 17bd 2881 59be 770f 78be
00000140: 4f95 d33e 9916 853e 2ebd 8ebd e413 be3d
00000150: f20a b23e cdb3 cebe e7f9 2d3f eddc a43e
00000160: 7065 163e bd0e e2be 3b0d 853e f8ad 83bd
00000170: fc7c 403e 2385 cabd 7d4f 163f f5d8 8ebd
00000180: 18ec 9fbe 1364 91bd f4bd 43be 79e8 a53e
00000190: d1e8 db3d 2ec1 623e ab03 99bd 70fa dcbe
000001a0: 30a9 3fbe e473 753d f721 1fbf b71d cb3e
000001b0: 4bde 27be 54a9 bf3d 4b04 373d 3504 5d3e
000001c0: c29c fc3e 0fb2 02bd 0c6d f13e c41f 013e
000001d0: e39d 66be 704c e23c 1721 6abf 36c9 f4bd
000001e0: 9b3b 393e a3b0 903e eef8 783e 33a7 e1bd
000001f0: 7d05 d23d bae0 94bd a38c d23e 73d6 9bbe
00000200: 1bcb 05be 640e 8d3d ce89 a6be a387 173d
00000210: 1719 0cbf 60b9 07bf c1f1 793e 7476 b1be
00000220: e518 263d 4ca6 a73e 0825 96be 8040 133e
00000230: 1b01 12bf 3b1c 86bf 6fb8 f63d f440 c33e
00000240: 0cec 0d3f 802f 44ba 2cf6 eb3e 1347 ea3e
00000250: 9f0a 12be e4ef b63e 165f 61be e15e f5be
00000260: 65d8 17bf aa9a 033f b841 b53e 3c6f 343e
00000270: 755a 0bbe 212c 80be 8b8d 953e fbd0 0f3f
00000280: c8c6 fd3d 20aa 0a3e e0fe f4be 1008 1e3d
00000290: 5666 1ebf e1f6 c4bc 52e8 babd 1c82 8d3d
000002a0: 7e3b a2be 335f 35bf 1d4c 83be b179 94be
000002b0: 4b58 23bf 9f1c 21bf 9015 2f3e cd1b d6be
000002c0: 190a 15bf 60c2 a6be 3701 c8bd 4301 bbbd
000002d0: dc09 04bf f9c1 0bbf f2af 903e db44 5f3e
000002e0: 8b35 b03e 798c bb3e 7e86 abbc 2224 6c3e
000002f0: 74d0 073e 85f1 1fbf 0ee1 43bf ffb7 253f
00000300: 77fc d5be 05ec bebe 926d 59bd 2706 8f3e
00000310: 448e a53e 7f00 c3bd ef59 f0be bf51 e03d
00000320: cecf c03d 6dfa 5a3e 78d8 693e 3b2a 91be
00000330: eef5 c13e cc5b 15be b11a 8dbe 980f 023e
00000340: 9569 bb3e bfff e6be 3e76 cabe 07e8 3b3e
00000350: 262a 95be 84fa 87be 8958 8ebe f200 b73d
00000360: f681 95bd 23b5 15bd 9d69 01bf 353d a5bd
00000370: 3d4e 563e f53f 1fbe c22f 733e 84aa 633e
00000380: 4df2 1c3d 24a4 8e3e 06d9 cabe a14b 953e
00000390: bfc1 e0be 77bf e7be 44af c23e d23a b13e
000003a0: a5c0 99bc 5322 a83e 15be c43e a0bb c33d
000003b0: 7098 c63c 6707 babe d9c9 b93e 3083 523e
000003c0: 952a f8bd b843 cc3e 62db 0bbf bbf7 09bf
000003d0: 22e5 5d3d b014 30be 6bcc abbe e035 983e
000003e0: 57d1 dc3d dd3b 76be 27bb ab3e a428 8f3e
000003f0: 4a55 b4be e4f2 0ebe 2aa3 20be 4e88 edbe
-0.008840102 -0.73891777 -0.37403998 0.015007531 -0.5655851 -0.12984137 0.43780825 -0.4608506
-0.056783047 -0.09450317 -0.7201915 0.02272085 -0.34074762 0.03904003 0.021733183 0.15545006
-0.37459543 0.43755478 -0.29509515 -0.09022385 0.05733058 0.24506922 0.13377434 -0.16557963
-0.7709912 0.094480425 -0.09459326 0.8491213 0.07226349 -0.8024249 -0.19919585 0.473734
-0.36899716 -0.09584385 -0.027193977 -0.049509857 -0.33619258 0.50184333 -0.36284736 -0.51347953
0.18197145 -0.42093188 -0.23471028 0.0055282325 -0.18850276 -0.06288143 0.3081912 0.03542686
0.2193787 -0.19311523 -0.05569268 -0.21192092 -0.41663826 -0.22217879 -0.18141603 -0.19568741
-0.33507475 0.1677655 0.20385952 -0.177288 -0.19464357 -0.15590869 0.09944076 -0.214046
-0.4019426 -0.26269805 0.2988298 -0.04271857 -0.19423527 0.28486568 -0.26094773 0.024793215
0.07536531 0.23163137 -0.061415654 0.012993961 -0.32591805 -0.0369087 -0.21240675 -0.2422465
0.4132485 0.25993803 -0.06969677 0.092811376 0.34773976 -0.40371552 0.67959446 0.32199803
0.14687133 -0.4415187 0.25986657 -0.06429666 0.18797678 -0.09888675 0.5871504 -0.06974975
-0.31234813 -0.07099166 -0.1911543 0.32403925 0.107377656 0.22144005 -0.07471403 -0.4315982
-0.18716884 0.059924975 -0.621612 0.39671108 -0.16393392 0.09358469 0.04468183 0.21583636
0.49338347 -0.03190809 0.4715351 0.12609774 -0.22521167 0.027624339 -0.9145674 -0.119524404
0.18089144 0.28259763 0.24313709 -0.11018219 0.10254953 -0.07269426 0.41122922 -0.3043705
-0.1306576 0.068875104 -0.32527012 0.036994588 -0.54725784 -0.53017235 0.24408628 -0.34660685
0.040551085 0.32744062 -0.29325128 0.14380074 -0.57032937 -1.0477365 0.12046897 0.38135493
0.55438304 -0.00074838847 0.46086252 0.4575735 -0.14261864 0.35729897 -0.22008929 -0.4792395
-0.59314567 0.51407874 0.35401702 0.17620558 -0.13608725 -0.25033668 0.2920955 0.56178254
0.1239143 0.1354146 -0.47850704 0.038581908 -0.618749 -0.024043502 -0.09126343 0.06909582
-0.31686014 -0.7084839 -0.25644007 -0.28999093 -0.638066 -0.629343 0.17098069 -0.41818085
-0.5821853 -0.3257017 -0.09765857 -0.091311 -0.51577544 -0.54592854 0.28259236 0.2180361
0.3441585 0.3663061 -0.020938154 0.23060659 0.13263112 -0.62477905 -0.7651528 0.6473388
-0.41794178 -0.37289444 -0.05308301 0.2793438 0.32335103 -0.09521579 -0.46943614 0.10953092
0.094146356 0.21384592 0.22836483 -0.28352532 0.37882942 -0.14585799 -0.27559426 0.12701261
0.3660399 -0.45116994 -0.39543337 0.1835023 -0.2913372 -0.26558316 -0.27801922 0.08935727
-0.07300179 -0.0365497 -0.5055178 -0.08068315 0.20928283 -0.15551741 0.23748687 0.22233015
0.038317014 0.27859604 -0.396187 0.29159263 -0.43897817 -0.45263264 0.38024342 0.3461519
-0.018768618 0.32838687 0.3842627 0.09557271 0.02424261 -0.36333773 0.3628681 0.20557857
-0.12117497 0.39895415 -0.54631627 -0.5389363 0.054173596 -0.17195392 -0.33554396 0.29728603
0.10782116 -0.24046274 0.33541223 0.27960694 -0.3522132 -0.13959843 -0.15687242 -0.46393055

conv3.fc_self.weight f4 [30, 40]
00000000: eddd 0e3e f119 a4bd 0438 63bf 17bb 8cbd
00000010: 8cb2 ca3e 5657 9c3e 5cbf a13d 01ef a73e
00000020: 79cf 3b3d febf 8bbe 5986 9fbe eb95 1abe
00000030: 800f 31bd 0733 773e 8016 443e f8a5 0dbf
00000040: 6441 f33e a853 e33e b60a bf3d edaf 8dbe
00000050: ce81 5c3e 8bf0 263f 5c84 8b3e 0357 1f3e
00000060: 5375 14bf 9eba 72be 8b93 02be 0a9f 283d
00000070: 547e f63d 8a32 3fbd 1891 ae3e 2fd9 a73d
00000080: 8788 723e bb3c 933d 1ab8 8dbe 9615 1cbe
00000090: b59b 90bc 3d9e 713e 0b56 a7bd 4993 9e3e
000000a0: bc3d 51be 8f11 00bd 2802 80be 4062 d4be
000000b0: c6f6 8dbe a7ae 34bc 5cd3 4e3e f051 04be
000000c0: 6bcb 1b3e ad13 07be a01a 9bbe df37 543e
000000d0: dadd c5be 5818 873e f23d 93be b898 453e
000000e0: c495 52be f613 923c 69ee 803e ce91 893e
000000f0: 40a6 4bbe f10b 74be 4aa5 103e 464d 753e
00000100: efb4 d3be 6344 2a3e 6b3a 62be 16b4 e4bd
00000110: ac8a 26be 1953 80be b657 dabe 0ce2 3b3b
00000120: f1e7 83be 6751 51be fc19 91bd 5f4e a0be
00000130: a803 09bd 4d27 9a3e c6dc 5c3e 529e ccbe
00000140: 885e dfbd 3c5e 843e 27b2 b4be 9fa8 aa3e
00000150: ddb5 86be cd46 e4bd 4205 df3e e05e a83e
00000160: c3be 1dbe fce9 013e e588 52be 89de 873d
00000170: 372c 27be 5d12 4fbe 6419 a9be 3b3b bf3e
00000180: 6b20 b83e 7497 17bf 86a2 d5bd 47c6 9e3d
00000190: 19be 463f ee96 ad3d 75c0 873e b162 f5bd
000001a0: 5fbe c7be e142 d43e b74f 8dbe b4de 24bf
000001b0: 193d 07bf d0d5 363d de0b a83d b676 c8be
000001c0: dc4e 183d a354 e33d 48c2 1fbe cf3e 413e
000001d0: 07e6 4ebd c70c 263d 6a8f 0bbf e6c5 0bbf
000001e0: d357 3c3d 43e4 803d 1ac9 b23c 08c6 bfbe
000001f0: 0872 a43e 41b1 18be bf53 31be 5f17 7b3d
00000200: fa09 5dbe 57d4 85be b448 a8bd b832 dd3d
00000210: 661f 8ebe 5383 aabd de59 0cbc 965f a6be
00000220: 2e14 623c f174 34be 6a07 b0bc 3c21 36be
00000230: 9359 b8bc 7287 7bbf 0577 bc3e 982d 0b3f
00000240: b1bc 76bc 1e09 723d 99fb f1bb afa3 d4bd
00000250: 7b83 96be a267 dcbe 5814 97be 6a41 82be
00000260: c725 603d a4d3 503d 304b f9bd a773 5bbd
00000270: b030 5fbe 29ea 263e 693f c1bb f519 34be
00000280: 9d08 c33e 6a00 df3e 17bd 18be e15f 603e
00000290: 5bfc 91be 904e 93be ccb5 5abd f7f7 a03e
000002a0: 8db9 d83d 6572 15be ac8d 2cbe 9dd6 bf3e
000002b0: 7b15 003f 7ceb 7dbe 3c09 cabd 068a edbd
000002c0: e0dc b2be a463 903e 2047 c43e e86e 1c3f
000002d0: ad1a 8f3e 6eb7 963d 3e85 1cbe b1ab 783e
000002e0: 0365 c8bd dda2 6abe 66cf 523e a442 f13c
000002f0: c60c 373f 0ddc e3be 18b9 13be f975 923e
00000300: b4ca 923e 30f8 8bbe 4271 49be 8d75 4a3c
00000310: b337 8d3e 2476 d3be c969 30bf c380 913e
00000320: 51db 0dbe 0837 14be 45cb cc3e e91a 62be
00000330: a2df 993e 2c27 ae3e e4e1 af3e b7da 42be
00000340: a185 973e fb0f ffbe 7ac2 a93e 5818 a4be
00000350: a107 453e 2147 a53e d079 f63d 2360 623e
00000360: caa5 bd3e faa6 6a3e 1d7b 6d3e 26df ac3e
00000370: ad67 a73e 36f9 ca3e cc97 90be c32b bc3e
00000380: 697d c93e f24a bfbe 19e8 8abe e800 aa3e
00000390: 5384 78be 2c95 08be acaa a63e f897 543d
000003a0: eb3f a2be b82e b1be 82a5 85bb 2ba4 8dbe
000003b0: 49c8 0dbe 0fbb e3be 0c7c 7dbe e938 8a3e
000003c0: a9a2 f73e dbd5 153f 877a abbe 8be8 f1bd
000003d0: b48d 43be 65ae a83e 798e efbe 2e66 623e
000003e0: 28c8 84bd 37d4 d5bd de02 313d ed61 02be
000003f0: 9878 d6be 7046 933e 910e 0f3d bf71 49be
0.13951845 -0.080127604 -0.8875735 -0.06871622 0.39589345 0.30535382 0.07897827 0.32799533
0.04585216 -0.27294916 -0.31157187 -0.15096252 -0.043227673 0.24140559 0.19149208 -0.55331373
0.47510827 0.44399762 0.09328215 -0.27673283 0.21533892 0.6521079 0.2724942 0.15560536
-0.5799152 -0.23704001 -0.12751596 0.041167296 0.12035814 -0.046679057 0.34095073 0.08195721
0.23684894 0.07189318 -0.2767952 -0.1524261 -0.017652372 0.2359552 -0.08170708 0.30971745
-0.20433706 -0.031266745 -0.25001645 -0.4148121 -0.27727336 -0.0110279685 0.20197815 -0.12921882
0.15214317 -0.131911 -0.3029375 0.20724438 -0.38645822 0.2638576 -0.28758198 0.19296539
-0.20564944 0.017831784 0.25181893 0.26869053 -0.19887638 -0.2383268 0.14125553 0.23955259
-0.4134898 0.1662765 -0.22092597 -0.11167161 -0.16263837 -0.25063398 -0.42645043 0.002866867
-0.25762895 -0.20441209 -0.07085034 -0.31309792 -0.033450752 0.3010811 0.21568593 -0.3996454
-0.10906702 0.25853145 -0.3529217 0.33331773 -0.26310626 -0.11146317 0.435587 0.32884884
-0.15404801 0.12686914 -0.20560034 0.06634242 -0.1632546 -0.20221849 -0.33027184 0.37349877
0.35962233 -0.59215474 -0.104313895 0.07752662 0.77633816 0.08476053 0.2651402 -0.119817145
-0.3901243 0.41457275 -0.2759988 -0.6440232 -0.528276 0.0446375 0.082053885 -0.3915307
0.03718458 0.111001275 -0.15601456 0.18871616 -0.05051234 0.04053953 -0.5451571 -0.54598844
0.045982193 0.062935375 0.021824408 -0.37455773 0.3211825 -0.14911367 -0.17317103 0.061301585
-0.21585837 -0.26138565 -0.08216992 0.108006895 -0.2775833 -0.08325829 -0.008566348 -0.324948
0.0137987565 -0.17622735 -0.02148791 -0.17786115 -0.02250365 -0.9825355 0.36809555 0.54366446
-0.015059636 0.059090726 -0.007384729 -0.10382783 -0.29397187 -0.43047816 -0.2950771 -0.25440532
0.054723527 0.050983086 -0.12172544 -0.05357709 -0.21795917 0.16300263 -0.0058974517 -0.17588027
0.3809251 0.43555003 -0.14915882 0.21911575 -0.28512844 -0.28770876 -0.05339603 0.31439182
0.10582266 -0.1459442 -0.16850919 0.37468424 0.50032777 -0.24796861 -0.098650426 -0.115985915
-0.3493414 0.2820102 0.38335514 0.6110673 0.2795004 0.07359205 -0.15285203 0.24284245
-0.097848915 -0.2291369 0.20586929 0.029450722 0.71503866 -0.44503823 -0.14426076 0.2860563
0.28670275 -0.2733779 -0.1967211 0.012357128 0.27581558 -0.41301072 -0.68911415 0.2841855
-0.13853194 -0.14474118 0.39998832 -0.22080578 0.3005343 0.3401426 0.34352028 -0.19028746
0.29594138 -0.4981688 0.33156186 -0.32049823 0.19241191 0.3228083 0.12034953 0.22106986
0.3704055 0.22915259 0.23191495 0.33764 0.32696286 0.39643258 -0.28240812 0.36752138
0.39353493 -0.37361866 -0.271302 0.33203816 -0.24269228 -0.13338155 0.32552087 0.05190274
-0.3168939 -0.34605956 -0.004078568 -0.27664313 -0.13845934 -0.44478652 -0.24754351 0.26996544
0.48366287 0.5852944 -0.33491918 -0.11811932 -0.19097024 0.32945552 -0.46788386 0.22109291
-0.06483489 -0.104408674 0.043215625 -0.12732668 -0.4188888 0.28764677 0.034926 -0.19672297

conv3.fc_self.bias f4 [30]
00000000: e8d4 c9be 88d9 1abc 6c42 ebbd 0dbb 75be
00000010: c62e 96be 58a7 2cbc 2e0c f6bd fc06 53be
00000020: d3f6 f0bc 914c cf3d e0f5 e6bb fc96 56be
00000030: a9ae 8f3d db79 0cbe 3274 18be 28ce 8b3d
00000040: a82f 243d 2434 10bd 5a59 3fbd 2791 b63d
00000050: e56d 90bd 4b55 3bbe 953d 73bd dec3 803d
00000060: 9eae 49be 9bf8 ed3d e7a9 593d 5a7b 2b3e
00000070: e21f 6fbe 1ca4 32bd
-0.39420247 -0.009451278 -0.11487278 -0.23997135 -0.2933256 -0.010537945 -0.12014042 -0.20608133
-0.02941457 0.10122026 -0.0070483536 -0.20956033 0.07015736 -0.13718359 -0.14888075 0.068264306
0.04008451 -0.035205975 -0.04671607 0.08914404 -0.07052211 -0.18294255 -0.0593849 0.06287359
-0.19695517 0.11619683 0.053140547 0.16746274 -0.23352006 -0.04361354

conv4.fc_neigh.weight f4 [20, 30]
00000000: 002e 66bf c266 e7bd de2a 823f 26b3 f73d
00000010: 87f5 483f db67 4d3e 6099 e83e a72f c4ba
00000020: ef31 723d e179 ca3e a083 0abe 88e8 9a3e
00000030: 41d4 9fbe ae82 683f 4215 6f3f 2f30 88be
00000040: 9757 8ebe 642b 00be ac32 893e 22f6 5abe
00000050: 3cc6 16bf e50e 7a3e 9fdc 123f d9ed 50bb
00000060: 91ed ffbb b2b2 35bb 9383 f63e c05d 3e3e
00000070: b80d 06be 138b 133c 5751 103f 2f55 87be
00000080: 25f4 133f 11d4 0d3f b19b cc3c 4d5c 9ebe
00000090: 56d3 ef3e 9cb3 94bd 1133 8cbd a848 a03e
000000a0: 78e4 453e 3cd7 943e 4b17 d53e d3a3 adbe
000000b0: fd56 b23e 6c4a 44bd 6c81 15be 0458 733e
000000c0: 0d3b 063e 2217 28bf 97be fb3d 29d5 ea3e
000000d0: 72d4 16be 81d8 c5be 04a0 7d3e 2076 b1be
000000e0: 675d b8be c6ac b2be 6421 ab3e e5a2 a93e
000000f0: cdc3 3c3f 7771 08bf 1c48 81bf efbd 203f
00000100: 52dd 6d3e 8a94 bd3e 9e6b 38bf 76eb 003f
00000110: 6f1f e1be 5b49 983e f10d 463f 32f1 c1be
00000120: 12cd e13e ec73 84bf 8e0b 4fbf fdb4 673e
00000130: 6836 bc3e 9bff 073f 65dd ec3e 477c 39be
00000140: 1800 b7bd 6763 053f c351 3abf f8e2 07bd
00000150: abf4 72bd bd76 873e 954d 2e3f ff0d 9fbe
00000160: 7b20 153f e555 b33e ba4d c9be b7cb 18bf
00000170: 1493 3dbd 4c5b b1be b2ea da3e 365e 8bbe
00000180: 07ae 83be 5713 de3d f798 a1be 5354 793d
00000190: 4433 073f 2c65 2fbf ab44 fc3e 9b92 2e3e
000001a0: a515 b83e bffe b0be 6f23 c2be d40a f73d
000001b0: a893 7fbe 2020 da3e 886e 01bf 119a 183f
000001c0: da0e 0abf 6a4b 9f3e c164 43be 1640 c03d
000001d0: a574 cbbe 5db9 f23e 978e 713e 115a bf3e
000001e0: 918b 953f 2b59 ba3d a1a3 6bbf abba 403e
000001f0: ddb0 613e d520 513d 4a60 c53d 79ad 953e
00000200: e807 afbe d49e a93d bbfc ee3e 5f95 203e
00000210: 5893 03be 894f 90be fcec 69bf 182f a83d
00000220: 9795 033f 501e a23e 1f86 0cbe dd62 9bbe
00000230: 3a19 523e 026a 133f fe31 743e b406 873e
00000240: e66a 0a3f 0ec6 8bbe a56c 0e3f 9a09 ac3e
00000250: 653c 053e 4d01 ba3e a2a8 d5be 75e2 edbe
00000260: 2e9c 03bf 8cbc c1be 3723 aebe 8dd4 c43e
00000270: 5287 15bf f581 093f 2b46 0a3f 147a 4fbe
00000280: 7810 06be 5be1 1cbf 89b3 4bbe 66e7 67be
00000290: 600b bcbd 3997 6d3e bd80 283e 3fbe 9e3e
000002a0: 0487 25be 727d 073d 89f6 2c3e 2b9b 2f3f
000002b0: 9b2e de3e 0eb7 dd3e 1569 15be 1193 063f
000002c0: ca40 b13e d24e e33e e4e2 d23e 4170 0f3f
000002d0: 6d6b f23e 7f1f a9bd 423c b03e 9d6f ea3c
000002e0: 3f2d 0b3e 52b0 18bf fede 98bd c914 cfbf
000002f0: 3eaf b63e b2f5 85be c6f2 dfbd 850b 2c3e
00000300: dc4c a1be 0754 a0be 06fa bdbc 9fac 0bbf
00000310: 4363 88be 456f f2be 476a e93d 11de d6be
00000320: c5f9 fabe 6e49 a3be e3d4 2bbd d28c bd3e
00000330: cf23 253c 99f1 a53d 0fec 61be 1b78 abbd
00000340: 36b4 9c3e edaa b83c 5b09 893f a476 b23e
00000350: 3e3d 52be 13c9 463f dcba 263f 5157 11bf
00000360: 8273 513e 5aa4 afbf 85cd 74be 8f4f c7be
00000370: 17d0 4f3f 4d2a f83e 582d 0abf a00e 23bf
00000380: 7feb 04bf bc46 9fbf 8271 a5be 3fb9 6bbf
00000390: a742 2fbf 7335 713e 2f3e 93bf 9858 e73d
000003a0: 3c12 7bbe cae6 b9be a583 823d 08ff 003f
000003b0: c061 71be e5ff 303e 4893 253e 6f20 2cbe
000003c0: 66f3 d73e 63ec 99be 1edc a8bf e699 173f
000003d0: f613 45be cfbe eabe f1f4 97be ca9f 1d3f
000003e0: f372 42bf b394 2dbf 7b18 be3e 52cd f13e
000003f0: 39d2 b9be eccf 063f 8487 3c3f 8a18 77bf
-0.8991394 -0.11298896 1.0169332 0.12094717 0.78499645 0.20059149 0.45429516 -0.0014967815
0.05912965 0.3954611 -0.13526773 0.30255532 -0.31216624 0.908244 0.9339181 -0.2659926
-0.278012 -0.12516552 0.26796472 -0.21382955 -0.5889623 0.24419744 0.5736789 -0.003188005
-0.0078103025 -0.002772492 0.48147258 0.1859045 -0.13091171 0.009005326 0.56374115 -0.26432177
0.5779441 0.5540171 0.024976583 -0.30929795 0.46840924 -0.0726082 -0.06845678 0.31305432
0.19325435 0.2907046 0.41619334 -0.3391405 0.34831992 -0.047922537 -0.14600152 0.23764044
0.13108464 -0.656603 0.122922115 0.45865753 -0.14729479 -0.38641742 0.24768072 -0.34660435
-0.3600876 -0.3489744 0.33423913 0.3313209 0.7373627 -0.53298134 -1.0100131 0.62789816
0.23228958 0.3702739 -0.7203921 0.50359285 -0.43969294 0.29743466 0.7736502 -0.3787933
0.4410177 -1.0347877 -0.80877006 0.22627635 0.3676026 0.531244 0.4626266 -0.18113814
-0.08935565 0.521048 -0.7278101 -0.03317544 -0.059315365 0.26457778 0.6808713 -0.31065366
0.58252686 0.3502647 -0.39317113 -0.59685844 -0.046282843 -0.34639966 0.42757183 -0.27220315
-0.2571871 0.108435325 -0.31562015 0.060871433 0.528126 -0.6851375 0.4927114 0.17048113
0.35954013 -0.34569356 -0.3791766 0.12062612 -0.2495867 0.42602634 -0.5055928 0.59610087
-0.5392891 0.31112224 -0.19081403 0.093872234 -0.3973743 0.47407046 0.2358955 0.37373403
1.1683217 0.09099039 -0.9204655 0.18821208 0.22040124 0.0510567 0.09637506 0.29233912
-0.3418572 0.08282247 0.46677193 0.1568198 -0.12849176 -0.2818568 -0.91377234 0.082121074
0.5140013 0.31663752 -0.13723038 -0.30348864 0.20517436 0.5758363 0.23847196 0.26372302
0.54069364 -0.2729954 0.5563453 0.33601075 0.1301132 0.36329117 -0.4173022 -0.46461836
-0.51410186 -0.37839162 -0.34011242 0.38443413 -0.5840961 0.53713924 0.5401332 -0.20261413
-0.1309222 -0.61281365 -0.19892706 -0.22646865 -0.09181857 0.23202218 0.1645536 0.3100452
-0.16164786 0.03307862 0.1689092 0.6859614 0.43394932 0.43303722 -0.14590867 0.52568156
0.34619743 0.44396073 0.4118873 0.5603066 0.47347584 -0.082579605 0.34420973 0.028617674
0.13591479 -0.59644043 -0.074644074 -1.6178218 0.35680574 -0.26164013 -0.10934977 0.1680127
-0.31503952 -0.31314108 -0.02319051 -0.54560274 -0.2663823 -0.47350517 0.11397224 -0.41966298
-0.49018684 -0.3189196 -0.04195107 0.370215 0.010079338 0.08102722 -0.22062705 -0.08372518
0.3060624 0.022542441 1.070598 0.3485614 -0.20531175 0.77650565 0.65128875 -0.5677386
0.20454219 -1.3722031 -0.23906524 -0.38927886 0.81176895 0.48469773 -0.5397544 -0.6369419
-0.5192184 -1.2443461 -0.32313162 -0.9207954 -0.6846108 0.23555546 -1.1503352 0.11296195
-0.24518675 -0.3630889 0.063727655 0.50389147 -0.23572445 0.17285116 0.16169465 -0.16809247
0.42177886 -0.3006316 -1.3192174 0.59219205 -0.19245896 -0.458487 -0.29679063 0.61571944
-0.7595665 -0.6780502 0.37128052 0.4722696 -0.362932 0.52661014 0.7364428 -0.9652182

conv4.fc_self.weight f4 [20, 30]
00000000: e7b6 c3be 3931 99bd 738b 8a3d 9805 a0be
00000010: 9953 943e 05aa 2b3e 5295 29be efb3 3ebe
00000020: 1edc 093f 7de5 64be 59fe af3e 8bc4 813f
00000030: e3fb b43e e8fe 5f3f 593e 833e 58e3 a6be
00000040: a293 87bc 157a 3e3d a829 073f 2e7d 083f
00000050: 42f2 973e 09b1 b43d 32a8 64be e16f 883e
00000060: 61d9 b93e b1d2 23be 083b eabc 8972 d3bd
00000070: c865 d23e 5b19 8e3e ea9d a6bc e033 a9be
00000080: 5f41 b63e c9af 843f 9eee 2abf ceb9 6fbe
00000090: 70fe 403e 86b5 b3bc f0c1 51bf d561 05bf
000000a0: e5ba 26be 4691 85be 4298 df3e 31df 4bbe
000000b0: 60ba 433d 2de8 86bf b9e2 e63d 6f3b 8d3e
000000c0: 3b60 d33e 8462 93be c9ab 8abd 91ff 5c3d
000000d0: 8c53 a53e b7eb f33e 9815 a93e f1db c03e
000000e0: 862d 38be cfa7 a0be 107c b1be 8ffd 4a3e
000000f0: 1c04 83be 1325 c1be 73c1 c5bf 1eb8 233e
00000100: 0095 043e e49d 16be 71dd 76bf 46e4 8fbe
00000110: 9d4b 86bf 31eb b5be 4afe af3e b1df eebe
00000120: a9c9 cbbe 7865 93bf e932 5bbf d021 adbe
00000130: b7bf bebc 4748 14be d7df adbd 0287 273e
00000140: 732b 1a3d 464f 4e3e c252 5dbf 6eb2 2d3e
00000150: 71ea 4a3e 9214 9dbd 3323 433f 320d f1be
00000160: fd81 773a 6e36 923e 4236 cebe 8413 603e
00000170: 3713 10bf 97b1 c73c 92b9 3e3f b710 dc3d
00000180: f7b7 8abe 6923 153c d455 953d 748a f13e
00000190: 67cc e23e 39e4 c33e d9ad 323e ad30 11be
000001a0: 1699 493e 3855 01bd 071d f73c e2a0 7fbe
000001b0: 430c e9bd 4a28 b23d 8426 02bf 941d 053f
000001c0: 139b 603e e07e c5be 2c99 a43e 9150 9f3e
000001d0: 11f6 de3e 644b 8b3e 1179 213f f39d cfbe
000001e0: 0b43 7f3f 0ecb 6bbe 6ea5 ce3e ada4 953d
000001f0: 5110 463e f975 aabe a8f4 b7be f16c 203f
00000200: d4fa b0be 8061 f9bd e243 4d3f 387a 733d
00000210: 99c1 133f 7ccd 0a3e 9ecf 853b 46e9 ca3e
00000220: 21e4 3abd 3bea ae3d 47dc 96be b846 debe
00000230: e184 963e 8aa3 a13e f743 cdbe cf4d 8e3e
00000240: 5e76 cc3e 08c2 123e 3b59 0e3f c803 d2be
00000250: ce8c bdbc 5855 1cbe 35bc f13d 3b58 b53e
00000260: c4e7 86bf 5696 5c3e 7107 473d bc61 adbc
00000270: 55f3 50be 1466 313f e78b d5bc f307 8abe
00000280: b7c5 2cbe 5447 4fbf 893e 583e bf28 c03c
00000290: eb88 47be 8377 343f 1c00 cb3e 6334 01bd
000002a0: d7ad d4bc 40c8 82be ea22 cb3c ba93 b93e
000002b0: e200 c0be 606b 403f 1b87 273f 26a5 9d3e
000002c0: 1c13 7ebe 1729 1a3f f327 39be f666 393e
000002d0: 9c10 af3e ae6c 933e d91a 0f3f d7f4 503d
000002e0: 4c2d e73e 97cb 4f3e f917 1d3f fe25 d5be
000002f0: 8638 473e 32c1 adbe d0d7 46bf a931 0cbe
00000300: a653 26bf 89c2 5abe d17b 47bf 9898 fabe
00000310: dbfe 713e 3322 d4be f2dc 9abe 1028 1c3d
00000320: 9cbf 543f 50bf 9e3e 8620 78bd 3b1b f2bd
00000330: 1172 903d ce28 dbbe 427d 56be b09e 1d3d
00000340: d5cf e13e 73ae ab3e 6d3d 873f 0c72 203e
00000350: 03af 033f d948 13bf c450 083f 76eb d2bc
00000360: fc0c 313f 6a14 9abe ac1b 223f 36c2 e43e
00000370: ddd7 333e 3989 243f ec10 6fbf d2ee 1b3e
00000380: 33ed 90be ac43 643d 4f3a 7ebe 2fe7 bb3b
00000390: 3976 2bbf 7074 7c3d 53df 103f edf3 d03e
000003a0: ba8d 22be 5a2c aa3e d8d5 fe3e b1cc 6b3e
000003b0: 055b 283f ff44 b1bd 9a1b fa3e caf7 0fbe
000003c0: 8a3b 02bf 679c 17bd b52a 5c3d 155b bf3d
000003d0: ca64 f3be 5e53 593d 74d7 9dbe d35e 303e
000003e0: e012 e7bd 25dc 8ebe 4be5 bd3d 3e02 b03e
000003f0: 6d21 ae3d 48e4 1c3e cd49 f53c 8527 4abe
-0.3822548 -0.074800916 0.06764879 -0.31254268 0.2897003 0.16764076 -0.16560867 -0.18623327
0.538515 -0.22353168 0.3437374 1.0138105 0.35348424 0.8749833 0.25633505 -0.32595325
-0.016549889 0.046503145 0.5279794 0.5331601 0.29677016 0.08822829 -0.22329786 0.26647857
0.3629866 -0.15998341 -0.028592601 -0.1032458 0.41093278 0.2775372 -0.020338971 -0.3304739
0.3559675 1.0366145 -0.6677035 -0.23410723 0.1884706 -0.021937143 -0.8193655 -0.52102405
-0.16282232 -0.26087397 0.4367085 -0.1990936 0.047785163 -1.0539604 0.11273713 0.27584407
0.41284356 -0.287861 -0.06771047 0.053954665 0.32290304 0.47640774 0.33024287 0.37667802
-0.17986116 -0.31378028 -0.34664965 0.19823287 -0.25589073 -0.37723598 -1.5449661 0.15988204
0.12947464 -0.14708668 -0.9643164 -0.28103846 -1.0491825 -0.35531 0.34373695 -0.46655038
-0.39802292 -1.1515341 -0.8562456 -0.3381486 -0.023284776 -0.14480697 -0.0848996 0.16360095
0.037639093 0.20147428 -0.86454403 0.16962597 0.19815995 -0.07669939 0.76225585 -0.4708038
0.0009441672 0.28557152 -0.4027577 0.21882445 -0.5627932 0.024376674 0.7450191 0.107453756
-0.2709348 0.009102681 0.07291761 0.47175944 0.44296572 0.38260058 0.1744913 -0.14178725
0.19687304 -0.03157541 0.030165209 -0.24963716 -0.11379292 0.08699091 -0.5084002 0.5199826
0.21934156 -0.3857336 0.3214811 0.31116155 0.4354711 0.27205956 0.6307536 -0.40550193
0.99711674 -0.23026678 0.40360588 0.073068 0.19342162 -0.3329313 -0.35928845 0.6266623
-0.34566367 -0.121768 0.80181706 0.05944273 0.5771728 0.13554949 0.004083588 0.39631099
-0.045627717 0.0854077 -0.29464933 -0.4341333 0.29398254 0.31570083 -0.40090916 0.27793738
0.39934057 0.1433183 0.55604905 -0.4101851 -0.02313843 -0.15266931 0.11803476 0.35418877
-1.0539479 0.21541724 0.04859108 -0.021164767 -0.20405324 0.69296384 -0.026067687 -0.2695919
-0.16872297 -0.80968213 0.21117605 0.02345693 -0.19485824 0.7049486 0.3964852 -0.0315441
-0.0259618 -0.25543404 0.024796922 0.3624552 -0.37500674 0.7516384 0.6544053 0.3079006
-0.24811977 0.6021895 -0.18081646 0.18105683 0.3419236 0.28793854 0.5590034 0.051014747
0.45151746 0.20292507 0.61364704 -0.41630548 0.19455156 -0.3393646 -0.77673054 -0.13690819
-0.6497139 -0.21363272 -0.77923304 -0.48944545 0.23632376 -0.41432342 -0.30246693 0.038124144
0.8310487 0.31005335 -0.06057789 -0.118216 0.070530064 -0.4280457 -0.2094622 0.038481414
0.44103876 0.33531532 1.0565621 0.15668505 0.5143892 -0.5753303 0.5324824 -0.025747042
0.6916044 -0.300937 0.63323474 0.4467942 0.17562814 0.64271885 -0.93385196 0.15227821
-0.2830597 0.0557286 -0.2482693 0.0057343463 -0.6697727 0.06163448 0.56590766 0.408111
-0.15874377 0.33236963 0.49772525 0.23027302 0.65763885 -0.08655738 0.48849183 -0.14059368
-0.508721 -0.03701439 0.053751666 0.093435444 -0.47537833 0.05305802 -0.3082844 0.17223673
-0.11282897 -0.27902332 0.0927225 0.3437671 0.08502469 0.15321457 0.029942418 -0.19741638

conv4.fc_self.bias f4 [20]
00000000: abe4 0b3d be4b c1bd 0169 46bd 1be3 19bc
00000010: fa01 46be 1c2d c9bd 7f3d cdbd 9b78 68be
00000020: 83a4 59be 185a 8e3e 6856 653d 3a9c 12bb
00000030: 0656 c63c a4f0 363e 40a1 12be c477 993a
00000040: 8711 513e 4430 5fbc 358d 28bd 3f58 073e
0.03415362 -0.09438275 -0.048439983 -0.009392525 -0.19336691 -0.09823057 -0.10021495 -0.22702257
-0.21254162 0.2780311 0.055990607 -0.002237095 0.024210941 0.17865235 -0.14319324 0.0011708667
0.20416842 -0.013622347 -0.04115029 0.13217257
