VVG/Experiment_4 - Swap_datasets/Images7/model7_std.pth (torch, 34018 bytes, 18 tensors)

conv1.fc_neigh.weight f4 [50, 8]
000000 ba 25 9d bd f4 c6 96 be 48 a5 65 be 2d d7 15 bf
       -0.076732114 -0.29448664 -0.22426331 -0.5853146
000010 77 b0 cb be e4 8b 6d be 94 ae ca 3d 84 e6 11 be
       -0.3978307 -0.23197895 0.098965794 -0.14248091
000020 38 29 85 be b8 c0 80 bd 66 11 e6 bc 9b 53 e4 be
       -0.2600801 -0.06286758 -0.028084468 -0.44595036
000030 c0 ce c2 be 77 8b 58 3b f4 02 a9 be a3 e7 2e be
       -0.38048363 0.0033042112 -0.33010066 -0.1708055
000040 d3 d8 96 3e c7 55 0e 3f ea 69 b3 be d5 ea a0 3d
       0.294623 0.55599636 -0.35041744 0.07857291
000050 29 a7 82 bd e1 19 a3 3e d3 ad 59 3f 67 1d 40 bf
       -0.063795395 0.31855682 0.8503086 -0.75044864
000060 f8 d9 64 3e dc 28 12 3f da bd f4 be e3 dc 8e 3e
       0.22348773 0.57093596 -0.47801095 0.27902898
000070 cc af c0 3d 88 ba 24 3f c6 3a d8 bd 6e b8 60 bf
       0.094085306 0.64347124 -0.10558085 -0.8778142
000080 90 d0 ee 3e 28 ba dd 3d 96 96 8e bf db 45 cc 3d
       0.46643496 0.10826522 -1.1139705 0.099742614
000090 47 0e 8e 3e 18 ad 46 3f f7 f2 11 3e 5f e8 27 bf
       0.27745268 0.7760787 0.1425284 -0.65588945
0000a0 a5 67 57 be 70 33 08 3f da 75 9a be e1 99 14 be
       -0.21035631 0.5320349 -0.3016804 -0.14511825
0000b0 ce 82 8e bd a5 d4 43 3f 21 15 15 3f 7b 2e 0b be
       -0.06958543 0.76496345 0.58235365 -0.1359195
0000c0 1c 6c 09 bf b8 ff 85 bf db 27 3f bf c1 68 2e 3c
       -0.53680587 -1.0468664 -0.7467019 0.010645092
0000d0 45 eb 32 3d c8 b5 9f bf 4e bf de 3e b9 e4 05 bf
       0.0436814 -1.247735 0.4350533 -0.5230213
0000e0 13 05 ab 3a fb d7 9d 3d 79 51 de be f5 78 91 be
       0.0013047777 0.07707211 -0.43421534 -0.28412595
0000f0 1b cb 23 be 1c 45 e3 bd 05 37 54 be 3b 5d c7 be
       -0.15995447 -0.11097166 -0.20724113 -0.38938317
000100 c8 a1 ca bd 28 9b fa 3e c9 72 aa be 1a 85 d0 bd
       -0.098941386 0.489465 -0.332907 -0.10181637
000110 29 c9 f6 be 36 18 bc 3e fd 41 97 3e 13 3d 96 3d
       -0.48200348 0.3673722 0.29542533 0.07335868
000120 42 93 9d be 04 97 16 3d 7d e8 97 3e a7 14 80 be
       -0.3077641 0.036765113 0.29669562 -0.25015756
000130 8a ac 73 be 54 ba c8 3e 12 ab 2a bc 11 f1 94 be
       -0.23796287 0.39204657 -0.010416763 -0.2909017
000140 3e c1 0a bf 90 1b a1 3e f3 f9 72 bc 66 70 b6 be
       -0.54201114 0.3146634 -0.0148301 -0.35632628
000150 cb 23 bd 3e 06 51 41 3f e7 11 43 3e 8b 08 f5 3d
       0.3694137 0.75514257 0.19049798 0.1196452
000160 fd 7c 07 3e 23 d3 2a 3e 54 fb 0b bf 99 d2 b0 3e
       0.13231273 0.16682105 -0.5468037 0.34535673
000170 17 70 33 3d 8d 95 29 3e 55 42 55 3f 48 a7 30 be
       0.04380807 0.16560955 0.8330434 -0.17251313
000180 b5 56 12 bf 49 67 93 3e 74 1a c0 bd f6 d4 e8 3e
       -0.57163554 0.28789738 -0.093800455 0.45474976
000190 94 a7 6f be b5 fa c9 3d ef a2 5e 3f 14 d2 3b be
       -0.2340377 0.09862272 0.86967367 -0.18341857
0001a0 51 59 32 3f 91 9b 65 be b8 46 98 3e c3 27 4c be
       0.69667536 -0.22422625 0.29741454 -0.19937043
0001b0 0b d1 88 be 7b a1 b3 be 2a 4b e8 be 15 38 5c 3d
       -0.26721987 -0.35084137 -0.45369846 0.05376442
0001c0 e1 0c 97 be 94 21 93 3e 55 93 4f be a3 1f cd bd
       -0.29502013 0.28736556 -0.20271046 -0.100158
0001d0 be 45 63 3e 85 d5 4c 3f 11 7d 0f 3e 6c a4 3f bf
       0.22194573 0.80013305 0.14012553 -0.7486026
0001e0 7d 52 80 3e 2a 21 45 3e 69 53 06 be 90 ca 0e bf
       0.25062934 0.19250932 -0.13117756 -0.55777836
0001f0 e4 7e 43 be d0 73 ee 3e 8c e6 d5 bc 4c ef b6 be
       -0.19091374 0.46572733 -0.02611091 -0.35729444
000200 60 e3 24 be 39 38 a1 be f3 95 48 3f e2 cc f8 bd
       -0.16102362 -0.31488207 0.78353804 -0.12148453
000210 43 cb c9 3e b7 94 8a be 26 09 b7 3d c8 54 c2 3e
       0.3941289 -0.27066585 0.08937292 0.37955308
000220 21 53 23 3f e9 70 c8 bd a1 82 bb be dc 24 93 3e
       0.6379872 -0.09787161 -0.366231 0.2873906
000230 1f 6f 02 be ff a8 b6 bd 4a 82 99 3d 75 e8 29 3e
       -0.12737702 -0.08918952 0.07495554 0.16592582
000240 eb 05 98 3e 88 6e 1c 3f 4e cd e2 be 42 c0 77 3a
       0.29692015 0.6110616 -0.4429726 0.0009450951
000250 4a ec 99 3e 8b 5e 45 3f b1 62 8e 3e 8a 49 98 bf
       0.30063087 0.77097386 0.2780967 -1.1897442
000260 de 16 f7 3d 62 f2 93 bd d0 22 24 3f 34 32 48 be
       0.120649084 -0.07223965 0.6411562 -0.19550401
000270 c0 f5 47 be 90 5e ab bd 86 d7 fb be 8e 48 9d 3e
       -0.1952734 -0.08367646 -0.4918787 0.30719417
000280 5a 8f 3d bc 47 3e 83 3e 27 88 c9 3c aa 6f e8 be
       -0.011569822 0.2563345 0.024601055 -0.45397693
000290 55 4d 22 be da 64 6b bd 0d e7 02 3f e6 de 85 3c
       -0.15849812 -0.057469226 0.51133806 0.016341638
0002a0 9e 73 08 3f 9c 4a 28 bf cd c6 6c be 3e 52 ac 3d
       0.5330142 -0.65738845 -0.23122711 0.08414124
0002b0 5e 85 ae 3d e8 00 0a bf 01 8e 36 be 8b fd e5 3e
       0.085215315 -0.5390763 -0.17827608 0.4492
0002c0 1d 5b 51 3f 6e 37 9f be f7 f2 9a 3c 41 74 10 be
       0.8177965 -0.31096977 0.018914683 -0.14106847
0002d0 ea 7c 61 be af 4a d8 be 4c ce 17 bd 7a 32 98 be
       -0.22020307 -0.4224448 -0.037061974 -0.2972601
0002e0 93 2e ae 3e 77 dc f1 bd a4 bc 9e 3d 6b 8a e9 3e
       0.34019908 -0.118096285 0.07750824 0.45613417
0002f0 1b 1e 0e bf 3b 6e c5 be 48 95 8b 3e 98 70 d8 3d
       -0.5551469 -0.38560662 0.2726233 0.105683506
000300 15 20 57 3d f4 9d 87 3d 65 df 6c 3e c4 1c bd be
       0.05252083 0.06621924 0.23132093 -0.3693601
000310 ef a9 db 3e 83 28 32 bf 89 07 7c 3e a7 32 13 3f
       0.42903087 -0.69593066 0.2461225 0.57499164
000320 c1 c1 14 bf 9b 43 eb 3e 89 12 ad be 73 04 a4 3d
       -0.58108145 0.45950016 -0.33803204 0.08008661
000330 db ba ed 3e 76 3c 87 be 8f f7 0f bf 33 92 b2 3e
       0.46431622 -0.26413316 -0.5623712 0.34877166
000340 36 9c 64 3e 27 11 27 be c6 b4 1f be c1 22 d6 be
       0.22325215 -0.16315137 -0.15596303 -0.4182339
000350 ee 12 14 bf fc ee c7 3d 07 c5 23 3f bb d3 b4 bd
       -0.57841384 0.097623795 0.63972515 -0.08829447
000360 e0 54 a9 3e 2d 83 94 bd 86 ea ed 3d ea fa b9 be
       0.33072567 -0.07251582 0.116169974 -0.36324245
000370 75 24 ce bd be a4 e6 3e f6 98 5d 3d 66 40 a2 be
       -0.100655474 0.45047563 0.054100953 -0.31689757
000380 6c 6f f3 be 87 78 94 3e 76 f4 4c bf 11 9f f0 be
       -0.47545946 0.28998205 -0.8006052 -0.46996358
000390 9f 25 76 3e fc 49 81 3f 81 bb 5a 3f c6 c9 33 bd
       0.24037789 1.0100703 0.8544236 -0.043893598
0003a0 83 f5 3d be c1 fb 7a 3f 20 1a 20 3e c3 55 98 3e
       -0.18550687 0.98040396 0.15634966 0.2975293
0003b0 4f d0 41 bd aa d1 b1 3f 8c 3a 44 3c f6 ca 08 3d
       -0.0473178 1.3892109 0.011976849 0.033396684
0003c0 d1 55 22 be d3 bc 41 3f 6a 2c c3 bf 4a a2 80 3e
       -0.15853049 0.7567875 -1.5247929 0.25123817
0003d0 7f a5 e1 bd 87 77 bb 3f 8e 37 88 3e 06 b9 f2 bf
       -0.11017894 1.4645852 0.26604885 -1.8962715
0003e0 f0 d6 6b bf de e0 bb 3e 31 63 b7 3e f5 13 cf 3e
       -0.92124844 0.36694998 0.35817865 0.40444914
0003f0 7c 57 a5 bd b2 25 c0 3e f1 a5 c1 be a7 93 37 3f
       -0.08073327 0.3752876 -0.37821916 0.71709675

conv1.fc_self.weight f4 [50, 8]
000000 cb 1f bb 3e 75 82 9e 3d e2 d9 6c bd f6 d9 bb be
       0.36547694 0.077397265 -0.057824977 -0.36689728
000010 7a bd 02 3f 61 c5 ca bc f5 5a dc bf e2 18 a8 3e
       0.5107037 -0.02475232 -1.7215258 0.32831484
000020 db 30 2f 3e 3b 7c e8 3c e5 0f c1 be 8d 32 49 3e
       0.1710848 0.02837955 -0.3770744 0.1964819
000030 9c 3c e5 3d 97 41 85 bd 47 93 3b be 47 54 e7 3e
       0.11193201 -0.06506651 -0.183179 0.45181486
000040 4b 49 e2 bc 15 fa 83 bf 71 69 98 be 79 79 21 3e
       -0.02762284 -1.0310694 -0.29767945 0.15768994
000050 9a e2 de be af ce 1c bf e9 b7 ef be 11 ac c1 bd
       -0.43532258 -0.61252874 -0.4682 -0.09456647
000060 02 99 71 be 94 7b 04 be 08 31 bb bd e8 86 6b be
       -0.23593524 -0.12937766 -0.09140211 -0.23000681
000070 a3 2c cb 3e 60 5f 41 bf b5 e4 8e bf c1 21 91 3d
       0.39682493 -0.75536156 -1.1163546 0.07086516
000080 5a 5b 4c 3d 2b a6 a1 bf a8 c1 23 bf fe a2 f5 bd
       0.049891807 -1.2628835 -0.6396737 -0.11993979
000090 e3 ab 3f be 77 95 d7 bf bc 3a 42 be 4f 17 49 bf
       -0.18717913 -1.6842488 -0.18967718 -0.7855119
0000a0 f6 ac 3f bb 2e 84 9c be 5f 6f 71 be 6c 5e 80 3e
       -0.002924738 -0.30569595 -0.23577641 0.25072038
0000b0 00 8f ed 3e 6e 7e 2e 3e f4 db 91 be 21 e6 21 3e
       0.46398163 0.17040417 -0.28488123 0.15810443
0000c0 11 91 0a 3f 9f dc 82 bf 9d 03 03 3f 14 d0 30 3e
       0.54127604 -1.0223578 0.5117739 0.17266876
0000d0 f3 ed c6 3d 38 43 87 bf 54 19 59 3f ef a1 36 3e
       0.09713354 -1.0567389 0.8480427 0.1783521
0000e0 10 30 e2 be f1 69 6d be f9 a3 8b 3e d6 4d 86 3e
       -0.44177294 -0.23184945 0.2727354 0.2623126
0000f0 96 37 9a bd d3 16 db 3d 69 cf d0 3d 36 e2 7a 3e
       -0.075301334 0.10697713 0.1019581 0.24500355
000100 06 3d 9a 3d e5 e9 7e bf 0b 00 2e be 2b bc fb bd
       0.075311705 -0.99575645 -0.16992204 -0.122917496
000110 8c 1a bd 3e 3e 6a c9 bd a3 a9 59 3f 77 5e 6b bf
       0.36934316 -0.09834717 0.8502447 -0.91941017
000120 e5 94 c8 3d 03 72 25 3d 53 07 c4 be 7b 37 b3 bd
       0.097940244 0.040391933 -0.38286838 -0.087508164
000130 ce fe c8 be 9d ce c1 be e5 15 68 bd b9 1d eb bd
       -0.392569 -0.37852946 -0.056661505 -0.114802785
000140 10 20 06 3e 3e 33 21 bf 38 e4 7e be ad c6 ac be
       0.13098168 -0.62968814 -0.24891746 -0.33745328
000150 ec 13 07 3f dd 1c a1 bf fe 0a a6 be ee 24 b8 3b
       0.52764773 -1.2586933 -0.3243026 0.0056196367
000160 a8 b4 f4 3e 06 ce 33 bf 52 75 ca 3e 5c 53 02 be
       0.4779408 -0.7023624 0.39542633 -0.12727112
000170 3b 30 a7 bd 1b a5 0b bf 62 f3 c3 3e eb 20 26 3f
       -0.08163496 -0.54548806 0.38271624 0.6489398
000180 e2 d9 fa 3b a6 c9 47 3e fb 38 ad b9 62 bc cb 3e
       0.007655368 0.19510517 -0.00033039585 0.39792162
000190 cf 39 9d bc 75 7c 1b 3f 10 90 8e bd 6a 2a 07 be
       -0.019192604 0.6073678 -0.069610715 -0.13199773
0001a0 62 50 bf 3e 7c ae 93 3e fc 91 c8 be f0 24 a5 be
       0.37366015 0.2884406 -0.39173877 -0.32254744
0001b0 6b e8 e9 3e f6 ae fc 3e e2 7e 3d be 77 11 83 be
       0.45685133 0.49352235 -0.18505433 -0.25599262
0001c0 95 e4 b5 be 7b 6a 47 bf 5c cd 8e be 92 7f 48 3e
       -0.35525957 -0.7789685 -0.27891052 0.19579914
0001d0 ad 8f dd 3e 0d 22 43 be f0 8b 48 be 89 1d 87 bf
       0.43273678 -0.19055958 -0.19584632 -1.0555888
0001e0 b7 cd d8 3e 3a ca 2e 3f c9 52 eb 3e 0d f4 2c be
       0.42344448 0.68277323 0.45961598 -0.16889973
0001f0 27 dd 2e 3d 5b 20 2f 3f e5 c4 7d 3d 54 7a 54 3e
       0.042691376 0.68408746 0.06195535 0.2074979
000200 35 d3 f6 3e 7e 73 9c bf 8b 9b 5f bf ac 73 83 bd
       0.48208013 -1.2222745 -0.87346715 -0.06418547
000210 f5 48 da be e1 30 c8 bf 97 2b af be f6 5b 47 bf
       -0.42633787 -1.5639917 -0.34212944 -0.77874696
000220 a5 c6 f2 be 92 d4 65 be bb 28 d9 bc 15 ac cc bd
       -0.4741718 -0.2244437 -0.02650868 -0.099937595
000230 ad 76 a7 3e e7 87 d7 3e a7 56 e6 be 30 4a 1e bf
       0.3270773 0.42095873 -0.44987985 -0.6183195
000240 42 95 8d 3d ff d2 5f be 8a cd 01 bf 98 a8 91 3d
       0.06913234 -0.21857832 -0.5070425 0.07112235
000250 70 f5 1c 3e 84 80 0d bf c6 e7 8a bf 09 7c 5b be
       0.15328002 -0.55274224 -1.0851982 -0.21434034
000260 17 de a6 3e cf d6 99 be c8 f8 7f 3d 42 b7 31 be
       0.32591316 -0.30046698 0.062493116 -0.17355064
000270 8d 45 02 be 5b 99 fa be 51 80 8b be 1b 1b 93 3c
       -0.12721844 -0.48945126 -0.27246335 0.01795726
000280 4c de b8 be 36 37 9f 3e 35 c2 3d be d7 22 33 be
       -0.361071 0.3109681 -0.18531115 -0.17493759
000290 60 ed 1d bd 6a d9 93 3e 2b 23 04 be 78 d6 53 3d
       -0.038556457 0.2887681 -0.1290404 0.051718205
0002a0 10 eb 10 3f 17 58 af 3e 3f 70 b7 be 6c 68 e0 be
       0.56608677 0.34246895 -0.35827824 -0.43829668
0002b0 56 fc b8 be e5 66 0d bd d0 83 dc 3e 16 bb f2 3e
       -0.36130017 -0.034521956 0.43069315 0.4740836
0002c0 a5 52 41 bf ae 83 6a 3e 33 f2 d0 3e 1b 69 0b 3e
       -0.7551673 0.22901794 0.40809783 0.13614313
0002d0 bd 2f 37 3e 1e 38 13 bf 16 61 07 3e 35 ed 16 3f
       0.17889304 -0.57507503 0.13220629 0.589557
0002e0 fe 5f fd bd 69 07 b3 3e d0 e5 98 3e e0 ea 87 be
       -0.12371825 0.3496659 0.29862833 -0.26546383
0002f0 9b 79 0a bf f6 ad 8e 3e d4 db 0f be 65 7f 7e 3e
       -0.54091805 0.27867097 -0.14048702 0.24853285
000300 0f b6 83 3e ea f1 4b be 98 30 40 3f 8e 94 76 be
       0.25724837 -0.19916502 0.7507415 -0.24080107
000310 3a a9 c6 3b 9e 8f 1a bf e7 f4 01 3e ab b6 a4 3d
       0.006062654 -0.6037539 0.12691079 0.08042654
000320 d7 f1 a7 3e 50 99 40 bd ae 1c 3d 3e 66 43 fe bd
       0.32801697 -0.04702121 0.18467972 -0.12415199
000330 f6 e9 5a 3e d4 43 7c bd ab 09 98 3e 30 7a 88 be
       0.21378312 -0.061588123 0.29694876 -0.26655722
000340 d7 af 22 be 02 5c 59 bc 49 57 e1 be bd 64 02 3f
       -0.1588739 -0.013266565 -0.44011906 0.50934964
000350 77 4e d0 3e 5a de 30 bd 21 fe 23 3f 0c 7a ac be
       0.40684864 -0.0431808 0.64059645 -0.33686864
000360 c9 df 81 be 30 ce 54 3e eb 99 87 be 69 f0 92 be
       -0.25366047 0.2078178 -0.26484618 -0.28699043
000370 97 71 eb 3e 35 6d 12 3f 1d 8f c9 bf 22 c9 18 bf
       0.459851 0.57197887 -1.57468 -0.59681904
000380 01 79 9e bd 5f 5f 62 bf dc d6 83 be 22 cb e2 3c
       -0.077379234 -0.88426775 -0.25749862 0.027684752
000390 af 13 f8 3e 67 41 b2 bf e1 b8 8b bf ef cc 01 bf
       0.48452517 -1.3926209 -1.0915796 -0.5070333
0003a0 d9 80 27 be c4 c4 38 bf b4 fb 47 bf f0 13 14 3e
       -0.16357745 -0.7217524 -0.78118443 0.1446073
0003b0 a1 69 0d 3d 90 b2 76 bf f1 f6 c4 bf 9e 12 b6 be
       0.034524564 -0.96366215 -1.538786 -0.3556108
0003c0 c9 a7 6f 3c 58 be a3 be 9d bd eb 3d 48 c0 27 3e
       0.014627405 -0.31981158 0.11510775 0.16381943
0003d0 8c 12 be be eb 5a fc be 88 84 11 bf d2 88 a7 be
       -0.37123525 -0.49288115 -0.5684285 -0.32721573
0003e0 f7 a4 32 bf 0d 80 81 be 5d d0 21 be e9 0c 78 be
       -0.69782966 -0.25293007 -0.1580214 -0.24223675
0003f0 f1 a3 ff 3e d5 b8 bf 3e 70 30 2b bd bd 9e aa be
       0.49929765 0.37445703 -0.04179424 -0.33324233

conv1.fc_self.bias f4 [50]
000000 7e b9 a3 3e e9 ab 60 be ce a8 63 3e be fd 27 be
       0.31977457 -0.21940579 0.22232363 -0.16405389
000010 78 c1 eb 3b a9 e1 11 be e6 92 2c be ed cc 2f be
       0.007194694 -0.14246239 -0.16852912 -0.17168017
000020 20 6b dc 3d 4e a5 8c 3d c9 e2 8f 3d 0e 69 be be
       0.1076262 0.06867467 0.07025678 -0.37189525
000030 cf e1 5f be 1e 5c 21 be b2 91 8b 3d dd 77 90 be
       -0.21863483 -0.15757796 0.068148986 -0.28216448
000040 9f 6f 64 bc 1a e2 8f be be b0 93 be 8d e4 ba 3e
       -0.013942628 -0.2810219 -0.2884578 0.36502495
000050 1c 45 72 3e b1 cd d4 3d 94 7e 23 3b df 5d d8 3d
       0.23659176 0.10390795 0.0024947273 0.105647795
000060 ad ba ac 3d 57 cc ff bd e2 24 c0 be 24 16 89 3e
       0.08434043 -0.124901466 -0.3752814 0.26774704
000070 91 e7 92 3e 6d 5b d9 3c 59 ef c0 3d 4f 74 0a be
       0.28692296 0.026532853 0.09420652 -0.1352093
000080 fe 93 78 3d 4a 6f 88 3e 16 09 3b be c3 f9 53 3d
       0.06068801 0.26647407 -0.18265185 0.051751863
000090 ec b2 50 be 3b 62 51 3c fe 14 f3 3d 9f e1 67 3e
       -0.20380753 0.012779768 0.11869238 0.22644661
0000a0 17 71 79 3e 3e 9d 89 3e c5 bc 64 3d 58 ea 5f 3e
       0.24359547 0.2687778 0.055844087 0.21866739
0000b0 15 66 3f 3e 5d e4 8e 3e e8 2d db bd 31 bc a6 bd
       0.18691285 0.27908602 -0.10702115 -0.081413634
0000c0 0d ce 2d be ca 2c df bd
       -0.16973133 -0.10897215

conv2.weight f4 [50, 40]
000000 da 85 2b 3e 56 ea 6f 3f c9 82 21 bf 6b 05 3c 3f
       0.16750279 0.93716943 -0.6309019 0.7344577
000010 db 10 25 3f 65 2c 31 3f 2e 5b 6e be 41 8b 41 be
       0.64478844 0.69208366 -0.2327697 -0.18900777
000020 2e e1 2a 3f b1 d4 f0 3e f3 3f 48 bc b3 78 f6 be
       0.66749847 0.4703727 -0.012222278 -0.4813896
000030 32 47 a3 3e 0c d1 55 3d 13 d7 82 3f 9b 57 b4 3d
       0.31890255 0.052201316 1.0221885 0.08805772
000040 ac 64 fa be 48 01 16 be ff be 63 3d 7d 60 a2 3e
       -0.48904932 -0.14648926 0.05560207 0.3171424
000050 af fe eb 3e 9c f0 fd bd 7e ab 2e be 76 48 ca 3e
       0.46092746 -0.12399408 -0.17057607 0.39508408
000060 98 85 2e 3d d9 19 67 be 77 49 b9 be b0 d3 92 be
       0.042607874 -0.22568454 -0.36188862 -0.2867713
000070 6f 1b 6d 3e 02 82 45 bf 16 16 87 bf 49 74 f2 be
       0.23154996 -0.771515 -1.0553615 -0.47354344
000080 ef be c8 3e 25 9b 73 bf 4f c7 e8 be 4d ef 27 bf
       0.3920817 -0.95158607 -0.4546456 -0.6559952
000090 88 3f bf be 31 c1 f9 bd b8 8e dc 3c 47 11 bf be
       -0.37353158 -0.121950515 0.026923522 -0.3731787
0000a0 96 41 66 3e c0 dc 10 3e 1b 3c 6f be 27 b8 16 be
       0.22485957 0.1414671 -0.23362772 -0.14718686
0000b0 5e be 80 be 72 b8 bb 3d 4e 51 77 bd d4 26 2a 3d
       -0.2514524 0.091660395 -0.060380273 0.041540936
0000c0 55 05 68 3e 65 e6 16 be a4 be 35 be 96 d5 72 be
       0.22658284 -0.14736326 -0.17748505 -0.23714289
0000d0 0f 94 4f 3e f6 6b ef 3c 1c 88 ab bd 51 9f 98 bd
       0.20271324 0.029226284 -0.0837557 -0.07452262
0000e0 6f 4e ba bc 6f a8 72 3e f3 e5 23 3e e1 d3 07 be
       -0.022742478 0.23697065 0.16005687 -0.13264419
0000f0 0c 27 20 bd 62 83 1c be c8 41 62 be 25 01 82 bd
       -0.039099738 -0.15284494 -0.22095406 -0.063478746
000100 e9 f0 56 be d9 81 3c 3e 9c 15 16 bd 4f 49 15 3d
       -0.20990337 0.18408908 -0.036641702 0.036446866
000110 dc 47 4a be 57 7a fa bd 0b 75 72 bd 40 6c 14 be
       -0.19753975 -0.12230366 -0.059193652 -0.14494419
000120 0b 1d a8 bd 52 5f 06 bc 35 e4 55 be f0 ac 78 be
       -0.082086645 -0.008201437 -0.20887835 -0.2428472
000130 ab 01 64 be 80 09 49 be 59 68 62 3e d2 2e cd 3d
       -0.22266261 -0.1963253 0.22110118 0.10018696
000140 ec e7 5c bd b1 06 2a 3e c2 7e 24 3e 31 0a 59 be
       -0.053932115 0.16604115 0.1606398 -0.21195294
000150 2f 88 8f be c0 38 93 3e bb 46 2f 3e 5a 9c 61 be
       -0.28033587 0.28754234 0.17116825 -0.220323
000160 d6 a8 a1 bc 7d 1b c0 bd 21 2b 81 be 9f 1f a2 3e
       -0.019733828 -0.09380243 -0.25228217 0.3166475
000170 4c 1a 92 3e 02 76 69 3c 1c 2b 12 3b e3 4e 48 be
       0.28535688 0.014249327 0.0022303527 -0.19561343
000180 49 a5 b9 3e 8c f2 d2 3c 24 16 87 be bf db bb 3e
       0.36258915 0.025750421 -0.2638408 0.3669109
000190 02 92 ee bd 6a 19 f1 3d d6 58 73 3d 06 71 b0 bc
       -0.116489425 0.117724255 0.059410892 -0.021538269
0001a0 42 8b 36 3e f0 8b d2 be 1c d1 55 bc 7f a0 3f 3e
       0.1782656 -0.4112239 -0.013050344 0.18713568
0001b0 21 fb 0d 3e f8 56 3a bd f1 09 5d 3c 57 ed 50 bd
       0.1386533 -0.045493096 0.01349114 -0.051007595
0001c0 09 f4 29 3e ce ec 78 3e 1a 0e 61 be f2 fd bf 3d
       0.16596998 0.24309084 -0.21978036 0.09374608
0001d0 f9 cd 1a bd fc 4e e0 bd d6 7d a5 bd 5c 51 3f bd
       -0.037794087 -0.10952565 -0.08080642 -0.04670845
0001e0 5f e0 ce bc ed bb b4 bd e4 62 68 be 80 22 29 3e
       -0.025253473 -0.088249065 -0.22693974 0.16517067
0001f0 e1 ec bc be 2a c6 4a be 18 3e bb 3e 1c b4 78 be
       -0.36899474 -0.19802156 0.3657081 -0.24287456
000200 b1 95 1d be 8c a4 be 3d a8 ac b2 bd 19 4b 59 3e
       -0.15389134 0.093087286 -0.08724338 0.21220054
000210 87 d1 5f 3e 08 01 18 bd 1a 1c 95 bd de 5d b8 3c
       0.21857272 -0.03711036 -0.072807506 0.022505697
000220 3f 06 73 3e f9 50 98 3e 86 33 ef 3d 21 c2 d9 3e
       0.23732851 0.29749277 0.11679749 0.4253092
000230 4a 69 af 3e 41 37 2a be b8 77 d5 3e 7e 6b c2 bd
       0.34260017 -0.1662264 0.416929 -0.09493159
000240 df ce b1 3e 21 95 d3 be cb 7c 08 3e cc 87 6e be
       0.34728143 -0.41324714 0.13328855 -0.2329399
000250 73 ce 27 3d 0f af 1d 3e 7d 4c 85 be f3 6e 02 bf
       0.04096837 0.15398811 -0.26034918 -0.50950545
000260 c1 38 d2 be 06 7a c9 be 6a 85 b6 be fb 56 ea 3d
       -0.41058925 -0.3935091 -0.35648662 0.114423715
000270 dd d2 97 be 69 55 89 be 34 af 36 3e 55 e8 9c bc
       -0.29653063 -0.26822975 0.17840272 -0.019153753
000280 ce 07 db 3d ca 68 80 3e 97 14 01 be a8 a0 50 3e
       0.10694848 0.25079948 -0.1260551 0.20373785
000290 8d db 46 be 7b 47 7c 3e bd 1a 58 3e bf fe 13 3e
       -0.1941969 0.24636643 0.2110395 0.14452647
0002a0 1a 9f 70 3e 45 ca 65 3d 1b 85 ec 3c 3c f0 94 3d
       0.23498192 0.056101102 0.028872063 0.072723836
0002b0 e4 39 ef 3d 94 68 11 bd a4 aa 0a be b4 ec 8b be
       0.11680964 -0.035500124 -0.13541657 -0.27329028
0002c0 9b 47 97 3e b0 0a 68 3e 9d 3f 34 be a1 51 cc bc
       0.29546818 0.22660327 -0.17602392 -0.024941267
0002d0 26 76 63 3e ff d4 1f bd 5b 18 79 3e 17 03 43 be
       0.22213039 -0.03902149 0.24325697 -0.19044147
0002e0 fe 81 df 3d 49 d3 61 be 76 1b 74 3e 82 e8 50 be
       0.10913466 -0.22053255 0.238386 -0.20401195
0002f0 24 fb 5c 3e 30 4c 9d 3e 14 57 13 be f7 3d 6f bd
       0.21580178 0.3072219 -0.14388686 -0.058408704
000300 9f 3b d6 bd 6f 35 33 be c5 f2 09 be 41 12 2d be
       -0.104605906 -0.17500852 -0.13471515 -0.16901495
000310 4a 17 d8 bd ff 90 78 be be 1f 0e 3e 10 79 a5 3d
       -0.10551317 -0.24274062 0.13879296 0.080797315
000320 7c cf 9a be 86 1b 65 3e 14 6a 85 bd 07 d9 87 3e
       -0.30236423 0.2237378 -0.065143734 0.26532766
000330 02 16 91 3e 90 a7 2f be d9 ab 3f 3e 27 95 36 be
       0.28337103 -0.17153764 0.18717898 -0.17830335
000340 ee 41 04 be c7 d7 91 3d 42 de d4 bd e2 1a be 3c
       -0.12915775 0.071212344 -0.10393955 0.023206178
000350 fc f3 34 3e 8c ed 3f 3e e0 8a 96 3e ad 41 bc bc
       0.17671198 0.1874296 0.29402828 -0.022980535
000360 3a 7b c4 bc 69 a2 cd 3d ac d6 37 3e bd 7d c9 3e
       -0.02398454 0.10040743 0.17952985 0.39353743
000370 58 e8 ea 3e 96 d8 91 be 08 67 61 3e cb 47 06 bd
       0.4588039 -0.28485554 0.2201196 -0.03278331
000380 aa 49 0d be a7 cb 46 be 55 bb 28 3f bf 89 95 3d
       -0.13797632 -0.19413625 0.65910846 0.073016636
000390 ec 87 6c 3e 7a 03 03 3e 77 82 1b 3d 17 a9 19 3e
       0.23098725 0.12794295 0.037966218 0.15005909
0003a0 e7 cb 08 bf 88 04 04 3e 14 68 34 be 61 65 be 3c
       -0.5343613 0.12892354 -0.17617828 0.0232417
0003b0 18 37 b0 be 0a 92 07 3e 6e bd 60 3e 22 81 f8 be
       -0.34417033 0.13239303 0.21947262 -0.4853602
0003c0 29 4d db 3d 37 cb 19 3f 29 5d e0 3e 26 39 97 3e
       0.107080765 0.60075706 0.43821076 0.29535788
0003d0 db a2 50 3e f0 77 84 3f c2 ed 79 be dd 41 73 be
       0.20374624 1.0349102 -0.24407104 -0.23755594
0003e0 20 4f 2d bd 17 ce 35 be 0f 2c 5a 3e 93 18 3e 3e
       -0.042311788 -0.17754398 0.2130587 0.18564062
0003f0 bc f5 45 3e 88 13 af 3e d6 00 3e 3d 88 78 2f be
       0.19332021 0.3419459 0.046387516 -0.17135823

conv2.bias f4 [40]
000000 2c 3e 3c bd 51 38 6f 3e 66 40 8a be 46 94 bd be
       -0.04595773 0.23361327 -0.27002257 -0.37027186
000010 dd 86 03 3e cb bd 2f be 88 32 03 bf 9c 23 73 bd
       0.12844415 -0.17162244 -0.5124898 -0.05936013
000020 f4 ca 1b be af 65 06 bd e1 46 04 bd ec 0b dc be
       -0.15214139 -0.032811817 -0.032294158 -0.42977846
000030 fa c4 75 3c 6c 26 27 3e 1d a6 d7 bd b5 23 53 bd
       0.015000576 0.1632325 -0.105297305 -0.051547725
000040 aa 57 ca bd 62 9b f6 bd 27 0d 8b bd 84 b7 b5 be
       -0.09880002 -0.12041356 -0.06789618 -0.35491574
000050 2a e7 50 bd 03 24 2d 3e d4 26 97 be 05 7b 9f 3d
       -0.051001705 0.16908269 -0.2952181 0.07787136
000060 63 ab 81 bd 1e 13 b8 bd d8 c5 da bd 42 36 1d 3e
       -0.063315175 -0.08988021 -0.10682267 0.15352729
000070 aa 14 86 be 5c bb 2c bc da fd 06 bc a2 24 f2 bc
       -0.2618764 -0.010542717 -0.008239234 -0.029558484
000080 1b 4f 84 be 33 4a 3a 3b 72 3d 43 3b 96 5e 0a 3c
       -0.25841603 0.0028425574 0.0029791263 0.008445403
000090 ae 83 81 3d 9f dc fd bc 7c 61 81 be 53 4d 84 3b
       0.06323944 -0.03098899 -0.25269687 0.004037538

conv3.fc_neigh.weight f4 [30, 40]
000000 e5 42 8a bc d8 83 cf 3e 47 47 2f 3e a1 5b e4 3e
       -0.0168776 0.40530276 0.17117034 0.44601157
000010 78 22 6f be 5f 32 0b 3f 44 36 f4 3e 1c 9f 42 be
       -0.23352993 0.54373735 0.4769765 -0.19006008
000020 04 bf f7 bd 51 9d 52 bf b4 6d c4 bd 78 28 02 3f
       -0.1209698 -0.82271296 -0.09591237 0.50843
000030 3f a9 c8 3e 79 08 4a 3f 81 6e 26 3f 80 79 16 be
       0.39191625 0.7891918 0.65012366 -0.14694786
000040 9e b3 dc 3e f4 95 e0 3e 64 36 82 be ae fd 66 3e
       0.43105787 0.43864405 -0.25432122 0.22557709
000050 7f 0c 96 be 53 d0 43 be aa f2 b8 bd 52 01 6e 3e
       -0.2930641 -0.19122438 -0.090306595 0.23242691
000060 0e 6d 57 3d 0a 29 7f be 33 69 48 3e 56 f3 e6 bc
       0.052594237 -0.24917999 0.1957138 -0.028192203
000070 79 30 00 be 07 04 d2 3e c6 15 30 3f 76 6a f3 3d
       -0.12518491 0.41018698 0.68783224 0.1188554
000080 97 50 5f be 6e 32 39 be e3 68 17 3e 87 df 53 bc
       -0.21808086 -0.18085644 0.14786105 -0.012931711
000090 bc 9d f6 3e 55 63 63 be b8 4d 2b be c0 eb 39 3f
       0.48167217 -0.22205861 -0.16728866 0.7262535
0000a0 1e 0d 9a 3e a3 34 e3 be 25 5b 14 be b2 b9 19 bf
       0.30088133 -0.44376096 -0.14487894 -0.60048974
0000b0 0f ed 0e bf 1e 6a f7 3c 7f aa ef be fb 49 6e 3e
       -0.5583047 0.030201968 -0.46809766 0.23270409
0000c0 0a a5 18 3d ae 4e 38 bf fc 4c 60 3e 58 48 95 3e
       0.03726677 -0.71995056 0.21904367 0.29156756
0000d0 fb ab f2 bd 63 cb 32 be 04 b0 9e be 36 d2 9e 3e
       -0.11849209 -0.17460398 -0.30993664 0.31019753
0000e0 36 d9 61 3e c5 6f db 3e f9 b5 9d be f6 31 bd be
       0.22055516 0.4285871 -0.30802897 -0.3695218
0000f0 16 58 b6 be e5 22 29 bf 50 ed 0b bf e1 df 6f 3d
       -0.3561408 -0.6606887 -0.54658985 0.058563117
000100 c5 cb 11 bf 88 8a 20 3f a6 72 5e be ae 76 cf 3d
       -0.5695155 0.6271138 -0.21723422 0.10130058
000110 e0 10 08 bf d6 71 a5 3e 28 a8 61 3f f7 26 4f 3f
       -0.5315075 0.32313412 0.8814721 0.8091883
000120 fa 84 1a 3f fc eb fb 3e 2c 50 67 3d 46 db 1b 3f
       0.60359156 0.4920348 0.056472942 0.6088146
000130 59 06 ce 3d c6 ff 66 3e 4f 21 18 be a9 38 4b 3e
       0.100598045 0.22558507 -0.14856456 0.19845833
000140 4d 93 16 bd ce 38 28 be 19 ab 0c 3e f4 5a 15 3f
       -0.03676157 -0.1642792 0.13737144 0.5834191
000150 d0 62 99 be e1 8e c3 3e 6d 65 0c 3e ef 50 c7 bd
       -0.299582 0.38194945 0.13710566 -0.09732234
000160 cf 7c c7 3e 92 60 12 3f 63 c5 40 be 07 58 e2 bd
       0.3896241 0.57178605 -0.18825297 -0.11051946
000170 04 fd 58 be e5 1f 95 be 44 d5 8b bd c3 ec 6d bd
       -0.21190268 -0.29125896 -0.068277866 -0.05808712
000180 f3 4f 4a be 29 8c 1a be 68 78 9b bd c2 d3 6f 3e
       -0.1975706 -0.1509253 -0.07591325 0.23420623
000190 20 7d 6f bc e7 ed 97 be 39 08 7f bc 0d 07 9f bd
       -0.0146172345 -0.29673693 -0.015565925 -0.07765017
0001a0 cb 62 fb be 44 8c 83 3e de ab 1d be b4 7b a9 3d
       -0.4909881 0.25692952 -0.15397593 0.082755476
0001b0 16 a8 41 be 3b 78 36 be 63 54 94 3e e6 0b 4e 3e
       -0.18911776 -0.17819302 0.28970632 0.20121726
0001c0 28 a4 98 3e 19 e0 92 be e9 e8 83 3e ea 77 1d 3f
       0.2981274 -0.28686598 0.25763634 0.615111
0001d0 6d 1f b9 be 75 b2 02 3e e0 69 ba 3e 97 39 b7 be
       -0.36156788 0.12763388 0.364089 -0.35786125
0001e0 9c 4e b3 be e3 56 f1 be 8a 62 1f 3e 00 0c d7 be
       -0.35020912 -0.47136602 0.15564933 -0.42001343
0001f0 db d2 ba be f7 ea a0 be 71 6e c2 be 80 06 80 bd
       -0.36488995 -0.31429264 -0.37974885 -0.0625124
000200 0c ea d2 3c 2b de 52 3e 17 8b 9a 3e 9c c3 ed bd
       0.025746368 0.20592563 0.30184242 -0.11609575
000210 d8 39 c5 be 43 5f 04 be 81 ca 2a be 21 87 5d 3e
       -0.38520694 -0.12926964 -0.16678812 0.21633579
000220 12 86 ae bd 1b 5d 86 be 64 f1 b0 be 44 e9 c1 3c
       -0.08521666 -0.2624291 -0.34559166 0.0236708
000230 d0 08 dd be 48 f8 9a be c7 f4 89 bd 90 af bd 3e
       -0.43170786 -0.3026755 -0.06736141 0.37048006
000240 94 06 c1 bd 43 7e 8f bd d0 b5 4e be 5e 26 dd 3d
       -0.09425083 -0.070065044 -0.20186543 0.107983336
000250 44 aa a1 be cc b2 20 bd 24 22 c6 3e b1 77 c7 be
       -0.31575215 -0.039233014 0.38697922 -0.38958505
000260 9e 38 90 be 03 c9 ed be 14 e0 88 be 18 e2 05 3e
       -0.28168195 -0.46442422 -0.26733458 0.13074529
000270 ed 91 ed be 2a be a5 3e 95 80 91 3e 31 0b 55 3e
       -0.46400395 0.32371646 0.28418413 0.2080505
000280 96 c9 8d 3c 61 7f d1 bb c1 5c f6 3d d8 e0 b2 be
       0.017308038 -0.0063933586 0.1202941 -0.34937167
000290 20 4a 87 3e 96 c1 81 be 2b df 17 be 88 31 bf bd
       0.2642374 -0.25343007 -0.14831226 -0.09335619
0002a0 eb 78 01 be 43 b6 9e 3e 95 8f 90 be ec bd 07 3e
       -0.12643783 0.3099843 -0.28234544 0.13256043
0002b0 43 46 08 be 47 27 a7 3e f6 45 c8 be 33 d0 c1 3d
       -0.13308053 0.32647154 -0.39115876 0.09463539
0002c0 42 d6 52 3e 42 5d c7 be 63 60 99 3d 84 07 5c be
       0.20589545 -0.38938338 0.074890874 -0.21487242
0002d0 1c 03 39 3e 66 46 7e 3e cf b0 af 3e 6e 67 95 be
       0.18067592 0.24831542 0.34314582 -0.29180473
0002e0 c1 8e 90 be cd ee ad 3d 47 fb 7d 3d 64 dc c3 be
       -0.28233913 0.08492813 0.062007215 -0.38254082
0002f0 d6 53 8c be 23 21 9b be a9 9b 10 be 22 d7 a6 bd
       -0.27407712 -0.3029872 -0.1412188 -0.08146502
000300 d4 3f 7d be ea f5 cb 3d 6b 91 73 be 31 c8 68 3e
       -0.2473138 0.09959014 -0.23785941 0.22732617
000310 4a 0b 14 3e 74 12 a4 3e ad 14 ac 3e a9 ef 2d 3e
       0.14457431 0.3204533 0.33609524 0.16985954
000320 51 e4 73 be 1f 0c e7 be 4c e6 de 3e b8 58 bd 3e
       -0.23817565 -0.45126435 0.43535078 0.3698175
000330 53 3c 3b bf a2 cd 56 3e a7 7e 41 3e f0 c1 c3 be
       -0.7313892 0.2097688 0.1889597 -0.382339
000340 16 d0 07 3e 1d bc a8 3e 90 78 97 bd 81 e2 a7 be
       0.13262972 0.3295602 -0.07396042 -0.32789996
000350 4a dd ad 3e 46 75 43 be b1 bc 82 3e d5 67 a5 3e
       0.33957893 -0.19087705 0.25534585 0.3230578
000360 6f c8 c4 3c fb 7e 97 3e 5e 4a b6 3d ae 63 91 3e
       0.024021355 0.29589066 0.08900903 0.28396362
000370 ec b2 fe 3e 78 1f 0c bf 86 4d 1a 3f 5f c5 a4 be
       0.49745882 -0.5473552 0.6027454 -0.32181832
000380 04 de 95 3e 7b d6 da bd a0 34 b4 3e d4 20 2c be
       0.29270947 -0.1068544 0.351964 -0.16809398
000390 8b 79 56 be 32 c0 a6 be 78 2a 53 3f ed 41 7d be
       -0.20944802 -0.32568508 0.8248668 -0.2473218
0003a0 2e 44 c8 be 08 2a 8e be 78 c2 16 be ee 74 47 3f
       -0.39114517 -0.27766442 -0.14722621 0.77912796
0003b0 f0 fb 9d be bb af c4 3e 87 2e f1 3d bb 9f bc be
       -0.30856276 0.38415322 0.117764525 -0.36840615
0003c0 b6 4c 3d 3e 5b c0 64 bd a4 cc 96 3e a2 9f ce 3e
       0.18486294 -0.055847507 0.29453003 0.40356165
0003d0 c7 29 96 3e d4 e6 5c 3c 07 1a b0 3e 8d c7 50 3d
       0.2932875 0.013482768 0.34394857 0.050971556
0003e0 34 cb 9e 3e 9b 35 e1 bb 94 28 4f 3e 5d c6 dd 3e
       0.31014407 -0.0068728453 0.20230323 0.43315402
0003f0 b6 8c 8e 3e a8 6b b5 3e f8 7d b7 3e a8 75 f0 bd
       0.2784173 0.35433698 0.35838294 -0.11741191

conv3.fc_self.weight f4 [30, 40]
000000 16 a9 c2 3d d8 88 60 be d5 0e be be 07 62 25 bf
       0.09504907 -0.21927202 -0.3712069 -0.646027
000010 d3 e3 3b bf 29 d9 ab be eb 7a e0 be 05 c6 8d be
       -0.7339451 -0.33564118 -0.4384378 -0.2769014
000020 30 24 a1 bd a4 32 20 bf ab 69 73 be 75 16 ba bd
       -0.0786823 -0.6257727 -0.23770778 -0.090863146
000030 bd 07 dc be 80 3e 34 3e 19 c4 de bd 6a e7 25 3e
       -0.42974654 0.17601967 -0.108772464 0.16201559
000040 90 0f d0 bd 64 04 c7 3e c7 dd b5 bd aa 20 9e 3d
       -0.10159218 0.38870537 -0.08880191 0.07721074
000050 3c ec 69 bf fb 2f aa 3e 36 4f 31 bf 79 d1 c5 be
       -0.9137609 0.3323973 -0.6926149 -0.38636377
000060 f4 51 01 3f 37 9f b6 be 07 5b c0 be b5 11 8e be
       0.50515676 -0.35668346 -0.37569448 -0.27747884
000070 dc 68 6e be d7 0c b0 bd 9b 4d 8a 3f 84 d3 ce 3e
       -0.23282188 -0.08596199 1.0804933 0.4039575
000080 87 88 18 3e dc c3 52 be 9b 92 74 bd 07 b4 67 3f
       0.14895831 -0.20582527 -0.059710126 0.90509075
000090 77 53 87 3e 88 3d ec 3d 23 73 22 bd 97 9c 93 3e
       0.26430866 0.11535174 -0.039660584 0.28830406
0000a0 d0 35 7e be 46 2b 0b bf 58 89 87 3e d9 0d 24 3e
       -0.24825215 -0.54362905 0.26471972 0.16020907
0000b0 81 5d 70 be 11 fa e7 3e cb fa 11 3c cd c8 45 3e
       -0.23473169 0.45307973 0.008909891 0.1931488
0000c0 8a a8 a8 3e 45 0c 39 bd a8 88 8e 3e e3 2b 27 3e
       0.32941085 -0.045177717 0.27838635 0.16325335
0000d0 49 95 6d 3e 2d 79 d7 bc 73 f3 18 3d cb 13 9d 3e
       0.23201479 -0.026302898 0.037341546 0.30679163
0000e0 d4 c7 bd 3e 7f 8e 1a 3f bb 0a 17 3e 1f f4 8c 3e
       0.3706652 0.6037368 0.14750187 0.2753
0000f0 ce a3 00 be 77 39 18 3d 46 b3 99 3e 6f ea 90 3e
       -0.12562487 0.037164178 0.30019587 0.2830386
000100 0d e5 cf 3e 8e aa 6f 3d 2e ad a6 3e 6d 0a 4a 3e
       0.4060444 0.058512263 0.32554 0.1973054
000110 b9 73 ef 3e 9f 12 d0 3e bf 36 1b 3f f5 04 34 3e
       0.46767977 0.40639207 0.6063041 0.17580016
000120 03 c4 1b 3d eb d1 d2 be b4 54 a1 be 9a e4 cd 3e
       0.03802873 -0.4117578 -0.31509936 0.40213472
000130 32 8d 5d 3e f1 a7 c2 be b0 bf e8 bd 27 0c c9 3e
       0.21635893 -0.38018754 -0.113646865 0.39267084
000140 38 3f 9a 3d c3 97 62 bd 4c 8f bb bd 99 54 b8 3b
       0.07531589 -0.055320513 -0.09158191 0.005625319
000150 a1 1e a2 be 07 47 38 be fd 54 c8 3e 38 f7 4f 3e
       -0.31663993 -0.17995845 0.3912734 0.2030915
000160 15 40 36 bd 7d d4 68 bd b8 d9 cf 3e b0 21 28 3e
       -0.044494707 -0.05684327 0.40595794 0.16419101
000170 73 26 44 be 7e 73 99 be c5 6d b5 3e 74 a9 cb 3e
       -0.19155292 -0.29970926 0.3543531 0.3977772
000180 b6 30 39 be 07 70 4c 3e d0 1b c9 be 37 0f 9f 3e
       -0.18084988 0.1996461 -0.39279032 0.31066296
000190 04 23 f9 3e 55 fb c1 3e 84 0b f6 3e 19 51 2a 3e
       0.48659527 0.37887064 0.4805566 0.16632499
0001a0 aa 0d 9a 3e 39 1c 9a 3d b9 4d 5d 3e 61 cb 4e be
       0.3008855 0.07524914 0.2161168 -0.2019477
0001b0 af 9f 36 bd fb 0e a6 be 12 84 3e 3f d7 61 f9 bc
       -0.04458588 -0.32433304 0.74420273 -0.030442161
0001c0 d1 e5 e9 bd f5 2f 64 be 12 bb bb be 46 8a 5c 3f
       -0.11420787 -0.22283919 -0.3666616 0.8614849
0001d0 8e 11 a3 be 4d 5c f8 bd 72 5d 73 3d dc 11 e4 be
       -0.3184933 -0.1212698 0.05941529 -0.44544876
0001e0 6a 1a 07 3d fe 37 96 bd d1 2f 9f bd 79 73 28 3d
       0.032984175 -0.073348984 -0.07772792 0.04112575
0001f0 5f e4 19 3e 76 5b 9a be 9b 4e 25 be 61 45 cf bd
       0.15028523 -0.30147904 -0.16143267 -0.10120655
000200 01 87 a4 3e f9 15 98 3e 49 68 38 3e f4 2e 85 3e
       0.3213425 0.29704264 0.18008532 0.26012385
000210 0a 47 9d 3e bd 10 33 3e d6 2b ca be bd 3b bb be
       0.3071826 0.17486854 -0.3948657 -0.36569014
000220 8d 49 34 3e 6b 2a b1 be 14 96 af bc 60 71 a7 3d
       0.17606182 -0.34602675 -0.021433868 0.081759214
000230 2b 4b 44 3e 21 5c 81 be 95 2e a1 be 90 97 bd be
       0.191693 -0.252656 -0.31480852 -0.37029696
000240 9f c9 72 3e 7b eb 5b 3c 7f 38 7e 3e c1 a7 45 be
       0.23709725 0.013422842 0.24826239 -0.19302274
000250 d5 6a ef be 5a 22 78 bd 2a cf a8 be f5 cb 63 3e
       -0.46761194 -0.060579635 -0.32970554 0.22245772
000260 25 0a 86 be 00 35 8e 3b c3 d8 af 3d 07 64 a3 bc
       -0.26179615 0.004339814 0.08586266 -0.019945158
000270 66 a6 f1 bd 35 2e 61 3e eb e5 f7 bd 7d a1 a3 be
       -0.11799316 0.21990283 -0.121044 -0.31959143
000280 8c 8a 8a be 27 c1 80 be 80 ad ab 3e 89 42 a3 3d
       -0.27058828 -0.25147364 0.33530807 0.07971675
000290 4f 39 14 3d d6 16 a9 be 04 8b 15 3e e7 0f 73 3c
       0.036187466 -0.33025235 0.14603812 0.014835334
0002a0 56 36 87 3e 1a a1 a3 be 8c 30 b2 be 6e af 18 be
       0.26408643 -0.31958848 -0.34802663 -0.14910671
0002b0 ec 30 06 be af b8 b2 3d dc 81 5f 3e 83 81 42 be
       -0.131046 0.08726632 0.21826881 -0.18994717
0002c0 82 a1 4d 3e 09 0e 8d 3e d2 3c 7b 3d 20 ca 0b be
       0.20081142 0.2754977 0.0613373 -0.13651323
0002d0 58 3f 7e 3e cf 0b 86 be f4 96 dc 3d a1 59 56 be
       0.24828851 -0.26180884 0.107709795 -0.20932628
0002e0 66 28 a8 3e a2 77 8e be 20 8c 0a be 9a f5 ca be
       0.32843322 -0.27825648 -0.13530016 -0.39640504
0002f0 6e 0d 69 be 1c ea c7 3c fa cc 1d be 4e 98 34 3d
       -0.2275903 0.024403624 -0.15410224 0.04409056
000300 c1 64 8a bd 54 fe 5c 3e dd 50 b4 3e d9 7f 98 bd
       -0.067574985 0.21581393 0.35217944 -0.0744626
000310 b6 fe dd be 7e f2 03 3e d2 e8 a2 be 31 f8 6b 3e
       -0.43358392 0.12885472 -0.31818253 0.23043896
000320 1c 06 1b bd 4f 19 00 3e 42 67 ce 3e 20 74 ab 3e
       -0.037847623 0.12509654 0.40313154 0.33487034
000330 df 81 1f bf 05 4b b5 3d 4d 2a bb 3e 4c 26 c2 3e
       -0.6230754 0.088521995 0.3655571 0.37919843
000340 52 06 28 3e aa ec a3 3e ab f5 83 bd 6d 17 69 bd
       0.16408661 0.32016498 -0.06443342 -0.056907106
000350 81 5c 81 3e e7 a1 18 be b5 77 f8 3e 2b dd 9f 3d
       0.25265887 -0.14905511 0.4852883 0.07805856
000360 fd c3 cc bd 45 16 8c 3e 72 de b5 3d 30 e7 87 be
       -0.09998319 0.2736074 0.08880319 -0.2654357
000370 4f 3e 98 3d 55 90 67 bf 4a c3 d3 bd 42 e7 45 be
       0.074337594 -0.9045461 -0.10339983 -0.19326499
000380 44 46 43 bd 5c 9d e7 3d 62 06 98 3e a0 3d 53 3e
       -0.047674432 0.11309311 0.2969237 0.20628977
000390 a0 e5 17 3c 6a 80 90 be 65 8f 3f 3f 70 b5 97 3e
       0.009271055 -0.28222972 0.7482818 0.29630613
0003a0 43 d5 89 3e 2f df c4 3d 63 85 b5 3c d5 73 ea 3d
       0.26920518 0.096128814 0.02215833 0.114478745
0003b0 f4 54 94 be 4b b0 fc bd de ec bc 3e 7c d0 e3 be
       -0.28971064 -0.12338313 0.36899465 -0.44494998
0003c0 74 d0 44 be 1f 1c 0b bf d4 8e f2 be 4d cb 2f 3e
       -0.19220144 -0.54339784 -0.47374594 0.17167397
0003d0 cc 3e 87 3e 6e b6 e2 3e bc 93 e3 3d c2 14 3f be
       0.26415098 0.44279808 0.111121625 -0.18660262
0003e0 4d d3 98 3e 65 78 66 3e d5 d1 ef bb db 32 c8 3e
       0.2984871 0.22506864 -0.007318715 0.391013
0003f0 3d 78 8b bd 8a d6 93 be 7f c6 b3 3d 08 ed b6 3e
       -0.06810043 -0.28874618 0.087780945 0.35727715

conv3.fc_self.bias f4 [30]
000000 98 ad 61 3e e9 39 60 be c9 25 38 bd 0f 40 f0 bd
       0.22038877 -0.21897091 -0.04495791 -0.11730968
000010 3f 82 40 bd 1f 9c e8 bb 08 52 30 3d 3e f4 00 3e
       -0.046999212 -0.007098689 0.04304698 0.12593171
000020 2b af 3e be 4d 22 1a be 7d 71 d3 3d 9f ac e2 be
       -0.18621509 -0.15052147 0.103243805 -0.44272324
000030 5c 17 fe 3d 2d d8 91 3e 66 bc aa 3c 9f e7 32 be
       0.12406799 0.28485242 0.020841789 -0.17471169
000040 a5 ea 87 3e 51 f6 a2 be 3b ba cc bd fb ba e1 bd
       0.26546207 -0.3182855 -0.09996458 -0.11021992
000050 d8 c3 5f be ae dd 29 3e c0 89 11 be 77 02 42 bc
       -0.21852052 0.1658847 -0.14212704 -0.011841408
000060 31 1d bc 3d 34 05 f3 bd a4 bb 0f be 82 94 e1 3e
       0.09185255 -0.11866227 -0.14036423 0.44058615
000070 b4 66 2c 3e c6 d8 ce bd
       0.16836053 -0.1009994

conv4.fc_neigh.weight f4 [20, 30]
000000 4e e9 9a be 7c b9 a9 be e3 59 99 3e f8 27 79 3e
       -0.30256122 -0.33149326 0.2995139 0.24331653
000010 c9 21 af be 99 e2 65 3e b6 5e cf 3e 8b 41 49 be
       -0.34205464 0.22449721 0.40501946 -0.19653909
000020 5a 38 5c 3e 8d 62 dc bc 22 1b b7 be fa 97 23 bf
       0.21505871 -0.026902461 -0.35762888 -0.6390377
000030 3a c8 12 3e e7 0c d5 be 78 9d d2 3e 73 0b fc 3e
       0.14334193 -0.41611406 0.41135764 0.49227485
000040 0b b6 cd 3e d2 03 ec 3e 98 99 bd 3e de f9 74 3d
       0.4017795 0.46096665 0.37031245 0.059808604
000050 cd b9 42 bd ad 1a de 3e 7c e2 dc 3e 32 33 95 3e
       -0.047540475 0.43379727 0.43141544 0.2914062
000060 32 77 c3 bc bb 8e 43 3e b6 09 a7 3e ec 58 8e bd
       -0.023860548 0.19097416 0.32624596 -0.06950554
000070 81 1e 38 3e 92 13 2b 3e a5 9f 5e 3e 32 5c 77 3e
       0.17980386 0.16706684 0.21740587 0.24156263
000080 fb fd 93 3e 2d 1a bd be 86 15 ef be dd 4d f0 be
       0.2890471 -0.36934033 -0.4669611 -0.46934405
000090 d4 a5 cf be be 48 ae 3d 8b 42 5a 3e ee 3e dc 3e
       -0.40556204 0.08509968 0.21314447 0.43016762
0000a0 25 44 0b bf 27 17 4e 3f 7c 19 f5 be 9f e0 5f be
       -0.54400855 0.8050408 -0.47871006 -0.2186303
0000b0 6e c9 67 3f 18 8b a2 3a 2a a4 36 3e 62 e8 5a 3b
       0.9054173 0.0012401072 0.17836061 0.003340267
0000c0 75 03 43 bf fd ed 68 be 83 ad 1f be 54 d6 f8 be
       -0.7617715 -0.22747035 -0.15593533 -0.4860102
0000d0 65 26 bc be f0 ae b4 3d c7 9a 0f bf 84 35 16 bf
       -0.36748043 0.08822429 -0.56095546 -0.5867541
0000e0 ae 2a ff be 81 c7 9d 3c 26 d4 52 bf 51 f0 a6 be
       -0.4983725 0.01926017 -0.8235496 -0.32605222
0000f0 b3 69 00 bf 7a 77 5a 3d 1a a1 b1 3e 14 35 a3 3e
       -0.50161284 0.053336598 0.34693223 0.31876433
000100 03 c7 44 3e 30 ef 21 bd 63 f7 93 be 85 f2 e8 be
       0.19216542 -0.039534748 -0.2889968 -0.45497528
000110 69 10 54 be 6e 1f 78 3d b9 ce 6d 3e bc 6f 0d bf
       -0.20709385 0.06057685 0.2322339 -0.5524862
000120 77 7e 29 3e 3c 84 83 bc a5 87 24 3d 98 31 b1 be
       0.16552149 -0.016054265 0.040168423 -0.3460815
000130 ee 42 af bd 92 08 79 3e e4 0c e6 be 95 4b 48 3e
       -0.08557688 0.24319676 -0.4493171 0.19560082
000140 4e a3 7a 3e b8 12 1f 3e 6d e4 26 3d 5c e6 d0 3e
       0.24476358 0.15534484 0.040745188 0.4080075
000150 b1 ea a2 3c 49 d5 d2 be 1c 56 b4 be 19 4a f8 3d
       0.0198873 -0.4117835 -0.35221946 0.12123508
000160 a7 aa e4 3d 72 2a 90 3e 0a 77 75 3e 77 f1 f4 be
       0.11165362 0.28157383 0.23971191 -0.47840473
000170 6b e8 8f be c8 4f 9f be c7 29 95 3d a1 95 a3 3e
       -0.28107008 -0.31115556 0.07283359 0.31950095
000180 fc b0 09 3f 2f fc 53 3e d4 0b f4 3e 45 ad 9e be
       0.5378568 0.20701669 0.47665274 -0.3099157
000190 1c b0 f6 be 67 d3 bf be a4 b4 14 bf 6c 4c 07 bf
       -0.48181236 -0.37465975 -0.58088136 -0.52850986
0001a0 e0 52 2e bf 0b 95 28 bf 60 d1 b9 be 58 68 ac 3e
       -0.6809521 -0.6585242 -0.36292553 0.33673358
0001b0 6b 11 63 be 75 24 79 3e 08 ca ce be 10 f8 44 3d
       -0.22174613 0.24330314 -0.40388513 0.048088133
0001c0 a9 72 a7 bd 2c db 3b be a2 1f e0 3e 7f 4b 10 be
       -0.081761666 -0.18345326 0.43774134 -0.140913
0001d0 93 72 8c 3e f3 84 3f 3e 9a af 89 bf 55 7c 65 3e
       0.27431163 0.1870306 -1.0756714 0.2241071
0001e0 a5 6c 18 3e 2a af a7 be 6f 6c 98 be e2 b0 41 be
       0.14885195 -0.32750827 -0.29770228 -0.18915132
0001f0 08 a4 af 3e 82 81 95 bc 8d 76 b5 be 05 84 43 3e
       0.34304833 -0.01825023 -0.3544201 0.1909333
000200 13 69 07 bf e3 80 85 3e 81 42 d8 3e ac 26 9c 3d
       -0.52894706 0.26074895 0.42238238 0.076245636
000210 3a a5 c6 be cb dc ac bd 96 64 4a be c4 89 4c bf
       -0.38797933 -0.084405504 -0.19764933 -0.79897714
000220 6c 87 47 3d 68 1c 3c 3f 6e bc 3f 3e 0a cf c0 bd
       0.048713133 0.73480844 0.18724224 -0.094144896
000230 02 6c a0 be 64 d3 29 3f 15 c7 26 bd b2 bc d7 3d
       -0.31332403 0.6633818 -0.040717203 0.10534038
000240 84 06 83 3e 0b 25 70 3d bf cf 0e bf 4a 79 eb 3e
       0.2559091 0.058629077 -0.55785745 0.45990974
000250 60 79 91 3e f6 e6 ab be 6b d6 ee 3d af bb 09 3f
       0.28412914 -0.33574647 0.11661991 0.5380201
000260 98 02 74 be 58 cb d3 3e a8 32 dc bd a6 a9 a9 3a
       -0.23829114 0.41366076 -0.107518494 0.0012944236
000270 b2 37 e7 bd 44 d4 de 3e 5b c9 de bd 48 24 17 bd
       -0.1128992 0.4352132 -0.10878249 -0.036899835
000280 57 18 1b 3f f9 b8 61 3e ce ce b1 be 36 aa 2e 3f
       0.60584015 0.22043218 -0.34728092 0.6822847
000290 82 7f 2e 3f b5 2b df be 9a fc f0 be 1a 91 c6 bf
       0.6816331 -0.43588033 -0.4706772 -1.5513031
0002a0 61 93 3f 3e ee b9 7f 3d bf d3 9b 3e d2 87 83 be
       0.18708564 0.062433176 0.30434987 -0.2568956
0002b0 64 d7 df 3d ae c8 07 3e e2 aa ad be f6 b1 f7 be
       0.109297544 0.13260147 -0.33919436 -0.4837796
0002c0 4f f4 00 bf 35 58 02 3f 2d c7 0e bf 70 9c 93 3d
       -0.50372785 0.50915843 -0.5577267 0.072075725
0002d0 05 bd c1 3e 47 f3 04 bf 21 45 b8 3d b7 96 6e be
       0.37839523 -0.5193371 0.0899756 -0.2329968
0002e0 b1 ff de 3e 25 5f 30 be a2 e6 ff 3d 59 0e 90 be
       0.43554452 -0.17223795 0.124951616 -0.28135946
0002f0 c3 84 34 be f3 85 b5 3e ce 89 dd 3e aa 55 cb be
       -0.1762877 0.35453758 0.432692 -0.39713794
000300 78 09 b4 3e bf 12 a3 be 38 e1 d9 bf a3 2c d4 bf
       0.35163474 -0.3185024 -1.7021856 -1.6576122
000310 e0 15 a0 3e 43 10 61 3e a0 5d 03 bf 1f 1a 41 3e
       0.3126669 0.2197886 -0.51314735 0.1885762
000320 11 0f 47 3e 0d 18 38 bf 1c 25 98 be 8c ee 26 be
       0.19439341 -0.719117 -0.29715812 -0.16301936
000330 12 69 26 bf 26 ba 59 be 03 ec 2b be b9 00 b8 bf
       -0.65004075 -0.21262416 -0.1678925 -1.437522
000340 79 a9 16 3f f6 58 fa 3c 1f 9c f2 be c1 87 92 be
       0.58852345 0.030559998 -0.47384736 -0.28619197
000350 23 b6 05 be 3a eb cc be c8 a3 af 3e 7e 53 dd 3d
       -0.13057761 -0.40023214 0.34304643 0.108069405
000360 b3 01 e9 be c9 f7 30 3e 77 d6 4d 3e 58 76 71 3d
       -0.4550911 0.17282023 0.20101343 0.058950752
000370 10 4b 7d be 22 5a c8 be e3 e5 15 3e 4d 9b b4 3e
       -0.24735665 -0.39131266 0.14638476 0.35274735
000380 e4 36 94 3e ce 8a a1 3e 65 90 95 3e 84 58 9d 3e
       0.28948128 0.31551212 0.29211727 0.30731595
000390 94 35 0a be d0 27 f7 be 2e b4 80 be 41 96 31 3e
       -0.13497001 -0.48272562 -0.25137466 0.17342474
0003a0 8f 01 d3 3e 60 8c e5 be 84 80 fa 3d 33 8a ed bc
       0.41212127 -0.4483366 0.12231544 -0.028996563
0003b0 d0 b2 ae 3e b9 e0 48 3e 90 c5 f6 3c 93 ae c0 be
       0.34120798 0.19616975 0.030123502 -0.3763319
0003c0 9d 09 02 bf 3d 21 8b be 56 3c eb 3c d6 fc 31 be
       -0.5079592 -0.27173796 0.028715294 -0.17381606
0003d0 1b cd c1 be df fc 86 be 11 b7 0e 3d da 66 3a 3d
       -0.37851796 -0.263648 0.034842554 0.045508243
0003e0 82 99 20 bf 86 bf a8 3d d1 de 80 3e 1a f6 13 be
       -0.62734234 0.08239655 0.25169995 -0.14449349
0003f0 78 f3 76 bc ac 6e 2f be 94 32 80 be 08 ba 00 c0
       -0.015072696 -0.17132062 -0.25038588 -2.0113544
