VVG/Experiment_5 - Intra_patient/Images7/model7_stats.pth (torch, 39630 bytes, 18 tensors)

conv1.fc_neigh.weight f4 [50, 22]
00000000: cff7 d03e 827c e63e e40b 6b3d 8aac a63c
00000010: 263b 943d ae4b 823e 5535 69bd aa3b b6bd
00000020: 8e4f 4ebe 0a23 a4be c387 e63e 26b5 14bd
00000030: 86aa 8f3e f0dd a53e d10a 683e 6a68 e23e
00000040: 5cb2 9d3d 8e85 3e3d 4430 04be 6694 853e
00000050: 5dad e2be 7196 2f3d 88f0 093f c7ae e8bd
00000060: 0e3b 343e 3f9e 193e f679 d3be bfaa 983e
00000070: 14c4 cdbb 0c6d 94be 6cbe cdbd 25ad a3be
00000080: 077b 693e 3629 8bbe 146b f5bd 6ec9 cfbe
00000090: 11ad a33e f799 87be 9f27 87bb 4480 1c3e
000000a0: fb69 763e ed08 893e 39b8 d4be e09b 8d3c
000000b0: 6c83 b3bd 3fd4 0abf 2eef 9e3d 338b 483e
000000c0: 3d81 cb3d 5882 ab3e 522f 433e 1854 97bd
000000d0: 707d 95bd 08c9 cd3e bc85 bb3e 18ee 9c3d
000000e0: 2f81 433e c14f f83e dec1 81bf f191 233e
000000f0: 8eeb 8bbe a349 a03e 1808 ffbe da60 c53e
00000100: db9f 9f3e 17a4 81bd d8e0 6d3e 8a3d 183e
00000110: 4b56 bd3e 44b0 35be ecbc 99be 1933 6cbe
00000120: 80cd 9cbe 1db9 92bd 5eaf 25ba 21f6 cdbe
00000130: fd58 a3be 05c0 433e 38ed b6be a6cc f1bd
00000140: ed95 933e ef2a aabe d10f 96be d612 033e
00000150: c13b a33e 3dfc 87be a970 2a3d 91ba aebe
00000160: 6697 fdbd c490 6e3e 30b2 19be 1e8e 5dbd
00000170: 387c 5b3e 685c d53e d002 f2be 65f3 aebd
00000180: 1cd6 a53b 03d6 343d 8d86 b83e e5ce 7fbe
00000190: 878c 7e3e 5580 7e3e 4c61 a63e 5e9d 8f3d
000001a0: 5354 e23d b0b3 853d 794e fa3e 2de2 be3e
000001b0: b006 a0be a100 ba3e a90e f9be 76cf c1be
000001c0: 76d8 ad3e 9880 9b3e a37d 8a3e 55da 693e
000001d0: 2afa e0bd d92a 713d cd7f 7e3e cb87 bebe
000001e0: 04e7 66bf c330 af3e 19e8 9a3e 8a62 04be
000001f0: d09b 51be 5162 933e 0065 11be cb76 a6be
00000200: 3cc9 8a3d 1892 a6bc 2ccf 173e 2448 8a3e
00000210: 537f 91bc 7cc0 42bf f497 5dbe 3edc 48bd
00000220: cc69 23be 81bd 1dbf 9c31 fb3e 77de 74bd
00000230: 252b 653f 7dac cd3e d622 a33e 2df9 f93f
00000240: cf7d 9cbe 32f9 ab3e eb49 8abf 85c1 e9be
00000250: a315 52be ab0b 17bf 75ab 88bf 1568 b2be
00000260: eb7e 83bb 1e5f 8f3e b07c 85be 83e0 8b3d
00000270: 7d16 b1be 82f5 b93e f86c 453d 455b cbbd
00000280: d298 e63e b9ea a2bd c45a 42be 30db f7bd
00000290: bed2 f8bc ebd3 39be 3e55 4bbe 740b f93d
000002a0: 1052 913e 5791 e73d 78c6 6eb8 e182 ad3e
000002b0: b66d 71be 55c5 c03e d00c e73d ef53 a33e
000002c0: 66ac e83d 2de1 88bc 58bd 47be 318c 2fbe
000002d0: cfcb afbe 8103 82be 2027 4e3d fe74 08bb
000002e0: 64cc b23b 1578 bdbe 0cd1 c9bb 9c9d c83e
000002f0: fee6 b7be 7244 323b 3aa2 2e3e a076 073e
00000300: f5c6 873e e8d8 33be b6f0 77bd 10eb 96be
00000310: 46bb b83e cd6c 93be eeb3 43be 96d7 a5be
00000320: 2df6 41bf 9c02 343e d51f e6be 55ec 343e
00000330: a8fe 5fbf 31f5 67bf 75b1 91be b233 2fbf
00000340: e259 c0be b335 84be 2a15 5c3d 9d73 9bbd
00000350: 562e 94be 314e c1be 83ef a4be b4e5 8c3e
00000360: 2380 bcbe 0096 df3d 4878 84bf b7bb 183e
00000370: 2e66 c03e 7d80 ad3d c347 02bf 93c4 083e
00000380: 4573 89be f6d3 0f3f bd1c 373e ccc8 f0be
00000390: 0a7f ebbd 1ccc b4be 295b 98be b4df 14bf
000003a0: d80a 90be 5ee0 76bd 0344 0a3f 59ce 36bd
000003b0: 3e27 4cbe 81c9 82be 4507 423d 8260 c5be
000003c0: 00c0 02bf 8017 37bc 4298 a03d 250e a9be
000003d0: 03bc ae3e 5021 8a3e d7c6 b7be b522 d1be
000003e0: b2bd 79be 1c9c fdbc c073 9b3e f507 0cbe
000003f0: dcbf 67be c3ce 03be b9b1 a03d 3186 85be
0.40814063 0.45016867 0.057384387 0.020345945 0.07237844 0.25448364 -0.056935627 -0.08898099
-0.20147535 -0.32057983 0.45025453 -0.03630557 0.28059787 0.32395887 0.22660376 0.44220287
0.07700035 0.046514086 -0.12909037 0.26089782 -0.4427289 0.04286808 0.53882647 -0.11361461
0.17600653 0.15001772 -0.41303986 0.2981777 -0.006279478 -0.28989446 -0.10046086 -0.31968036
0.22800837 -0.2717988 -0.11983314 -0.40583366 0.31967977 -0.26484653 -0.0041245962 0.15283304
0.24063866 0.26764622 -0.415468 0.017286241 -0.08765301 -0.5423011 0.07760464 0.1958435
0.099367596 0.33497882 0.1906102 -0.073890865 -0.07299316 0.40192437 0.3662547 0.076626
0.19092248 0.48498347 -1.0137289 0.15973641 -0.2732815 0.3130618 -0.49810863 0.38550454
0.31176648 -0.06330126 0.23230302 0.14867225 0.369799 -0.17743021 -0.30026948 -0.23066367
-0.30625534 -0.07164214 -0.0006320382 -0.40226844 -0.3190383 0.19116218 -0.3572786 -0.11806612
0.28825322 -0.3323588 -0.29308942 0.12800154 0.31881526 -0.2655963 0.041611347 -0.34126714
-0.123823926 0.23297411 -0.1500938 -0.05409061 0.21434104 0.41672063 -0.4726777 -0.085425176
0.005060924 0.04414941 0.36040154 -0.24981268 0.24858294 0.24853642 0.32496107 0.07012437
0.1105124 0.06528413 0.48887995 0.37281933 -0.31255102 0.36328605 -0.48643997 -0.37853593
0.3395421 0.30371547 0.27048978 0.22837193 -0.10985215 0.058878753 0.2485344 -0.37212977
-0.9019625 0.3421689 0.302552 -0.12928215 -0.20469594 0.28785947 -0.14198685 -0.32512507
0.06776664 -0.020333335 0.14825124 0.27008164 -0.017760908 -0.7607496 -0.21639997 -0.049038164
-0.15958327 -0.61617285 0.49061286 -0.05978247 0.8951896 0.4017066 0.31862515 1.9529167
-0.30564734 0.33588558 -1.0803808 -0.45655456 -0.20516066 -0.5900218 -1.0677325 -0.34845033
-0.0040129325 0.28002256 -0.26071692 0.068299316 -0.3458747 0.3632012 0.048199624 -0.09929518
0.45038468 -0.07954926 -0.18979937 -0.121023536 -0.030373927 -0.18147247 -0.19856736 0.12160388
0.2838292 0.11307018 -5.692846e-05 0.33888915 -0.23577008 0.37650552 0.11281741 0.31899974
0.113610074 -0.016708935 -0.19505823 -0.17143323 -0.3433518 -0.25393298 0.05033028 -0.0020821686
0.005456494 -0.37005678 -0.0061589535 0.39182746 -0.3591842 0.002720144 0.17054072 0.13228846
0.2651898 -0.17563212 -0.060532294 -0.29476213 0.36080378 -0.28793946 -0.19111606 -0.32391042
-0.7576626 0.1757912 -0.4494616 0.17668279 -0.8749795 -0.9060851 -0.284557 -0.68438256
-0.37568575 -0.2582222 0.05373112 -0.07590411 -0.28941602 -0.37754968 -0.32213983 0.27519
-0.3681651 0.10917282 -1.0349207 0.14915358 0.37577957 0.08471773 -0.5089075 0.13356237
-0.26845756 0.561828 0.17882057 -0.47028196 -0.1149884 -0.35311973 -0.2975705 -0.58153844
-0.28133273 -0.060272567 0.5401003 -0.044630382 -0.19936845 -0.2554436 0.047370214 -0.38550192
-0.5107422 -0.011175036 0.07841541 -0.33018604 0.34127817 0.2697854 -0.3589389 -0.40846792
-0.2438877 -0.030958228 0.30361748 -0.1367491 -0.22631782 -0.12871842 0.07846398 -0.26078942

conv1.fc_self.weight f4 [50, 22]
00000000: a2ef 9c3e 6c39 303d 0c0c 09bf 95e4 adbe
00000010: 2b0f e7bd 6d84 c43e 79c4 f3bd a648 0e3d
00000020: d222 e23d a4d7 b9be a430 8fbe 69c0 21bf
00000030: 1991 b53e bab1 4a3e f976 1abd 95ad 84bd
00000040: 8da5 86be de50 82bd acbe 26bd cfee aabd
00000050: c984 2abf 92b5 4ebe a77c 11bf 7f62 eabd
00000060: c92d 263e 411f 88be 2b73 9d3e 10cb 9f3e
00000070: f848 e33d d01e c23e b812 85bd 62b5 9e3e
00000080: 83fd 853e 8942 4d3a 05cf 72bd 47a9 88be
00000090: 8192 a23e de6b cf3d 369f a43e 6fa4 dabd
000000a0: ad0b d33e 9b0a b53e 789e 48bf 48c1 a0bd
000000b0: f1d0 13be e9ed e6be 0a41 dfbe 92b5 b0be
000000c0: 516e ce3e 44b5 af3e d0d0 1ebe d016 1bbf
000000d0: e292 25bf e05e 363e 068b 4ebe 82c5 9cbe
000000e0: 3f5f cabe 997c 48be f1cb 9abf 7c49 c8be
000000f0: c292 01be a388 39bd 6574 37bf 8d56 61bd
00000100: b371 bb3e c75a 48bf ccd3 ccbd 844b 433d
00000110: 9305 4dbe 36cf ad3d f3cb 8cbe b0d0 383e
00000120: 9403 d9bd ad07 53be f484 c3bd 57b2 843c
00000130: ac73 873e aaad e2bd 6b70 cfbe 9b99 68be
00000140: 8129 3a3e aae0 c0be f71f 0fbe ab89 1b3e
00000150: e474 c0be c101 8d3e 7b36 c23e 3520 78be
00000160: 3397 5a3e c2c4 77bf 62b4 fcbe 0dcc a33d
00000170: 1ff5 78be 9345 d4bf 77e2 783d 61d6 2d3e
00000180: 4463 323e 43e3 c4be d640 04bf 5558 12bf
00000190: 7626 34bf 4890 4cbf de3d 8f3f 94e4 87be
000001a0: cb95 52bf ce53 d8be 31c9 653d 422f 41bf
000001b0: c996 3cbf 28f2 943e b67e a0bc 10c1 a33e
000001c0: c667 ac3e bd4d b5be e2cc 363e 3a79 c5bd
000001d0: 582a 6fbf 75bd ff3e f21a 303e f5da 833e
000001e0: 69e6 5cbf 48e2 643f e4d1 9dbe 797b 193e
000001f0: c89f 03be b0f1 ed3d 3a5a c03e 4c82 fb3c
00000200: 658c 1ebf 50b2 1cbe ce89 b33d 0220 623e
00000210: 69c1 383d 7c77 9bbf a18d 62be f913 c53d
00000220: 626f 443e 9b40 e7bf ebbe 1bbf bbd0 afbe
00000230: 416c 333e ccac d73e 88da 4abc 2de1 4940
00000240: 4dfd bcbf a33f 06bf 594f e5bf dd29 3dbf
00000250: 402d 46bf d113 7dbf 640a 9dbf ee8a 78bf
00000260: 2da9 9fbe f2a1 19be 5feb 3cbc 9d7a 4bbf
00000270: 4818 e6bf 8bad 3dbf 524c 5ebf 234b 693e
00000280: c83c d33e 91fe d1bf 2aa9 8bbf 0897 cabd
00000290: c527 87be 9f3b e0be 1553 5ebf 46cd 89bf
000002a0: e7e5 85bf 06df a5bf 3757 96bf efb2 46bf
000002b0: e3fe c7bf 254c 97bf 525f a63c 7669 42bf
000002c0: 8d48 b3be 14cf cd3e 3b52 97be afab babd
000002d0: cb38 9dbc dfb4 79be 230a a2bd 5051 b93e
000002e0: 08f2 28be 4ca3 453e 5d95 a63e aebe b1be
000002f0: 449e 27be c548 9c3d b0cc 9a3d 6879 cebe
00000300: a25a e33d b2ed e6bd 45f4 cebd 03ee cebe
00000310: 74e9 bebe d90c f13d 3610 1ebe c0bf 55be
00000320: 76e3 43bf 2b23 a13e 70a6 f2be f7d1 c23d
00000330: 737a b1bc 7721 3bbf 7dc0 d0be e592 57bd
00000340: be33 02bf ae86 45bf 4252 4bbd 8790 1bbe
00000350: 4b98 9cbd fc26 dbbe bba0 3abe c18e 833e
00000360: 856d 9a3e b7a9 fe3e 8def 21bf bc37 2d3e
00000370: 28f3 8c3e d320 a03d 711b e6bd ac04 0dbe
00000380: 21c7 42be fc5b 69be 80dd 0f3f ade7 193f
00000390: 619f 5e3e 5311 ee3d d75f e33d fb41 613e
000003a0: 566a 04be 08d8 373e 40f1 7b3f a1aa 1c3d
000003b0: e456 483e 8131 57be 212a 743e f68d 61be
000003c0: 37d2 50bd 1ec5 763e a715 84be eaf0 893e
000003d0: 544a 92be 0215 99be a273 b53e 8d06 91be
000003e0: 88eb 85bc c8ce 913e 89a0 84bc e1fb 873e
000003f0: 45f3 37be 207d f6bd 39e4 583e 2e21 b93e
0.30651575 0.04302351 -0.5353401 -0.33963457 -0.1128219 0.38382283 -0.119027086 0.03473725
0.11041798 -0.36297333 -0.27966797 -0.6318422 0.35462263 0.1979436 -0.037711117 -0.06478421
-0.2629818 -0.063630804 -0.040709183 -0.083463304 -0.66608864 -0.20186451 -0.5683083 -0.11444568
0.16228403 -0.26586345 0.3075193 0.31209612 0.11097902 0.37914133 -0.06497711 0.3099776
0.26169977 0.0007830044 -0.05927946 -0.26691648 0.317524 0.10127996 0.32152718 -0.106758945
0.41219845 0.35359654 -0.78366804 -0.078493655 -0.14435174 -0.45103386 -0.43604308 -0.34513527
0.4031854 0.34317982 -0.15509343 -0.60581684 -0.6467725 0.1780963 -0.2017022 -0.30619437
-0.39525792 -0.1957878 -1.2093488 -0.39118564 -0.1265364 -0.045296323 -0.7166198 -0.055014182
0.36610183 -0.78263515 -0.100013345 0.04767944 -0.20021658 0.08486788 -0.2749935 0.18048358
-0.105963856 -0.20608397 -0.09546843 0.01619832 0.26455438 -0.1106828 -0.40515456 -0.22714846
0.18179895 -0.37671405 -0.13977037 0.15189235 -0.3758918 0.275404 0.3793219 -0.24231036
0.2134674 -0.96784604 -0.4935637 0.07997904 -0.24312256 -1.6583732 0.06076285 0.1697631
0.1742068 -0.38454637 -0.5166143 -0.57166034 -0.70371187 -0.79907656 1.1190755 -0.2654158
-0.82259816 -0.42251438 0.056100074 -0.75462735 -0.7366758 0.29091 -0.01959167 0.31983232
0.33672923 -0.35410872 0.17851594 -0.09642263 -0.93423986 0.49949232 0.17197779 0.25752988
-0.8628908 0.8940778 -0.30824196 0.14988507 -0.1285392 0.11618364 0.37568837 0.030701779
-0.61932975 -0.15302396 0.087665185 0.22082523 0.045106325 -1.2145839 -0.2212434 0.0962295
0.19183114 -1.8066591 -0.6083819 -0.34338936 0.17521764 0.4212402 -0.0123812035 3.1543686
-1.4764801 -0.5244085 -1.791484 -0.73892003 -0.77412796 -0.9885836 -1.2268796 -0.9708699
-0.31183758 -0.15003183 -0.011530726 -0.7948397 -1.797616 -0.7409293 -0.86835206 0.22782569
0.4125731 -1.6405813 -1.0911 -0.09892088 -0.2639753 -0.43795487 -0.86845523 -1.076577
-1.0460786 -1.2958686 -1.1745366 -0.7761678 -1.562466 -1.1820112 0.020309124 -0.7594217
-0.3501629 0.4019705 -0.29554924 -0.09114777 -0.01919212 -0.24385403 -0.0791209 0.3619485
-0.16498578 0.19300574 0.3253583 -0.3471579 -0.16368967 0.07631067 0.07558572 -0.40327
0.11101271 -0.112758055 -0.101051845 -0.40415964 -0.37287486 0.117700286 -0.15435871 -0.20873928
-0.7651895 0.31472144 -0.47392607 0.09512704 -0.021664834 -0.7309794 -0.40771857 -0.052630324
-0.508602 -0.7715863 -0.049638994 -0.15191852 -0.07646235 -0.4280318 -0.18225376 0.2569485
0.30161682 0.49738857 -0.6325615 0.16915792 0.27529263 0.07818761 -0.11235703 -0.13771313
-0.19021274 -0.22788996 0.5619736 0.60119134 0.21740486 0.11624398 0.111022644 0.21997826
-0.12931189 0.17953503 0.98414993 0.038248662 0.19564396 -0.21014978 0.23844196 -0.2202681
-0.050981726 0.24098632 -0.2579777 0.26941615 -0.28572333 -0.2989884 0.35439783 -0.2832531
-0.016347662 0.28478074 -0.01618983 0.26559356 -0.17963894 -0.120355844 0.2118081 0.36158127

conv1.fc_self.bias f4 [50]
00000000: 74e9 903d 5825 273e ee34 373e 16be 34be
00000010: 512a ccbc 8e4b 623d 8723 873b 2ce7 933e
00000020: b0d5 b8bd dbbf 8e3e 97f0 c03d 40c7 a6bc
00000030: 7620 eb3d 801a 18be 86e1 8dbd 437c 2e3e
00000040: 6414 013e c800 89bd a4e6 25bd 2803 8dbe
00000050: 8d7b 1e3e 51b5 003c f627 353e 0a69 b93d
00000060: b9f9 efbc 03ff 613d df82 b0bb 1569 d93e
00000070: 0bd2 6a3d 30c9 6c3d 3d09 b63d de6f 603c
00000080: f0e2 1a3d 9b23 9dbd 038d 403e f0ca 1fbe
00000090: f1f7 adbb ed05 603e 5e0c 083e e1bf e7bd
000000a0: bac8 663d a41f 293d 8f35 10be 7c83 9dbe
000000b0: e28d 23bd 54b4 6f3e dec0 0fbe b661 d4bd
000000c0: 17e2 32be 3a46 13be
0.07075778 0.1632284 0.17891285 -0.17650637 -0.024922522 0.055247836 0.0041241082 0.28887308
-0.09025133 0.2788075 0.09420889 -0.020358682 0.11480801 -0.14853859 -0.06927781 0.1703959
0.12605435 -0.06689602 -0.04050316 -0.2754147 0.15476818 0.007855729 0.17691025 0.09053238
-0.029293882 0.05517484 -0.005386695 0.42462984 0.05732922 0.057809055 0.08888481 0.013698546
0.03781408 -0.07672807 0.18803792 -0.15604758 -0.005309098 0.2187726 0.13285968 -0.11315895
0.05634377 0.04128994 -0.14082931 -0.30764377 -0.039930232 0.23408633 -0.14038417 -0.103701994
-0.17469059 -0.14382258

conv2.weight f4 [50, 40]
00000000: 5c34 5abe 4109 6cbe c302 16be a1bd 1b3e
00000010: fcd4 62bd 9969 42bf 7a0f 83be c46e 93be
00000020: e3f1 7b3d f8c2 1e3e de7d 6dbe bdc7 2d3e
00000030: 9fe8 103e 1b49 94bd 1b1d 32be 5217 28bc
00000040: c7dc 673d 5df3 3b3d 8b5d da3c cdc4 ccbc
00000050: 67fa c53d d56a 093e f804 7d3e 5acd 483e
00000060: c3a6 77be 0143 7bbe 7c4c 7e3e db95 cabe
00000070: 0682 1d3d 01f3 72be 5aa5 8fbc 1b12 bd3e
00000080: 693b 093e d42b d43c 0846 4bba cd5f 34bf
00000090: 7b26 09bf 7bfc 993e 9b0a e43d 1a10 713e
000000a0: 63d6 12be 39c1 b53d 23d2 f03d f99c cbbe
000000b0: bce4 c8be e872 78bf 183b 8abe 29ff dfbe
000000c0: 2fd0 213d d5cb 87be 93cc 20bf 5177 35be
000000d0: fc6c 21be 02e1 22be 9b65 363e e06b 2d3f
000000e0: d995 a6be 2ab4 0b3e bbaa e9be 370b 103f
000000f0: b39d eb3c 45df 843e d1a9 1fbf a69f cdbe
00000100: b4d7 28be 7034 48be 598d 573d a0e1 963e
00000110: 3921 013e 0a52 16bf f53a fdbd 486e db3e
00000120: fb00 263f a941 21be 7e73 0a3f 9f00 1dbe
00000130: 3d88 dfbd 9a92 6bbf 2e62 323e 8ed7 203f
00000140: 0673 f9bd 05ba 1e3c 06b2 3b3f ead3 5c3d
00000150: 8f0b 243e c1a8 bc3e 65da 253b 6a13 8d3e
00000160: 80a6 babd ce09 b8bd fed3 a83e 5357 5a3d
00000170: ea9c 98bd 5e6a a43d 9059 163d 1429 1abc
00000180: c4e8 ebbd 4066 46be 96e1 82be 03c2 dabd
00000190: f5a9 573e 36c2 2e3c c7f0 9c3e 6d3d fe3d
000001a0: 48d8 83be e7f8 92be 6f37 2cbd bd8f bc3e
000001b0: 34e5 73bd bb04 17be 687e 30bf cda2 6bbd
000001c0: 9b69 29bd 6bac 01be 04e9 88be f772 bc3e
000001d0: 038c a23e 0c05 b4bd 26d9 613d 8906 ad3d
000001e0: a91a 48b8 35b7 4f3e f456 13bd ed93 a43d
000001f0: 3f15 143d 20ac c93d d4e9 5a3e 50fd 4d3d
00000200: c282 cf3d a323 13bd c3f6 0dbe 439b 263e
00000210: 920e 593e e614 eb3d fdee 8dbd d517 553e
00000220: 8e30 1d3c c461 493d c24d 72be c76e bfbd
00000230: a05f 37be e7e0 b73d af1a 1ebe f231 f23c
00000240: 1273 523d d1c2 793e 55cb 613e e8ba 83bc
00000250: 1e34 203d af62 073c 693e 573e b747 9abd
00000260: 2b70 eebd f52f 75be 630e 9c3d d062 543e
00000270: 4454 303e 5a09 5fbe beb6 bd3d d9c4 603d
00000280: af43 26bd d64f 55be 6f8e 51bf 79b7 ecbe
00000290: 2220 de3c 8696 a6bf 67e0 b5bc 4c99 2bbf
000002a0: bd6d c53e ed47 d2bd 761f d3be 0db1 9ebd
000002b0: 9361 d83d 8a24 153e 49c4 abbd 40b9 8fbb
000002c0: 5918 0fbd 5be1 313f 4016 c13d e834 b33e
000002d0: 0a78 413d b703 fabe 03af e7be a4e6 8bbe
000002e0: afe7 2d3e fb30 333e b2e5 1e3f dbf1 0cbd
000002f0: 72a9 9ebe 49fd 47be 00c0 04be 1a3e ce3e
00000300: 90db 4d3f 4399 93be fed0 273f 4f25 d6be
00000310: 8f9b 013f 66ee 0cbf fd60 16be 03e7 f53e
00000320: dcdf 383d 604d 0ebf a210 70be 26b8 0bbe
00000330: b7aa 9d3e 73a2 17be 149f de3d 56e8 0bbe
00000340: 1583 6fbe 08d7 afbd fc0b 2e3c 3a1f 24be
00000350: b8e7 c83c 7469 073e b374 87bd ffb7 b13d
00000360: afb1 ffbe e150 01be 3b2b 9abd a6b9 26be
00000370: 9228 c43e 8b84 50bd 624f 5e3d 1eaa 863e
00000380: c9b3 cbbd b36b 22bc 5838 393e a992 fdbd
00000390: 16de 803d 4067 61be 0673 e6bd d8ed b7be
000003a0: 8bcf 4cbe d6d7 d83d 5f89 5c3e b1cd dd3d
000003b0: 1ac4 b53e bf90 a73d 6b17 adbd c23f 18bc
000003c0: 6ba2 743e 6478 a73c 7eeb f7be 95ac 1dbf
000003d0: 6128 223f dc7d a33e 7b5f 293e 63be b5be
000003e0: 4e8d 0bbf 12fd 42bd df46 b33e 1822 1abf
000003f0: 341b 963f 3155 5b3d e0fd 2cbe 5e10 7cbc
-0.21309036 -0.23050405 -0.14649491 0.15209056 -0.0553789 -0.7594238 -0.25597745 -0.28795445
0.061509978 0.15504062 -0.23192546 0.16970725 0.14151238 -0.07240506 -0.17393915 -0.010259466
0.056607034 0.045886386 0.026655933 -0.024996186 0.09666901 0.1341966 0.24708927 0.19609585
-0.24184708 -0.24537279 0.24833864 -0.39567456 0.03845408 -0.23725511 -0.0175349 0.36927876
0.1340157 0.025899805 -0.0007754271 -0.7045868 -0.5357434 0.3007544 0.11134835 0.23541299
-0.14339595 0.08874745 0.117588304 -0.39768198 -0.3923701 -0.97050333 -0.2699821 -0.4374936
0.03950518 -0.265227 -0.62812155 -0.17721297 -0.1576423 -0.15906146 0.17812197 0.6774273
-0.325362 0.13642946 -0.4563807 0.5626711 0.02876172 0.2595159 -0.62368494 -0.40160865
-0.16488534 -0.19551253 0.052625034 0.29469013 0.1261033 -0.5871893 -0.12364761 0.42857575
0.64845246 -0.15747704 0.5408248 -0.15332268 -0.10914657 -0.9202057 0.17420265 0.6282891
-0.12180142 0.009687905 0.7331852 0.053913034 0.16020034 0.368475 0.0025307175 0.27553874
-0.091137886 -0.08986245 0.32974237 0.053305935 -0.07451804 0.080281004 0.036706507 -0.009409208
-0.11519006 -0.19374943 -0.25562733 -0.10681536 0.21060927 0.010666421 0.3065245 0.1241406
-0.25750947 -0.28705522 -0.042045053 0.36828414 -0.059544757 -0.14747898 -0.6894288 -0.057528306
-0.04136048 -0.12663428 -0.26740277 0.3680646 0.31747445 -0.08790025 0.05513873 0.08448512
-4.7708545e-05 0.20284732 -0.035971597 0.08036027 0.036153074 0.09847283 0.21378261 0.050290406
0.10132362 -0.035922658 -0.13863663 0.16270165 0.21196964 0.114785954 -0.06930349 0.20809872
0.009594096 0.049165502 -0.23662475 -0.09347301 -0.17907572 0.089784436 -0.15439866 0.029564831
0.05137927 0.24390723 0.22050221 -0.016080335 0.039112203 0.008263274 0.21019901 -0.0753321
-0.11642488 -0.23944075 0.076199315 0.20740819 0.17219645 -0.21780911 0.09263371 0.05487523
-0.04059189 -0.20831236 -0.8185796 -0.4623373 0.027114931 -1.3014686 -0.02220173 -0.6703079
0.38560286 -0.10267625 -0.4123494 -0.077486135 0.10565486 0.1456472 -0.08387048 -0.004386097
-0.03493533 0.6948449 0.09428072 0.35001302 0.04723362 -0.4883096 -0.4525071 -0.27324402
0.16982912 0.17499153 0.6206924 -0.03441034 -0.30988652 -0.19530214 -0.12963867 0.40281755
0.8041315 -0.28827867 0.6555327 -0.4182534 0.5062799 -0.5505127 -0.14685436 0.4802781
0.045135364 -0.55586815 -0.23443845 -0.13644466 0.30794308 -0.14808063 0.108701855 -0.13662848
-0.23389848 -0.08585936 0.0106229745 -0.16027537 0.024524555 0.13223821 -0.066140555 0.086776726
-0.4994025 -0.12628509 -0.07527777 -0.16281757 0.38312203 -0.050907653 0.054274924 0.26301664
-0.09946401 -0.009913373 0.180879 -0.12381489 0.062923595 -0.22012043 -0.11252408 -0.35923648
-0.20001046 0.105880424 0.21536778 0.10830248 0.35501176 0.08181905 -0.08451732 -0.009292545
0.23890083 0.020443149 -0.48421854 -0.61591464 0.63342863 0.3193196 0.16540329 -0.35496816
-0.5451249 -0.047604628 0.35015008 -0.6020827 1.1727052 0.05354804 -0.1689372 -0.015384762

conv2.bias f4 [40]
00000000: b386 97bd f7e6 273e df2a dfbe e6ee 10bc
00000010: 8e80 20be e5ba 4cbd 8abb 7ebe ca05 55be
00000020: 7580 d03c 0090 6cbd e17e 8ebd 5ac8 d5bc
00000030: 45c9 9a3d 3cb6 c8bc c19a a0bc dfcb b43d
00000040: f98e 36be 3090 3a3d 212f 2cbb 9028 6a3d
00000050: 2fb8 59bf fd5d ed3d 93ea dbbd 09ea 4bbe
00000060: 88f2 c7bc 2a4a 68bb 5b51 4c3c a86e 97be
00000070: 480b 5cbd abb9 a33c 0f86 5a3d e713 b6bd
00000080: 8c47 423d f6bb 74bc 4e48 aabc 2af9 85bd
00000090: 46c8 bd3d 6c31 953d 52bb 31bd 058b a8bd
-0.07398739 0.163967 -0.43587396 -0.00884602 -0.1567404 -0.049982924 -0.24876228 -0.2080299
0.025451878 -0.057754517 -0.06957794 -0.026096512 0.0755792 -0.024500959 -0.019605042 0.08827948
-0.17827977 0.045547664 -0.0026273208 0.05716759 -0.85046667 0.115901925 -0.10738101 -0.19913496
-0.02440764 -0.0035444596 0.0124705685 -0.29576612 -0.053721696 0.019985994 0.053350504 -0.08890515
0.047431514 -0.0149373915 -0.02078643 -0.06541665 0.09266715 0.07284817 -0.043391533 -0.08229641

conv3.fc_neigh.weight f4 [30, 40]
00000000: d3f0 023e f42c 89be b58b 6cbe b4d1 e7be
00000010: c524 a9be 5a75 323e 0771 16bf 895c 713e
00000020: 8d80 3c3b 4780 0e3e f4c4 b2be c232 093e
00000030: 0f61 7ebe 0acd c9be 3e3a b33e 10a0 c7be
00000040: af4a 693e 42f4 bcbe d8a4 273d 5062 06bf
00000050: 9314 bbbe 52f3 fdbe 562f 4a3d 40f0 0c3e
00000060: aa37 d2be 2880 0ebe e263 5b3d 7d88 efbe
00000070: 3cf5 b9be 5848 243d 7700 ad3e eced afbd
00000080: 8dde 9bbe 4881 c9be 10ef 40bc 00ad 8abe
00000090: 0f76 573d 13e4 02be 826e 753d 3f8e 56bd
000000a0: 2524 b73c 655b 56be 5b32 d23e 6dd8 1dbf
000000b0: 725e 00bd 9cc3 a53e 69d8 f2bd 87d5 d83e
000000c0: 7c96 813f fbf3 6bbe 1a9c ad3d 18a7 4ebf
000000d0: fae0 c5bd f823 873e 3519 773e fc76 d93d
000000e0: 224f 9c3e 341e cd3e 2c0a bbbe d381 d53e
000000f0: 0e8c 59be 799a fdbd 7cd8 9e3e f960 a63e
00000100: e69b b33b c252 a0bf d202 d9be c863 e7be
00000110: 7539 ae3e 87d8 d5be 7d31 803e a052 f5be
00000120: a025 da3e ef74 88be 8e7d 80bd 8c3b 8dbd
00000130: 083a afbe 7765 fb3e bd55 953e 5617 023e
00000140: 46c3 c9be 6c3b febe 4234 65be 230a 09bf
00000150: bba5 61bc 95fc b3bd a423 76be b7ae a3be
00000160: 5297 03bf f76a b23e 06b3 d73e 1975 04be
00000170: 1a12 2c3f a5b8 963e 095a ab3e f4b3 34be
00000180: 001d bbbd 743c 57be 5684 0fbe 6fb9 efbe
00000190: 609c 51be 7d42 92be d724 81be 8c6d 973e
000001a0: e983 0b3c fddf f43e 01ea 5bbe 2e29 43bb
000001b0: 13c6 dbbe 0f3d eb3e 00a9 87bd 8179 783e
000001c0: bc00 8f3e c07a 953e b406 9dbe bb26 a4be
000001d0: c81d d83e 570e c03e 5468 583e 5e12 23be
000001e0: a315 84bd 1f98 863e 341d ee3c 7174 8bbe
000001f0: 5334 ac3e b1e7 07bf 7c39 c0be 03cd 7d3e
00000200: 039b 21bd bb50 173e 219d d2be 57c2 a83e
00000210: 7235 103d 6764 b0be b569 60bd 41b0 e1bd
00000220: 0382 5cbf fc9c c73d 933b 653e 9633 e73d
00000230: da71 8ebe 8f7e 403e ff94 09be f150 ddbe
00000240: 537b 693e b452 8d3e 6e98 5d3e 3a1c 11bf
00000250: 6628 b53e e68a 2cbf abbb 1e3f c4b9 bf3e
00000260: c55c b33e 21c7 e6bc b7a5 79bd d55e b03e
00000270: 0ad0 793e e6cc f3be 1920 84be f0db 1f3e
00000280: 870d 89be 97ff bbbe 34ce 7dbd 762a 3cbe
00000290: ce2b 393e 08e2 693e 54ab 1abd 7215 bd3d
000002a0: 6dc3 84be 0a18 8bbd 0747 c93e e577 adbd
000002b0: d9f2 11be 1c71 9dbe 9e7d 8cbe d5a1 04bf
000002c0: 7f9a de3e a2ee 2dbd 13b8 ba3e c2fc 78bd
000002d0: 9d50 63bd 4b08 3cbe c1c7 3fbe 1cb8 1bbf
000002e0: 46a0 a33e 5c16 45bc a3cc 2f3d bd56 25be
000002f0: c1be aa3e 7356 87be 9679 babe 0d9c a03e
00000300: 25f4 18bf 33d1 aa3e a8c4 433d 81a1 0f3e
00000310: 44a0 6a3e fd6a 86bc 5ae3 d4be be84 07bf
00000320: 9ff7 36be 4241 803e 6285 aa3e af86 d33e
00000330: 5b93 8ebe 1f88 393d 2d5d c5be 112f a2be
00000340: e937 08bf 15d2 4a3e 9f8b 84be 5dc3 1bbe
00000350: e7ae 08bf 1e52 293e 2722 b23e 8e0a a4be
00000360: 66a6 fe3e e15f 00bd b335 533d f91c 57be
00000370: 08eb 2b3e 44f9 98be 0204 cfbe a9e7 833e
00000380: 461f b83d bebf cd3c 7bd5 44bf 4586 9c3e
00000390: fb5e 86bd 0856 b2be a573 443f 0b52 36bd
000003a0: 294d 353e de06 80be dd2b 143a 94b4 54be
000003b0: 9ca1 a8be 8822 fbbd 6116 5cbd fa70 39be
000003c0: 17cb cebe 7b9c a6be 7295 bcbd 9757 083f
000003d0: dedb 763d 0d97 6abf 0233 653e 7f81 a0be
000003e0: a8ff 513e 2aaa 65be 529b d9bd a8fd c93d
000003f0: 85a4 05bf 06cc c53e 65f3 d4bd 64c8 223d
0.1278718 -0.2679211 -0.23100169 -0.45277178 -0.33035865 0.17427579 -0.58766216 0.23570456
0.0028763146 0.13916121 -0.34915888 0.13398269 -0.24841712 -0.39414245 0.35005373 -0.38989305
0.22782396 -0.36905104 0.04092869 -0.5249376 -0.36539134 -0.495997 0.04936155 0.13763523
-0.41058093 -0.13916075 0.053562053 -0.4678382 -0.3631991 0.040108055 0.33789417 -0.08590302
-0.3044323 -0.39356446 -0.011775747 -0.27085114 0.052602824 -0.12782316 0.05991984 -0.05238175
0.022356102 -0.20933302 0.41054043 -0.61658365 -0.03134007 0.323758 -0.11857683 0.42350408
1.0124049 -0.2304229 0.0847704 -0.80723715 -0.096620515 0.2639463 0.2413071 0.106183976
0.30529124 0.40062106 -0.36531198 0.4170061 -0.21244833 -0.12382979 0.3102454 0.3249586
0.005481231 -1.2525256 -0.42384964 -0.45193315 0.3402821 -0.4176676 0.25037757 -0.479146
0.4260683 -0.26651713 -0.06273948 -0.06896123 -0.34223962 0.4910085 0.29166976 0.12704214
-0.39406794 -0.4965471 -0.22383216 -0.5353109 -0.013772423 -0.087884106 -0.24037033 -0.31969234
-0.5140277 0.34847233 0.42128772 -0.12935294 0.6721512 0.29437748 0.3346713 -0.17646772
-0.09136391 -0.21019155 -0.14015326 -0.46821162 -0.20469809 -0.28566352 -0.2522342 0.29575765
0.008515337 0.4782714 -0.21475984 -0.0029779184 -0.42924556 0.45945022 -0.06624031 0.242651
0.27930248 0.29195213 -0.30669177 -0.320608 0.4221022 0.3751094 0.21133548 -0.15924975
-0.064494394 0.26287934 0.02906666 -0.27237275 0.3363367 -0.5308791 -0.37543857 0.24785237
-0.03945447 0.1477689 -0.41135505 0.3296077 0.03520722 -0.344516 -0.05478831 -0.11019946
-0.8613588 0.09746739 0.22386007 0.11289136 -0.27821237 0.18798278 -0.13435744 -0.43225816
0.2280095 0.2760216 0.21640179 -0.56683695 0.35382384 -0.6739944 0.6200511 0.37446415
0.35031715 -0.028171124 -0.060949054 0.3444735 0.24395767 -0.47617263 -0.2580574 0.15611243
-0.26768133 -0.36718437 -0.06196423 -0.18375573 0.18083116 0.2284013 -0.037761047 0.09232606
-0.25930348 -0.067916945 0.39312002 -0.08470134 -0.14252795 -0.30750358 -0.27439588 -0.51809436
0.43477246 -0.042463906 0.36468562 -0.060787924 -0.0554968 -0.18362539 -0.18728544 -0.60827804
0.31958216 -0.012029257 0.042919766 -0.1614637 0.3334866 -0.26433143 -0.36420888 0.31369057
-0.59747535 0.3336273 0.047794968 0.14026453 0.22912699 -0.016408438 -0.41579705 -0.52936924
-0.17867897 0.25049788 0.33304888 0.41313693 -0.27846798 0.04529583 -0.3854765 -0.31676534
-0.5321031 0.19806702 -0.25887772 -0.15211244 -0.5339188 0.16535231 0.3479168 -0.32039303
0.49736327 -0.031341437 0.051564883 -0.21007146 0.16788876 -0.29877675 -0.40432745 0.2576268
0.0899034 0.025115844 -0.76888245 0.3057119 -0.06561085 -0.34831262 0.7673896 -0.044511836
0.17705216 -0.2500524 0.0005652288 -0.2077201 -0.32935798 -0.12262446 -0.05373228 -0.18109503
-0.4038932 -0.3254126 -0.09208192 0.5325865 0.060268275 -0.91636735 0.22382739 -0.31348798
0.20507681 -0.22428194 -0.10625328 0.09862834 -0.5220416 0.3863222 -0.10397986 0.03974189

conv3.fc_self.weight f4 [30, 40]
00000000: 0df3 ccbc 7af5 c5bd 2593 143f c227 2abf
00000010: f4d3 c13e 9bf4 9d3e 8130 ea3e 95b3 773d
00000020: 3e40 8abe ea36 bcbe a6ed e53e 1751 eb3d
00000030: 41ca a1be 77ec 5a3e 4f1d 973e ed89 323e
00000040: d55e a33e ce68 383e 14bc bbbe 043f 6dbe
00000050: 3a39 df3e 670f 9abd 6f2f 663e d1f3 c43e
00000060: e81f 0d3d 5c3c 983e 5651 aa3e 92ae 953e
00000070: 99af c43e ba04 2f3e d81f 0abf 056f d83e
00000080: a206 c33e 4d3f 713c 9dae 06bf 7ad2 acbe
00000090: 85a8 3abe f1c8 db3b 313d 803e b7cf 3e3e
000000a0: d475 833e 49e6 9f3e 55e6 b9bd db00 55be
000000b0: 1f6e ecbe a9a1 193f c432 a73e 3266 73be
000000c0: db1c 9d3e ed6b a1be e20c e33e 5c94 2dbf
000000d0: 0850 f03d 806f aebe 7b68 743d bee4 db3d
000000e0: 3ddb cf3d 37ff 503e 9ddc 9cbe 4e61 6cbd
000000f0: ca6c 8abd 216b 5abe 3166 87be 86e3 bb3d
00000100: 995b cd3e 4f1c 6bbf 7e45 bbbe 1923 e4bc
00000110: ef7e 323d cc90 eebd a5f7 5fbb a778 05bf
00000120: 15fe f93e c218 013d 0a07 e43e 8b4a f53c
00000130: c526 fabe e2fc b6bc 180d 973e 21e1 08be
00000140: a427 cc3e ea78 f9bd f1c1 e13e b27d e6be
00000150: 88e2 ae3e dba6 e5be dbe1 bf3e fdf5 f63e
00000160: fb93 c4be 0eab d93a afe0 ca3e f977 893e
00000170: e109 7a3e a479 67bc 8d54 3b3e ab91 6b3d
00000180: 29f6 cfbe db0a 0bbe eb0e ecbd 21ae 2cbd
00000190: b129 d93e 152d ff3e 896d ba3e 38a0 4ebd
000001a0: 6680 8c3e bffc ce3e 4ff3 9d3e 2d58 c43c
000001b0: 6a05 87be be6d 8b3e b7b8 273f 6c95 8abe
000001c0: 190e 6b3e 9dc0 353d 06e8 bdbd b7c6 1fbe
000001d0: d105 343f 7a10 043f b57d 80bd 71bf 3c3d
000001e0: 6f13 75be bd8e 1cbd 18fb 0e3e b465 fbbc
000001f0: 277e a43e e2c2 24be 3d2b a93e 6b83 00be
00000200: c0aa bf3e 75a1 8a3e b6c4 84be d16d 1b3e
00000210: 3cc2 aebe 010a 1d3d c136 9b3e 8167 963e
00000220: 6408 28bf b0e1 793e 4a91 c9be b810 a23e
00000230: 019f ae3c 0c97 b43e faa0 543e e36c b23d
00000240: 3ba5 cebe 1623 bbbe 661a bb3e 5c58 c5be
00000250: b1d3 bf3d 4d71 79be 02e1 473f b3ca b4bd
00000260: b731 c9bd 8a09 b8be a070 d73e 8bc2 fcbe
00000270: a9ae 8fbe 1922 b33c 2530 73be cea9 273d
00000280: 9d0e 04bc 09dc 16bd 0eed abbe 528f 14be
00000290: acb9 d13e f052 fd3e f882 4a3e 59e4 9b3e
000002a0: 0688 03bd 928d 333e dfa9 9cbd 27e1 3b3e
000002b0: f2f4 603e 40a3 8fbd bcd5 f6bd 36ba 00bf
000002c0: d169 863f c914 84be 4b18 473d 0918 c4be
000002d0: 2110 c5be fd22 9fbe 7349 7ebe 902b 983c
000002e0: 62cc 8dbc 257a d33e 43f4 03bf 39c3 d0be
000002f0: 0f1d ae3e b06d c63e 733a 53bd 85d7 12be
00000300: 71c8 bebe 8175 013f 1468 01bf ff35 4f3f
00000310: cda9 a9bb d073 e6bd 5585 a53e b7fe 14bf
00000320: 0c85 cbbc 5bfe 3b3f bf84 a83d c1b3 c23e
00000330: e42b 16bf db67 0d3e 50bc f1bd 4178 803d
00000340: 8371 cebe 01ad 263e 3657 b7be 318e b73c
00000350: 3542 10bd 38c8 6fbe e709 93be b80b 4fbe
00000360: 9c59 97bd 211a eebe a37a 903e 700b 8fbe
00000370: be0a 12bb 4d7e a5be 9b1a f43c 242a bc3e
00000380: 1275 a73e 7832 b9be a5c6 47be 9463 b1bd
00000390: ed02 8ebe e031 663e 91ac 5c3e 2e21 cabc
000003a0: 72d1 aebe 7bf5 91be cba6 f5be 19ce be3e
000003b0: 74d3 82bf ccea 56be 696f 963e e984 a0be
000003c0: 6351 2a3e 4d67 763b 601f 22be e503 4abe
000003d0: 277b 893e b9e4 5dbe f7ea d83e c51b e53e
000003e0: 0610 693c cb68 87be d137 b43e 7715 783e
000003f0: f718 67be 328f d6be 1477 163e 39d6 a63c
-0.02501824 -0.096659616 0.58037025 -0.66466916 0.3785702 0.30850682 0.4574013 0.060473997
-0.27002138 -0.36760646 0.44907874 0.11490076 -0.3159962 0.21379267 0.29514548 0.17435427
0.3190829 0.1800873 -0.3666693 -0.2316857 0.43598348 -0.07522469 0.22479032 0.38467267
0.034454256 0.2973355 0.3326518 0.2923475 0.3841522 0.17091647 -0.5395484 0.422722
0.38090998 0.014724565 -0.5261019 -0.3375433 -0.18228348 0.0067073037 0.25046685 0.18633924
0.25675833 0.3123038 -0.090771355 -0.20801108 -0.46177766 0.600123 0.3265592 -0.23769453
0.30686077 -0.31527653 0.44345766 -0.67804503 0.11734015 -0.34069443 0.059669953 0.107369885
0.10149238 0.20409857 -0.30637065 -0.057709984 -0.06759031 -0.21329929 -0.26445153 0.09174256
0.40108946 -0.9184007 -0.36576456 -0.027848767 0.043578085 -0.116487116 -0.0034174707 -0.52137226
0.48826662 0.03151775 0.4453662 0.029942771 -0.48857704 -0.02233738 0.29502177 -0.1336713
0.39873993 -0.12181266 0.44093278 -0.45017773 0.34157205 -0.44853863 0.37477002 0.4823455
-0.3839415 0.0016606764 0.39624545 0.26849344 0.24417831 -0.0141281225 0.18293972 0.057511967
-0.40617493 -0.1357836 -0.11526283 -0.04215825 0.4241462 0.49839082 0.36411694 -0.050445765
0.2744171 0.40427205 0.30849692 0.023967827 -0.26371318 0.27232164 0.6551623 -0.27067125
0.22954597 0.044373143 -0.092727706 -0.15603147 0.70321375 0.5158764 -0.06273977 0.04608101
-0.23933195 -0.038222063 0.13962972 -0.030688144 0.32127497 -0.16089967 0.330408 -0.12550132
0.3743496 0.27076307 -0.2593133 0.1517861 -0.34132564 0.03833962 0.3031521 0.29375842
-0.65637803 0.24402499 -0.3936866 0.3165338 0.021316053 0.3527149 0.20764533 0.08712175
-0.40360436 -0.36550206 0.36543578 -0.38543975 0.09366549 -0.24359627 0.7807771 -0.08827724
-0.098239355 -0.35944778 0.42078114 -0.49367175 -0.28062943 0.021866845 -0.23748834 0.040933423
-0.008060125 -0.036830936 -0.33579296 -0.14507797 0.4096197 0.4947734 0.19776523 0.30447653
-0.032112144 0.17534474 -0.07649588 0.18347608 0.21968439 -0.07013559 -0.12052485 -0.50284135
1.0501043 -0.25797108 0.048607152 -0.38299587 -0.38488868 -0.3108138 -0.24832706 0.01857546
-0.017309371 0.41304126 -0.5154459 -0.40773943 0.34006545 0.3875556 -0.051569413 -0.14340027
-0.372623 0.5056992 -0.50549436 0.80941767 -0.0051777125 -0.11252558 0.32328287 -0.58201164
-0.024843715 0.7343499 0.08228444 0.38027766 -0.5866072 0.13809149 -0.11803496 0.062729366
-0.40320978 0.16276933 -0.35808724 0.02240667 -0.03521939 -0.23416221 -0.28718492 -0.20219314
-0.073901385 -0.4650431 0.28218564 -0.27938414 -0.0022284235 -0.32322922 0.029797843 0.367509
0.32706505 -0.36171317 -0.1950937 -0.08661571 -0.27736607 0.22479963 0.21550204 -0.024674024
-0.3414417 -0.285076 -0.47978815 0.37266615 -1.022078 -0.20988005 0.29381874 -0.31351402
0.16632609 0.0037598193 -0.15832281 -0.19728048 0.2685177 -0.21669282 0.42366764 0.4474775
0.014225012 -0.26447138 0.35198835 0.24226938 -0.22568117 -0.41906124 0.14693862 0.020365821

conv3.fc_self.bias f4 [30]
00000000: 49bc 37be 97a4 5dbd bc59 3f3d 4408 9f3d
00000010: 1645 5fbe 9798 123e 626e 80be c9ac 453e
00000020: 4eaf aabd e8a6 8a3c 2678 053e 4696 213e
00000030: 38a9 6dba 2966 023d 851d 363e 43c8 0bbe
00000040: 0b52 9ebe 185b 0e3e b27c 2bbe d0f9 83be
00000050: 87c7 2b3e b7ca ecbd fb88 01be d362 e73d
00000060: f51b e53d de60 26be 556c 093e 859d 80bd
00000070: e35a 403c b40c 1f3e
-0.17942919 -0.054112043 0.046716437 0.077652484 -0.21803698 0.14316021 -0.25084215 0.19304194
-0.08334218 0.01692529 0.13034114 0.15779981 -0.0009066048 0.03183571 0.17784698 -0.13650613
-0.3092197 0.13901937 -0.16746786 -0.2577653 0.16775332 -0.11562102 -0.1264991 0.11298146
0.11186973 -0.1624789 0.13420232 -0.062800445 0.011740419 0.1553219

conv4.fc_neigh.weight f4 [20, 30]
00000000: 9ed3 32bf 3d91 843f 235c b9bd 3845 893e
00000010: 8f56 67bd ad53 a8be 4a6e b83e 2b61 b63c
00000020: e19c 35be 6cca 913e 2187 893b 8eb4 fb3c
00000030: 4433 d6bd d742 73be 75f6 253f 5203 3abe
00000040: 419f a0be 1c63 023f 68f5 4e3e 1e46 84bf
00000050: cc1d 8a3e 00e5 ba3e 266c 4d3e 1c4d 5abe
00000060: bd8b 1b3e e23b 78be 13bb 2cbe 77e5 0d3f
00000070: d90e ee3d 3bd7 a73d ed8c 123f 4f25 19bf
00000080: 2287 e73e 2718 6ebe 2ca1 ab3b 64b9 213f
00000090: 4b1d 4abe c563 10bf 9cb3 d0be 5cc3 13bd
000000a0: 34d8 cf3e 2ad8 f43e 6f95 9dbc 9447 a83d
000000b0: f6e7 09bf 1fbd ee3d 82c9 0e3e 5788 ac3e
000000c0: cfdd a0be 7c01 9a3f cebc d33e 5626 293b
000000d0: 7913 823d b469 b6be dc53 d23e 4696 943e
000000e0: bd44 5d3e bf6d b9be 458f 903c 2729 cfbe
000000f0: 3371 20c0 bef4 29bf d199 54bd b224 8bbe
00000100: b66f 483e ea4c 213f ef80 de3e 71d0 b13c
00000110: 1846 34bf 1a0e c3be 0530 4dbe 64a4 23bc
00000120: 7550 aa3e a2e7 1c3e c4f4 ad3e 866a f63e
00000130: dc1c e03e 58a4 9abe 4c1e c4be 92ab 01bf
00000140: ed9c 803e d2b2 ccbd 0498 b6bf 0904 193e
00000150: 178d d63d ffcc 8ebc 4519 833d 5ed1 babe
00000160: 4f04 e03d 6c4a a33f 5f0c 64bf 17ae a93d
00000170: 14df e33e 35d8 733e 235d 8cbe 378e df3d
00000180: 40e7 c7be fc59 533d ffe2 b9be 51b6 d73e
00000190: b9e3 693d 8e0e 913e bf5a c33b c3d1 81be
000001a0: c0ed fe3d 6468 d9bc 0d41 babe ee7a da3e
000001b0: 9198 d3be 058f e63e 2498 91bd 4e42 efbe
000001c0: 809d e5be 6664 c53d 7899 21bf 5d0e cabe
000001d0: 3f0c 34bf 19ba 93be 7c4a ec3c f6c8 873e
000001e0: 1349 9cbd f29d 4c3f fade ab3e 23f9 60bf
000001f0: 82d5 ac3e dcf6 943e 5db0 05bf 406d cd3e
00000200: c3e3 ea3e 83b6 113e 14f1 073e 4a7a dabe
00000210: ee79 78bf 25bb a63e 8973 ad3d b4e0 db3d
00000220: 08f8 6ebf c132 c2be bbf5 87be 87d6 3e3e
00000230: a595 f33e 5b20 dc3e 1796 3abf b300 e1be
00000240: 1391 9abc ecc7 46be 758c 303e 6535 ddbd
00000250: e0bc 48bf 5d90 dbbe da43 5c3f b94e 88be
00000260: dae9 2a3d 8c65 dd3d ac38 233f eb0c 3abf
00000270: 4ab8 bcbe 52aa 16be 9f7e 1d3e 159d 88be
00000280: b3a9 94be e0c5 8dbe 41f4 59bf 19c1 c7bd
00000290: c880 f03e ae73 363e 175a bb3e 59f9 7dbe
000002a0: 3879 833e a241 f83c 10dd bb3e ffb9 b9be
000002b0: 985b c53a 16da 4abf 97e9 843e f892 5abd
000002c0: 235b bfbd 49b2 9f3e 3194 0dbf 6136 cbbe
000002d0: 2cc9 f7bd be35 af3d c7ff b73e 2ba2 2e3e
000002e0: 4b19 013f a622 083f 3cc2 abbe de24 9bbe
000002f0: 8a9b 60bd 125e 623e ae67 163e dec1 e63d
00000300: 3ab9 273f f911 4cbf b64a 653e f2f3 5bbf
00000310: 4796 733f 8ec4 0c3f b613 66be 47f4 07bd
00000320: cd40 dcbe eaf7 57be a9a1 b5be 39a5 66bd
00000330: 37df babe d79c 3bbe 395f 8cbf 1b42 e5be
00000340: 3e37 863f f3df d63f dc26 f03e 2de2 96bd
00000350: a04d ce3e 214a a3be 05d4 073f 07f6 833e
00000360: 08c7 6abe 0405 16be 7165 da3e 9174 c23e
00000370: e3dd 9cbd b797 85be 93f1 d5bc 0d6e 033f
00000380: 734e db3e bd9d a93e a582 a3be c79c f53e
00000390: c20e 9a3e 8303 ff3e 5dad b33e 6256 893e
000003a0: e9fe cd3e 1748 773e e1c6 c8be 55f4 ce3e
000003b0: b708 ee3e 9495 0a3e 7159 b2bd 7013 84be
000003c0: 6630 133f e222 263f 09db 423f c330 613e
000003d0: a6cb bfbd 7908 8dbd d5aa 58be 9716 f4be
000003e0: 496e 303e 201e a1be 79e3 903e 6cac 1dbe
000003f0: 8ac1 a73e abe5 be3e 2d73 303e 7ab7 2bbe
-0.6985415 1.0356823 -0.09050777 0.26810622 -0.056479033 -0.3287634 0.36021644 0.02226313
-0.17735626 0.28474748 0.004197017 0.030725744 -0.10458997 -0.23755966 0.6482919 -0.18165329
-0.313715 0.5093248 0.20210803 -1.0333898 0.26975858 0.36502838 0.20060787 -0.21318477
0.15190025 -0.24241593 -0.16868238 0.5542826 0.11623926 0.08195349 0.57246286 -0.59822553
0.45220286 -0.23251401 0.005237719 0.6317351 -0.19737737 -0.56402236 -0.4076203 -0.03607498
0.40594637 0.4782117 -0.019236295 0.082167774 -0.5386957 0.11657166 0.13944057 0.3369777
-0.31419227 1.2031703 0.41354984 0.0025810204 0.0635137 -0.3562752 0.41079605 0.290209
0.21608253 -0.36216542 0.017646441 -0.40461084 -2.5069091 -0.6638907 -0.051904503 -0.27176434
0.19573864 0.63007987 0.43457744 0.021705838 -0.70419455 -0.38096696 -0.20037849 -0.009987924
0.3326451 0.15322736 0.33975804 0.48128146 0.43772018 -0.3020351 -0.38304365 -0.5065242
0.25119725 -0.09995045 -1.4265141 0.14942946 0.104761295 -0.017431734 0.06401304 -0.3648786
0.10938322 1.2757087 -0.89081377 0.08285158 0.44506133 0.23812945 -0.27414808 0.10915797
-0.39043617 0.051599488 -0.36305997 0.42131284 0.05710194 0.28331417 0.0059617455 -0.25355348
0.12447691 -0.026539035 -0.36377755 0.42671913 -0.41327336 0.4503099 -0.07109097 -0.46730274
-0.44846725 0.0963829 -0.631248 -0.39464083 -0.70331186 -0.2885292 0.02884411 0.2652051
-0.07631125 0.79928505 0.33568555 -0.8788015 0.33756644 0.2909459 -0.52222234 0.40122414
0.45876893 0.14229779 0.13275558 -0.42671424 -0.9706105 0.32564655 0.08469302 0.10736218
-0.93347216 -0.37929347 -0.26554665 0.18636523 0.47575107 0.42993435 -0.7288527 -0.43945846
-0.018868005 -0.19412202 0.1724108 -0.108012 -0.784132 -0.42883578 0.86041033 -0.2662256
0.041726924 0.10810384 0.6375835 -0.7267596 -0.3685935 -0.1471341 0.15380333 -0.26682344
-0.2903572 -0.2769003 -0.85138327 -0.09753627 0.46973252 0.17817566 0.3659217 -0.2480215
0.2567842 0.030304734 0.36692095 -0.36274716 0.0015057204 -0.7923902 0.25959465 -0.053362817
-0.09343555 0.31190708 -0.5530425 -0.39689925 -0.12098917 0.085551724 0.3593733 0.1705405
0.5042922 0.5317787 -0.33546627 -0.30301565 -0.054835834 0.22106197 0.14687988 0.11267446
0.6551701 -0.79714924 0.22391781 -0.85919106 0.9515118 0.5498742 -0.22468457 -0.033191945
-0.4301819 -0.21090665 -0.354749 -0.056309912 -0.36498424 -0.18321548 -1.096656 -0.44776997
1.0485609 1.6787094 0.46904647 -0.07367358 0.40293598 -0.31892493 0.5305789 0.2577364
-0.22927487 -0.14650351 0.4265552 0.37979558 -0.07659509 -0.26092312 -0.026116168 0.513398
0.4283329 0.33128157 -0.3193561 0.47971174 0.30089384 0.49807367 0.35093203 0.26823717
0.40233544 0.24148594 -0.39214233 0.40420786 0.46491024 0.13533622 -0.08708466 -0.2579608
0.57495725 0.64896977 0.7611547 0.21991257 -0.09365015 -0.06886382 -0.21158917 -0.47673485
0.1722957 -0.31468296 0.28298548 -0.15397805 0.32764846 0.37284598 0.17231436 -0.1676921

conv4.fc_self.weight f4 [20, 30]
00000000: 0e2a adbd 2f84 6e3f ec08 0f3d cb86 243e
00000010: d239 8cbe a7dc 1abf 1cf5 083f 320b 633f
00000020: a0f4 543e a675 9d3e 0e9c 393e ea0c 073e
00000030: ac57 253e da97 a53e 43ff 413d dfa8 37bd
00000040: dcdf 123d 8c7b 813e af9d 05bc da51 8cbf
00000050: cd2a 0d3f 0c26 803e 5e2d 543f 4ca0 c7be
00000060: 363d e7be 8b44 3f3e da9a fabe d92f 553e
00000070: e759 6bbe 151e b93e 3039 5b3f 85ed 703d
00000080: a106 f03e 1fe3 553e d6af cf3e a5e5 c23e
00000090: b0b7 bc3e a047 a0be 1952 85bd c15f a73a
000000a0: 3742 cbbd 0aaf b83e f048 723e 6657 e33e
000000b0: 8291 28bf 3f8d 173f d082 ea3e 43d3 7f3e
000000c0: ad98 403d efc9 933f d470 073f 6637 193e
000000d0: 0be3 2cbf a345 0c3f ad3f 583d 3f23 963e
000000e0: b114 f63e 225a e23e b351 64be 379b c1be
000000f0: a4e6 a63e 4e42 d4be 01e8 d83d 8fec 103f
00000100: 1939 313d 314d f93e 7016 903e 9f12 713e
00000110: 0300 be3e 3980 e83e ebae b6be b68f 82ba
00000120: a650 413f 1d0f 173f bab3 f6be 28ef 1ebf
00000130: 845f c9be 12b9 ce3d 9904 593e c93e 17bf
00000140: 94b3 ad3e 7961 9cbe 1161 b8be 5d37 26bd
00000150: 4410 a43e c9c4 293e b190 ca3e 0ed3 0cbf
00000160: 41f7 213f 0e61 c43f 62c3 79bf f931 c43d
00000170: 07b7 f13e eff8 eabd 63b5 42bf f7a5 c1be
00000180: 80c0 30be 0d28 953e 8dde e33d a1d4 f4bd
00000190: cf94 cb3e f5c6 913e e0b7 1fbe bbb6 9c3d
000001a0: 7505 c33d 7a1a 753e 7784 f9bd 7526 ef3d
000001b0: 33e3 adbe d7e0 72b8 99a3 b9be afbc fd3d
000001c0: 76e5 34be 6226 8d3e 065f 26be 233a 9a3e
000001d0: 053f d3be f969 3c3e 503b 423e ff5b 5cba
000001e0: 00a2 94bd 6bbb bdbd ec1c 653e cded 80bf
000001f0: 7946 2ebe d8b0 2a3e 7707 81bd dd25 5fbc
00000200: b1e0 85bd 8918 f53e 6e07 bebe 0d4f 67bf
00000210: 62dc 42bf a8c7 763e d847 47be a8ed 06be
00000220: 1b37 fb3d ed29 8b3e e6cf 74bf e475 683e
00000230: ac3e 373f 2896 02be 8449 0a3e 7546 adbe
00000240: 03f1 97bf fa39 aabe 72c4 d3be 34dd 633d
00000250: 5332 423e 03dd 4cbf 36fa 743f b651 96bf
00000260: c91e b7be bcf2 233e 5c2d 5c3f 2104 17bf
00000270: 1a27 8c3f 5a93 0a3f 6f5d ab3e d871 49be
00000280: 8e28 193e 1d21 f8be 3fa9 5abf 1ef4 353b
00000290: 023b 3fbd 6a86 1abf e7b8 093f c486 fe3e
000002a0: dda4 923c 9ee2 fd3e ba00 093e 1e8d b3be
000002b0: 3891 3abe 8f1d b0be 0385 fe3e df2d dcbc
000002c0: 2818 2e3f 1308 5a3e f55b e5be 54a8 a8bd
000002d0: e75c b43e 8612 ed3b 0bff 31be 69bb 953e
000002e0: 2edc 9e3f ec3a a1bc dcee 163f a183 39bf
000002f0: f8d5 493f 7c57 513e f94c 273e 3218 3e3f
00000300: f71c ac3e 1a0f 1e3f 53c4 5ebe bb39 6d3e
00000310: 362b b13e 898c c13e 95e6 0fbd 3216 123f
00000320: b5fc 073f 4eb0 933e fec5 eb3d 4251 e83e
00000330: 0ef8 b23e 1b1c 1a3d 1f30 66be 6476 413f
00000340: 2141 78bd 43e6 ce3e 9f01 563f 41c0 853d
00000350: cd4d 07bf 7acf 83be 2c03 9a3e bb26 883e
00000360: 3b5e 033d 4dba 1d3f 9dd8 c33e c18f e0be
00000370: 642f fbbe 6ed5 cabe cdb3 9b3e d728 9b3e
00000380: 7bbb 4ebe ff3a 0a3c 883a e6be 402b 1c3e
00000390: 85d6 9a3c 7238 f8bd 7c8d ac3e 6dea f83d
000003a0: f111 8fbe 9d99 c63e 7db3 d43e d5fc e33e
000003b0: 7533 b33e 0420 06bf 7d4e 86be d898 33be
000003c0: 3550 303e 28e6 6f3f dc9a e93e bd26 523e
000003d0: 3411 053f 4bc9 bebd 9064 493e 33e0 36bf
000003e0: 5120 6cbe 361c b13e 241c debe bce4 d03d
000003f0: 7c4b aebe a23b 0c3e 16d1 e7be 816b 37be
-0.08455287 0.93170446 0.034920618 0.16067044 -0.27387863 -0.6049294 0.5349901 0.8868896
0.20796442 0.3075382 0.18125936 0.1318852 0.16146725 0.32342416 0.047362577 -0.044838782
0.03585802 0.2528957 -0.0081552705 -1.0962479 0.55143434 0.25029027 0.82881725 -0.38989484
-0.45163888 0.18678491 -0.48946267 0.20819034 -0.22983514 0.36155763 0.85634136 0.058820266
0.46880057 0.20887421 0.4056384 0.3806583 0.36858892 -0.31304646 -0.065097995 0.0012769626
-0.09924739 0.36071044 0.23660636 0.44402617 -0.6584703 0.591999 0.45802927 0.24982934
0.047020603 1.1546 0.5290654 0.14962539 -0.6753394 0.5479376 0.0527951 0.29323766
0.4806266 0.4420939 -0.22296791 -0.37813732 0.3259784 -0.41456836 0.10591126 0.5661096
0.043267343 0.48691705 0.28142118 0.2354226 0.37109384 0.45410326 -0.35680327 -0.0009961042
0.75513685 0.59007436 -0.48183995 -0.62083673 -0.39330685 0.10093893 0.2119316 -0.5908018
0.3392607 -0.30543116 -0.36011556 -0.040580142 0.3204366 0.16578974 0.39563516 -0.55009544
0.63267905 1.5342119 -0.97563756 0.09579844 0.4720995 -0.114732616 -0.76058024 -0.37821934
-0.17260933 0.2913212 0.111264326 -0.11954618 0.3976197 0.28472105 -0.15597486 0.076520406
0.09522525 0.23935881 -0.12183469 0.11677257 -0.33962402 -5.7906695e-05 -0.36257628 0.12389504
-0.17665657 0.27568346 -0.16247186 0.3012248 -0.41259018 0.183998 0.18967938 -0.00084060425
-0.072574615 -0.09264263 0.22374314 -1.0072571 -0.1701907 0.16669023 -0.06300252 -0.013619867
-0.06536997 0.4787028 -0.37115043 -0.90354997 -0.7611753 0.240996 -0.19461 -0.13176596
0.1226637 0.27180424 -0.9562973 0.22701222 0.71580005 -0.12752593 0.13504606 -0.33842817
-1.1870426 -0.33247358 -0.41360813 0.055630878 0.1896451 -0.8002474 0.9569429 -1.1743686
-0.35765675 0.16010565 0.8600671 -0.58990675 1.0949433 0.5413109 0.33469722 -0.19672334
0.14956877 -0.48462763 -0.854145 0.0027763913 -0.046687134 -0.6036135 0.53797764 0.49712193
0.017900879 0.49586958 0.13379183 -0.350686 -0.18219459 -0.3439755 0.49710855 -0.026877342
0.6800561 0.21292143 -0.4479672 -0.08235231 0.3522713 0.007234874 -0.17382447 0.29244545
1.2410944 -0.019681416 0.5895822 -0.72466475 0.78842115 0.20443529 0.16337956 0.7425567
0.33615848 0.61741793 -0.21754579 0.23166554 0.3460328 0.37802532 -0.03513201 0.5706512
0.53119975 0.28845447 0.115123734 0.45374495 0.34954876 0.03762446 -0.22479294 0.75571275
-0.060608987 0.4041005 0.83596224 0.0653081 -0.5285309 -0.2574423 0.30080545 0.2659205
0.032072287 0.616124 0.382512 -0.43859676 -0.49059594 -0.3961596 0.30410615 0.30304596
-0.20188706 0.008436917 -0.4496653 0.15250874 0.018901119 -0.12120141 0.33701694 0.12154088
-0.27943376 0.38789073 0.4154319 0.44528833 0.35000196 -0.523926 -0.26231757 -0.17538774
0.17218097 0.93710566 0.4562596 0.2052259 0.51979375 -0.09315737 0.19667268 -0.7143585
-0.23059203 0.34591836 -0.43380845 0.101998776 -0.34041965 0.13694623 -0.45276707 -0.17912103

conv4.fc_self.bias f4 [20]
00000000: 13ee 183e 2e31 13be bb8f 253e 39a5 5a3e
00000010: 1d55 66bb 254c 32be c318 9e3e 8303 c6bd
00000020: 1760 07bd 7f10 103d 073d 793d d56d d03e
00000030: dc78 93bd 71e8 353e 8c28 6e3e 0da2 6d3e
00000040: 0131 243e 4439 48bd 78a5 483d 5805 70be
0.14934568 -0.1437423 0.1616811 0.2135209 -0.0035145946 -0.1741186 0.30878267 -0.096686386
-0.033050623 0.035171982 0.060849216 0.40708795 -0.072007865 0.1776445 0.23257655 0.23206349
0.16034319 -0.048882738 0.04898593 -0.23439538
