VVG/Experiment_5 - Intra_patient/Images7/model7_std.pth (torch, 34018 bytes, 18 tensors)

conv1.fc_neigh.weight f4 [50, 8]
-0.531514 -0.17356792 -0.05682083 -0.0023454071 0.018331267 -0.02484242 -0.58436906 -0.0038768998
-0.6028242 -0.32841027 -0.40166962 0.113487475 0.08133301 0.18374686 0.54093117 -0.7461756
-0.0072136214 0.16964632 -0.08271953 -0.7146029 0.19861452 -0.6215753 0.3078227 0.013894741
-0.38235837 0.6582913 0.024901109 0.40043053 -0.14486524 0.65238935 -0.7573383 0.25927272
0.52469814 -0.2260205 -0.2086804 0.44826335 -0.34227973 -0.45081037 -0.026501669 0.396938
0.4476267 0.40694296 -0.12423402 -0.7289851 -0.03501276 0.45362347 -0.37490845 0.50860274
-0.38293925 0.32713178 0.051707674 0.013716862 -0.05655313 0.0987109 0.13538495 -0.23864503
-0.17128325 -0.24966061 0.25752705 0.08712049 0.28692582 0.26774186 0.4558582 -0.23103899
-0.292443 -0.36244833 -0.34752542 -0.40798044 0.11755497 -0.22963008 -0.0077793226 0.40812218
-0.21392062 -0.004237052 0.31424198 0.008878364 -0.0993281 0.04108353 0.304563 0.24207382
0.16041258 0.44157797 0.5819783 0.23319544 -0.21443224 0.31271157 -0.124465406 0.009856396
-0.1161962 -0.30149952 -0.25249222 -0.14431727 0.12582895 0.08915425 0.8667326 -0.22665982
-0.20020418 0.24770427 0.027926989 0.17769575 -0.2330323 -0.41231272 -0.061501957 0.010234815
-0.1008541 0.06171542 -0.25947326 -0.07319725 -0.042000294 -0.4726349 0.069977105 0.23539655
0.016912434 -0.006110243 0.65279454 -0.35152426 0.41048884 0.71548116 -0.42234796 -0.11768231
-0.21612129 0.74125385 -0.18185669 0.2800401 -0.17195015 0.5684658 0.4130098 0.0372526
-0.7275418 -0.8563279 0.40012294 0.26305392 0.40375876 -0.36607656 -0.31267825 0.30552888
-0.053859964 0.7877471 0.6472354 -0.3414836 0.54876703 0.75143296 0.71994066 0.34269312
0.035864454 -0.31379187 0.63475937 0.2801597 -0.13254893 0.24688423 0.31987834 0.15196787
0.17789985 -0.7585703 -0.5817132 -0.18246293 0.24870655 -0.7155054 -0.14218198 -0.0054910253
-0.097980335 0.27870017 0.2498508 -0.56810206 -0.012404234 0.18250029 -0.575663 -0.1934612
-0.06284026 -0.2590572 0.20398521 0.1699516 0.057853628 0.15162954 0.17411847 0.10187613
0.43199125 -0.65855235 -0.5731037 -0.3758323 -0.34702262 0.12790981 0.19279781 -0.14380045
0.07310381 0.5851515 -0.14181589 0.092004545 -0.08094777 0.6653808 0.9426648 0.045821294
0.550431 -0.26860753 -0.30392078 -0.39396536 0.25980645 0.2220719 -0.053175047 0.11234413
0.26098102 -0.10973227 -0.30262318 -0.030934177 -0.24843508 0.3190617 -0.31117752 -0.33522868
0.43429115 0.22830763 -0.41174087 0.096932866 0.25648913 0.21322753 0.014119783 -0.72135454
-0.12220407 -0.6487115 0.72288585 0.5299312 -0.013644162 -0.14356183 0.57989365 0.8967886
-0.32037383 0.23363115 0.19543831 -0.044092335 -0.24454693 -0.5643084 -0.55175716 0.75426406
-0.36863914 -0.2624799 0.12785298 -0.15040872 -0.06256155 -0.11747364 0.09713206 -0.25013423
-0.24227521 0.40247616 0.46718135 0.1298279 -0.1530908 -0.2124331 -0.7815495 0.22250997
0.6416306 0.10259596 0.28216732 0.06598394 -0.3907915 0.7619886 0.18340534 -0.36031553
00000000: 4d11 08bf cabb 31be f5bc 68bd 67b5 19bb
00000010: 742b 963c 5582 cbbc 3699 15bf 9613 7ebb
00000020: b052 1abf 6425 a8be a4a7 cdbe 1f6c e83d
00000030: ec91 a63d 2328 3c3e 777a 0a3f 5d05 3fbf
00000040: 3e60 ecbb c4b7 2d3e db68 a9bd 37f0 36bf
00000050: 9b61 4b3e 8f1f 1fbf f09a 9d3e c5a6 633c
00000060: 7ac4 c3be c785 283f 69fd cb3c 3b05 cd3e
00000070: 8e57 14be fd02 273f ece0 41bf 65bf 843e
00000080: 9e52 063f eb71 67be 51b0 55be c682 e53e
00000090: 4a3f afbe 9ed0 e6be 071a d9bc 753b cb3e
000000a0: 542f e53e d45a d03e 686e febd c49e 3abf
000000b0: 8a69 0fbd 5641 e83e 00f4 bfbe ca33 023f
000000c0: 9d10 c4be d17d a73e 6dcb 533d b0bc 603c
000000d0: 41a4 67bd f128 ca3d 5aa2 0a3e 5d5f 74be
000000e0: e064 2fbe 08a7 7fbe 96da 833e 3a6c b23d
000000f0: f1e7 923e 7615 893e 3f66 e93e 7c95 6cbe
00000100: 17bb 95be d492 b9be daee b1be d0e2 d0be
00000110: a9c0 f03d 2624 6bbe b0e9 febb 64f5 d03e
00000120: 020e 5bbe f8d6 8abb 53e4 a03e 8f76 113c
00000130: 886c cbbd 3447 283d aeef 9b3e 33e2 773e
00000140: 3243 243e 8216 e23e 88fc 143f c9ca 6e3e
00000150: 2094 5bbe bb1b a03e b8e7 febd b97c 213c
00000160: 46f8 edbd 255e 9abe a946 81be e8c7 13be
00000170: 4ed9 003e 8196 b63d 30e2 5d3f 8319 68be
00000180: 5302 4dbe 30a6 7d3e 24c7 e43c e0f5 353e
00000190: 05a0 6ebe a71a d3be 7ae9 7bbd edaf 273c
000001a0: 988c cebd 4fc9 7c3d aed9 84be 71e8 95bd
000001b0: 8008 2cbd 34fd f1be 2850 8f3d cb0b 713e
000001c0: f28b 8a3c 6f38 c8bb 8b1d 273f fdfa b3be
000001d0: 982b d23e c629 373f fe3d d8be 6c03 f1bd
000001e0: e64e 5dbe d0c2 3d3f a438 3abe 6a61 8f3e
000001f0: b313 30be fa86 113f 0576 d33e 2f96 183d
00000200: 2e40 3abf 4e38 5bbf eadc cc3e 01af 863e
00000210: 78b9 ce3e 636e bbbe 5d17 a0be 486e 9c3e
00000220: 449c 5cbd cba9 493f 38b1 253f f0d6 aebe
00000230: ff7b 0c3f e95d 403f 084e 383f 7975 af3e
00000240: 9be6 123d 54a9 a0be 977f 223f 1871 8f3e
00000250: e8ba 07be 38cf 7c3e 18c7 a33e 779d 1b3e
00000260: 612b 363e aa31 42bf 28eb 14bf 90d7 3abe
00000270: eeac 7e3e 5d2b 37bf 2798 11be 0fee b3bb
00000280: eaa9 c8bd cab1 8e3e e3d8 7f3e 236f 11bf
00000290: 213b 4bbc 5be1 3a3e a65e 13bf b11a 46be
000002a0: 65b2 80bd 25a3 84be 80e1 503e cb07 2e3e
000002b0: edf7 6c3d c644 1b3e 1d4c 323e 6fa4 d03d
000002c0: f52d dd3e e396 28bf edb6 12bf 176d c0be
000002d0: f3ac b1be cafa 023e ca6c 453e 6d40 13be
000002e0: 73b7 953d 7dcc 153f 2f38 11be e16c bc3d
000002f0: f2c7 a5bd 6556 2a3f 7b52 713f 1caf 3b3d
00000300: 0ce9 0c3f ed86 89be 819b 9bbe d4b5 c9be
00000310: 5a05 853e d166 633e 14ce 59bd ae14 e63d
00000320: 4e9f 853e 50bb e0bd 6df1 9abe ac69 fdbc
00000330: c465 7ebe 0e5c a33e a952 9fbe 18a3 abbe
00000340: 695b de3e 7ac9 693e b3cf d2be bd84 c63d
00000350: 8b52 833e 5158 5a3e aa56 673c b1aa 38bf
00000360: 2146 fabd f511 26bf 0c0f 393f 92a9 073f
00000370: c38b 5fbc df01 13be e973 143f f093 653f
00000380: 0a08 a4be 013d 6f3e fb20 483e 2a9a 34bd
00000390: 836a 7abe 8476 10bf f53f 0dbf 7317 413f
000003a0: 45be bcbe c463 86be e4eb 023e be04 1abe
000003b0: 4520 80bd 0596 f0bd 2ced c63d 9811 80be
000003c0: fe16 78be 5b11 ce3e 6532 ef3e 9bf1 043e
000003d0: d6c3 1cbe 1088 59be a113 48bf a7d9 633e
000003e0: e741 243f d51d d23d 3c78 903e 9722 873d
000003f0: d315 c8be af11 433f 9cce 3b3e 477b b8be

conv1.fc_self.weight f4 [50, 8]
0.19146883 0.36594212 0.42474592 -0.42573652 0.43038413 -0.18109494 0.43061328 0.33560047
-0.64861727 -0.8157087 -0.56066513 -0.17256542 0.07699916 -0.7890105 0.45255342 -1.0137074
0.4973849 0.1385705 0.47626904 -0.58265036 -0.3359263 0.27529222 -0.36773854 -0.25632185
-0.37806988 -0.1579673 0.19208273 -0.26078942 0.10297718 -0.26724735 0.5401764 -0.2351268
0.059032664 -0.124586254 0.39807045 -0.036824916 -0.4814171 0.08646711 0.45811668 0.18720923
0.26356006 -0.08195483 -0.11074793 -0.6002613 -0.048377343 0.42741603 0.31637678 0.39245856
-0.34770712 0.38296178 -0.111074984 -0.4294591 -0.15558939 0.083193 -0.004468465 0.11654106
0.04947626 -0.11682205 -0.07814117 0.28192055 0.43265122 0.021444 0.26981324 0.109227724
0.17499804 -0.011531744 0.31850737 -0.24023184 -0.15328662 -0.2243762 -0.42724314 0.06771071
0.053598665 0.410228 0.24007978 0.050253656 -0.15693544 -0.40969905 -0.09287165 -0.11836002
-0.32901248 -0.70147985 -0.31924865 0.09152207 -0.13646738 -0.6606212 -0.95836306 0.17136003
-0.27376762 0.05791737 -0.32508117 -0.3802872 0.5207479 0.36566252 0.1541994 -0.18802744
0.7347372 -0.018914111 0.0048108683 -0.25317663 -0.673688 0.14665814 0.43990722 0.16460271
0.72760177 -0.16750586 0.4583036 0.025272315 -0.023568533 0.0062613674 0.0014470338 -0.48038933
0.292826 -0.5780887 -0.20616157 -0.29948154 0.3989827 -0.1379537 0.22063595 0.3030832
-0.53614736 0.24363427 -0.08506744 0.251864 0.43837425 0.010679797 0.14639696 -0.4507709
0.1639342 -0.55037284 -0.3955095 0.05386764 0.3956113 -0.050955474 -0.0026951293 0.030648941
-0.36384597 -0.2859738 -0.04426593 -0.06839123 -0.20140861 -0.6556459 0.76192904 0.2496682
0.4907861 -0.3128808 0.36566168 -0.3744821 -0.31210494 0.20407355 0.20208852 0.0066558532
0.6690671 0.037464388 0.37566727 -0.2918628 -0.014505318 -0.02631254 -1.1775421 -0.6041991
0.18960483 0.30719927 0.14686675 -0.81552726 0.3772274 -0.5051201 0.21641141 0.15526624
0.40956384 -0.4334837 0.61302674 -0.18077722 -0.47734287 -0.05418478 -0.48435596 0.55147535
-0.2787696 0.39761692 0.53153986 -0.07891824 0.27226603 0.6305618 -0.21506925 0.45788518
0.026776677 -0.45894888 0.16996945 -0.21971035 0.33793357 0.06548866 0.03101512 0.022047082
0.6597393 -0.5577617 0.048757806 0.2537342 0.033606477 -0.291915 -0.4701978 0.011438655
0.2664345 -0.16910343 -0.1229694 -0.37788504 -0.4168957 0.15677437 0.09193404 0.060578708
-0.59302646 -1.1706809 -0.9140456 0.15990815 -0.2526074 -1.0831412 -0.839527 -0.8776982
-1.6834306 -1.0526121 0.0192147 -0.1414709 0.566777 -0.9134781 -0.09632139 0.5930812
0.4238804 -0.038918246 -0.16104911 0.46286163 0.32521033 0.39466423 0.45459238 -0.18870215
-0.3395702 -0.288131 -0.018717593 -0.04068897 0.029523557 -0.4240548 -0.12857094 0.13026874
0.6457623 -0.3422667 -0.45197308 -0.094374366 -0.37101376 -0.3828319 -0.15758756 -0.063708074
-0.05730809 -0.2301967 0.29475978 0.15037857 -0.34576592 0.04852889 -0.696558 -0.17359161
00000000: 6810 443e c45c bb3e 4c78 d93e 23fa d9be
00000010: 4f5b dc3e f470 39be 5879 dc3e d3d3 ab3e
00000020: c80b 26bf 49d2 50bf c087 0fbf fdb4 30be
00000030: bcb1 9d3d 98fc 49bf 15b5 e73e 2ac1 81bf
00000040: 3ca9 fe3e 6de5 0d3e 89d9 f33e 9328 15bf
00000050: 88fe abbe 1af3 8c3e 3a48 bcbe 9e3c 83be
00000060: 6092 c1be 2ec2 21be 56b1 443e 3186 85be
00000070: b3e5 d23d a5d4 88be 0049 0a3f 14c5 70be
00000080: 3ccc 713d 1427 ffbd e4cf cb3e b9d5 16bd
00000090: 4d7c f6be ab15 b13d 458e ea3e c7b3 3f3e
000000a0: 58f1 863e efd7 a7bd d0cf e2bd b9aa 19bf
000000b0: 5227 46bd 46d6 da3e 23fc a13e 54f0 c83e
000000c0: ab06 b2be 9113 c43e 487b e3bd 10e2 dbbe
000000d0: d352 1fbe 1761 aa3d 346c 92bb 14ad ee3d
000000e0: 9ea7 4a3d 6640 efbd 7a08 a0bd e457 903e
000000f0: 7684 dd3e 54ab af3c f624 8a3e c9b2 df3d
00000100: b032 333e a4ef 3cbc 6613 a33e 56ff 75be
00000110: 2bf7 1cbe e0c2 65be 9dbf dabe eaab 8a3d
00000120: 468a 5b3d 6809 d23e 79d7 753e c7d6 4d3d
00000130: afb3 20be 13c4 d1be 7e33 bebd bd66 f2bd
00000140: 5374 a8be 2f94 33bf 8f74 a3be ec6f bb3d
00000150: 1bbe 0bbe 791e 29bf 4857 75bf 0179 2f3e
00000160: 452b 8cbe c43a 6d3d 0a71 a6be 01b5 c2be
00000170: bc4f 053f 1e38 bb3e 73e6 1d3e 448a 40be
00000180: bd17 3c3f c4f1 9abc 7da4 9d3b 5ea0 81be
00000190: d176 2cbf 8d2d 163e 853b e13e 9d8d 283e
000001a0: 1c44 3a3f a886 2bbe c5a6 ea3e e307 cf3c
000001b0: cc12 c1bc 282c cd3b 66aa bd3a 97f5 f5be
000001c0: 4aed 953e 9ffd 13bf 051c 53be a555 99be
000001d0: 7647 cc3e bc43 0dbe 64ee 613e b92d 9b3e
000001e0: f440 09bf 437b 793e d737 aebd 51f4 803e
000001f0: 9772 e03e 51fa 2e3c 16e9 153e 72cb e6be
00000200: 5ede 273e 3ce5 0cbf 3980 cabe 51a4 5c3d
00000210: 908d ca3e b0b6 50bd c4a0 30bb 7d13 fb3c
00000220: 054a babe 286b 92be 3150 35bd b410 8cbd
00000230: 0f3e 4ebe 69d8 27bf c80d 433f 05a9 7f3e
00000240: 5148 fb3e ea31 a0be 0238 bb3e 1ebc bfbe
00000250: 38cc 9fbe a8f8 503e 4bf0 4e3e 5819 da3b
00000260: fb47 2b3f 4274 193d 7657 c03e 0a6f 95be
00000270: b7a7 6dbc 658d d7bc b3b9 96bf cbac 1abf
00000280: c527 423e 3949 9d3e 3d64 163e 65c6 50bf
00000290: f323 c13e 8d4f 01bf f49a 5d3e 1dfe 1e3e
000002a0: 5ab2 d13e 93f1 ddbe 52ef 1c3f aa1d 39be
000002b0: 4966 f4be dcf0 5dbd 81fd f7be 7d2d 0d3f
000002c0: e4ba 8ebe 7294 cb3e ff12 083f e39f a1bd
000002d0: 7466 8b3e 806c 213f 1d3b 5cbe ed6f ea3e
000002e0: c35a db3c 59fb eabe 790c 2e3e c0fb 60be
000002f0: a105 ad3e eb1e 863d 6c13 fe3c 159c b43c
00000300: ade4 283f 79c9 0ebf 44b6 473d 73e9 813e
00000310: f2a6 093d e275 95be c4bd f0be 3269 3b3c
00000320: 1a6a 883e 7329 2dbe 61d7 fbbd 267a c1be
00000330: 5a73 d5be 7689 203e ea47 bc3d 6121 783d
00000340: 95d0 17bf dfd8 95bf e4fe 69bf f6be 233e
00000350: c255 81be 5fa4 8abf 3eeb 56bf d4b0 60bf
00000360: a77a d7bf febb 86bf 2668 9d3c bfdd 10be
00000370: 4c18 113f b3d9 69bf 2644 c5bd 2bd4 173f
00000380: da06 d93e bd68 1fbd 0fea 24be 33fc ec3e
00000390: f881 a63e 6e11 ca3e 55c0 e83e 233b 41be
000003a0: 25dc adbe e885 93be a355 99bc 7aa9 26bd
000003b0: 63db f13c b61d d9be 1aa8 03be 2b65 053e
000003c0: ae50 253f 953d afbe 0469 e7be 5947 c1bd
000003d0: 84f5 bdbe 8b02 c4be a25e 21be 6179 82bd
000003e0: e3bb 6abd afb8 6bbe c1ea 963e d7fc 193e
000003f0: 3b08 b1be 3bc6 463d a051 32bf 00c2 31be

conv1.fc_self.bias f4 [50]
0.21708162 -0.20475467 0.32421476 -0.16603951 -0.038014863 0.08815259 -0.13092926 0.091099076
-0.11582961 -0.37360612 0.24271402 0.06815375 0.12815654 -0.09260666 -0.24297775 -0.16567254
-0.2323229 -0.07378939 0.084456526 -0.22992872 0.26631045 0.10245705 0.1408261 -0.22797745
-0.2871025 -0.33571005 0.2501143 -0.1268834 -0.40418127 -0.33434087 0.1415126 -0.09900078
-0.18254574 0.035346 0.2103508 0.30343434 0.21589945 0.4570857 0.13587603 0.26956457
0.0964773 0.16254273 0.1658997 0.3188587 0.12029519 0.016075902 0.27491763 0.13606384
0.10016163 0.21962795
00000000: a54a 5e3e 35ab 51be 7aff a53e 4306 2abe
00000010: 79b5 1bbd 5889 b43d 5212 06be 2792 ba3d
00000020: 1338 edbd 4d49 bfbe 068a 783e 3194 8b3d
00000030: 783b 033e 90a8 bdbd 29cf 78be 10a6 29be
00000040: 0ee6 6dbe e41e 97bd 8bf7 ac3d 6f72 6bbe
00000050: d859 883e 00d5 d13d b834 103e ec72 69be
00000060: 19ff 92be 30e2 abbe fb0e 803e b9ed 01be
00000070: d9f0 cebe ba2e abbe aee8 103e ecc0 cabd
00000080: 45ed 3abe f8c6 103d 3366 573e bf5b 9b3e
00000090: bf14 5d3e 2307 ea3e 1623 0b3e 5e04 8a3e
000000a0: e495 c53d 9a71 263e 9ce1 293e 7341 a33e
000000b0: 535d f63d 9cb1 833c 01c2 8c3e 5254 0b3e
000000c0: 8a21 cd3d 26e6 603e

conv2.weight f4 [50, 40]
-0.21201295 -0.08658974 0.039744843 0.2966695 0.030571671 0.43321413 -0.5928455 0.13750604
0.41196892 -0.22894645 0.14224777 0.20751473 -0.096627414 0.21666308 -0.09251483 -0.07489254
0.2569968 0.059124775 0.006325463 0.16900909 0.7695916 0.10298141 -0.3224304 0.04250823
-0.23399898 0.004698746 -0.04144638 -0.16012421 0.3310739 -0.019159904 -0.085403554 0.28855997
-0.2458582 -0.30646876 -0.4140705 0.21145026 0.08226732 0.17734823 0.23642634 -0.34854895
1.6295292 0.4548826 -0.053872734 0.33814603 0.22176261 0.30545583 -0.35189593 -0.18247625
0.20286855 0.5736852 -0.014312697 0.62401193 0.40561014 -0.70403063 0.08660512 -0.36483657
-0.030568477 -0.1742561 0.32936707 -0.09472783 -0.034288913 -0.012040561 0.33026445 0.042015877
0.054979283 -0.11261458 -0.044739243 0.08147689 -0.2916485 -1.4986358 0.3900279 -0.024625925
0.14973901 0.89412886 -0.22239241 -0.21004556 0.17378028 0.61642975 0.20743905 0.15691593
0.010821886 -0.17022684 0.11230205 0.23116328 0.008778057 0.94493276 0.3697258 0.111250654
0.19477952 0.3390173 -0.26282656 0.31256124 -0.32062593 -0.5389525 0.93259925 -0.54901356
0.29388568 -0.08659604 -0.10440181 -0.009051091 0.06986636 -0.3868989 0.18691069 -1.4919804
0.4677889 -0.1045171 0.4118888 -0.026919376 0.81718814 0.071234025 0.101920836 -0.01696121
0.36220703 -0.03925647 0.7899489 -0.041991707 -0.10631094 -0.3866943 -0.08011664 0.47860566
-0.8541175 -0.35798058 0.100364156 0.5136509 0.2394038 0.5334002 0.40929043 0.055059582
0.09460713 -1.3400788 0.11573111 -0.66003704 -0.15383133 0.35425425 0.03236806 0.009515204
0.9285757 0.14148536 0.06483483 0.11350548 0.41935575 -0.5737571 -0.1158967 -0.47419786
0.0133714 -0.17829767 -1.2291194 -0.27768058 0.43646455 -0.45587888 0.02739689 -0.3730126
0.73536766 0.20270982 0.31825745 -0.14585263 -0.08951327 -0.1471865 -0.08689268 -0.6005891
-0.17813316 0.27885604 -0.16967303 0.36495703 0.11674698 -0.106483296 0.2225606 0.0676844
-0.047237817 -0.03539074 -0.20965058 -0.5117016 -0.39698365 -0.067892045 0.074737296 0.29137573
-0.07385208 0.14469512 -0.50797653 -0.10285017 -0.42099458 0.25994492 -0.39396626 -0.16668144
-0.23644908 -0.080953315 -0.30518037 -0.1321127 -0.037178844 -0.011592943 0.063154355 0.41213587
0.00041562074 0.05034128 0.33610877 0.24661337 -0.20965609 0.2747622 0.18348031 -0.038986582
0.5389593 -0.12863566 0.14480975 -0.94699055 -0.22565576 -0.41844773 -0.4412271 0.018530415
-0.1501788 -0.18721855 0.20579629 0.12851034 0.016317798 -1.2895514 0.5880361 -0.17483774
0.37223303 -0.08100353 -0.2772302 -0.17323285 -0.31497237 -0.53880024 0.12718824 0.0534822
0.32940042 -0.07671904 0.19334431 0.030485483 0.7392684 0.21877728 -0.25273246 -0.14706558
-0.21802142 -0.78819656 0.10998384 0.007323424 -0.07189623 0.32125023 0.0058383187 0.20569263
0.10961743 -0.08127424 -0.08077869 -0.13607791 -0.22535872 0.15266104 -0.09290097 0.033229247
0.093858704 0.07394532 0.19925252 -0.16975392 -0.16417289 0.06635293 0.26607743 0.1376456
00000000: ec19 59be f655 b1bd 7dcb 223d 11e5 973e
00000010: 7171 fa3c 3ece dd3e b9c4 17bf 62ce 0c3e
00000020: 97ed d23e f070 6abe 66a9 113e be7e 543e
00000030: 98e4 c5bd eddc 5d3e 6a78 bdbd 4361 99bd
00000040: 1695 833e d22c 723d d445 cf3b b810 2d3e
00000050: f503 453f ebe7 d23d 9915 a5be 1c1d 2e3d
00000060: 6e9d 6fbe f0f7 993b aec3 29bd 9af7 23be
00000070: 8582 a93e 3bf5 9cbc 0fe8 aebd 22be 933e
00000080: 41c2 7bbe 79e9 9cbe 0c01 d4be 6b86 583e
00000090: c57b a83d c69a 353e bf19 723e 0275 b2be
000000a0: 6a94 d03f 5fe6 e83e a8a9 5cbd 7a21 ad3e
000000b0: bd15 633e b564 9c3e b42b b4be 0edb 3abe
000000c0: c6bc 4f3e 09dd 123f cd7f 6abc 3fbf 1f3f
000000d0: 22ac cf3e 5a3b 34bf 065e b13d dccb babe
000000e0: be6a fabc 3170 32be cda2 a83e aa00 c2bd
000000f0: 8872 0cbd c645 45bc 6c18 a93e d718 2c3d
00000100: f531 613d 79a2 e6bd 7f40 37bd 5bdd a63d
00000110: f452 95be 4cd3 bfbf bdb1 c73e 4fbc c9bc
00000120: 2f55 193e a1e5 643f d6ba 63be 2f16 57be
00000130: 75f3 313e 57ce 1d3f e76a 543e 92ae 203e
00000140: 484e 313c f24f 2ebe 9efe e53d 11b6 6c3e
00000150: d7d1 0f3c 1de7 713f b34c bd3e 62d7 e33d
00000160: 4874 473e ad93 ad3e 3491 86be 0708 a03e
00000170: 1529 a4be cbf8 09bf d3be 6e3f 278c 0cbf
00000180: 2f78 963e 4459 b1bd 9ed0 d5bd 074b 14bc
00000190: 1816 8f3d 9d17 c6be 8465 3f3e 37f9 bebf
000001a0: 0782 ef3e 100d d6bd 17e3 d23e 0686 dcbc
000001b0: 3e33 513f 25e3 913d dfbb d03d 3cf2 8abc
000001c0: 3373 b93e 64cb 20bd 173a 4a3f 7fff 2bbd
000001d0: 8db9 d9bd ccfc c5be 3114 a4bd cd0b f53e
000001e0: 72a7 5abf 3b49 b7be b98b cd3d a07e 033f
000001f0: 4526 753e ea8c 083f 848e d13e 2886 613d
00000200: 62c1 c13d b487 abbf 6f04 ed3d 30f8 28bf
00000210: f685 1dbe d060 b53e 5f94 043d a8e5 1b3c
00000220: 23b7 6d3f 8ae1 103e 20c8 843d 9075 e83d
00000230: ccb5 d63e bfe1 12bf 405b edbd 10ca f2be
00000240: b713 5b3c aa93 36be c953 9dbf 262c 8ebe
00000250: 4878 df3e f568 e9be 716f e03c 82fb bebe
00000260: 0e41 3c3f 2a93 4f3e a4f2 a23e 645a 15be
00000270: bc52 b7bd 0fb8 16be caf4 b1bd 35c0 19bf
00000280: 8a68 36be 38c6 8e3e c4be 2dbe a6db ba3e
00000290: 0a19 ef3d ea13 dabd ede6 633e 1e9e 8a3d
000002a0: 717c 41bd e1f5 10bd a4ae 56be e0fe 02bf
000002b0: 7141 cbbe fc0a 8bbd de0f 993d 332f 953e
000002c0: c23f 97bd f52a 143e c00a 02bf 1ca3 d2bd
000002d0: 9a8c d7be 8017 853e f2b5 c9be 8aae 2abe
000002e0: b51f 72be daca a5bd 9a40 9cbe 8d48 07be
000002f0: d848 18bd 54f0 3dbc 1257 813d 7903 d33e
00000300: ace7 d939 a832 4e3d 7316 ac3e 3788 7c3e
00000310: 16b0 56be a2ad 8c3e 43e2 3b3e 65b0 1fbd
00000320: 3df9 093f 11b9 03be 0249 143e f96d 72bf
00000330: 4e12 67be c83e d6be 85e8 e1be 19cd 973c
00000340: 79c8 19be 38b6 3fbe 43bc 523e 3798 033e
00000350: e7ac 853c 0510 a5bf 8989 163f aa08 33be
00000360: 5495 be3e 2ee5 a5bd 1ef1 8dbe f463 31be
00000370: 0f44 a1be d0ee 09bf a23d 023e 2710 5b3d
00000380: 2ca7 a83e df1e 9dbd 0dfc 453e b1bc f93c
00000390: b240 3d3f 2707 603e 2666 81be 5c98 16be
000003a0: 0241 5fbe 40c7 49bf 353f e13d 55f9 ef3b
000003b0: 553e 93bd e97a a43e 5e4f bf3b 17a1 523e
000003c0: 1a7f e03d 1c73 a6bd 4c6f a5bd 0258 0bbe
000003d0: 70c4 66be 2d53 1c3e dd42 bebd 641b 083d
000003e0: fe38 c03d a570 973d da08 4c3e f9d3 2dbe
000003f0: f01c 28be 0ce4 873d 4d3b 883e f8f2 0c3e

conv2.bias f4 [40]
-0.0974265 -0.00742356 -0.016495487 0.1572623 -0.046212003 0.22864527 0.100709096 -0.040843725
-0.2315546 -0.1187219 -0.0069004144 -0.097834066 0.085327104 0.09470485 -0.3997043 0.028330203
-0.13514568 -0.12477549 -0.40193188 -0.0493314 -0.018765228 -0.071221635 0.034386143 -0.09605192
-0.10466878 0.02087284 -0.36384627 -0.015188472 -0.19337505 -0.45703915 -0.023145542 -0.09673966
-0.5276406 0.05640156 0.029060272 -0.0042752307 0.0007849071 0.0071457094 -0.0477779 -0.26353425
00000000: 8b87 c7bd 5641 f3bb 8b21 87bc 5e09 213e
00000010: cc48 3dbd fc21 6a3e 9240 ce3d c04b 27bd
00000020: a61c 6dbe 7824 f3bd df1c e2bb 3a5d c8bd
00000030: fabf ae3d 9ef4 c13d 0ba6 ccbe be14 e83c
00000040: a163 0abe 4b8a ffbd 04ca cdbe b90f 4abd
00000050: 89b9 99bc a6dc 91bd 7cd8 0c3d deb6 c4bd
00000060: 965c d6bd 85fd aa3c 0f4a babe 12d9 78bc
00000070: 1c04 46be 0901 eabe b89b bdbc 711f c6bd
00000080: 7413 07bf 5205 673d cf0f ee3c 3c17 8cbb
00000090: 39c2 4d3a 8e26 ea3b c2b2 43bd f6ed 86be

conv3.fc_neigh.weight f4 [30, 40]
0.393717 -0.28644156 0.12957512 0.042939447 -0.0538439 0.11425752 0.03377474 -0.35407615
-0.32565868 0.066777796 -0.003666016 0.37867463 -0.5274404 0.18230265 0.1415624 0.67446446
-0.25597388 0.31930864 0.45352352 0.15912347 0.10901477 0.43055093 -0.013477124 -0.31299233
0.40388313 -0.15585761 0.4454715 -0.15463966 -0.17281066 -0.4282364 -0.43957707 0.038637236
0.021796467 0.44977286 -0.09992634 0.34901595 -0.17437574 0.22245832 -0.16944227 0.18121715
-0.35396612 0.45362538 0.100731164 -0.12508428 -0.25705117 0.43927166 0.44275594 -0.3396454
0.03561446 -2.4097 0.021831235 -0.2721115 -0.2205379 0.54704684 -0.29558623 -0.2930711
0.003150649 0.09140234 0.03672965 0.29184437 -0.54963243 -0.10642557 0.12114337 0.2176481
-0.48358387 -0.42082015 -0.11801732 0.030750208 -0.44302037 -0.50310004 -0.17517611 -0.13748254
0.38539034 -0.7710426 0.17842978 -0.036144264 -0.19875768 0.43154174 -0.13224354 -0.013415112
0.2946798 0.20921287 0.3840041 -0.19175605 -0.21575665 -0.18723743 -0.38503394 -0.34336352
0.13716325 -0.18512584 -0.18646802 -0.120453455 0.1268237 0.21983388 -0.34832215 0.17330684
-0.35717022 0.10847602 0.3406004 -0.31008953 0.12818998 0.2532251 0.3597653 -0.27919245
-0.34494716 -0.23444873 0.23634067 0.2433667 0.16219132 0.022315256 -0.23965582 -0.38647595
-0.43943402 0.09675763 0.044995334 0.3729039 -0.30409658 -0.36421207 0.28484997 0.05195638
-0.20470338 0.34942606 0.0395639 0.14380379 -0.3285938 0.015032222 -0.5158518 -0.38818502
0.3232274 -0.15634914 0.27468824 0.299305 -0.04897154 0.17872581 -0.08782119 -0.5213468
-0.37105167 0.3481974 -0.28310838 -0.11739319 -0.17690375 0.21869357 -0.070122294 -0.13781828
-0.16107573 0.24817707 -0.39439335 0.028515395 -0.16409698 -0.89655215 -0.055988148 0.31335866
0.23210216 0.38704693 -0.29280803 0.2277356 -0.3830911 0.5140727 -0.2893718 -0.4999137
0.12313798 -0.35026833 0.3454946 -0.31056416 -0.3578493 -0.43809134 0.2033889 0.25952673
-0.32943046 -0.29440856 0.28378776 0.17080517 0.36974353 -0.32426733 -0.45325866 -0.35084653
-0.25491202 0.06983876 0.18965335 0.12948437 -0.25970194 0.15182538 0.33917576 -0.1076003
-0.30522805 -0.07490726 0.027468046 -0.31264707 0.3653794 0.34561795 0.15823765 0.2565419
0.1288165 -0.2723645 0.03096773 0.278859 0.10296424 -0.29676163 0.2868086 0.053547855
0.19254541 -0.23039158 0.057152767 0.3628578 -0.24467434 0.23005834 0.12183432 0.23113659
-0.13715684 0.4912433 0.30701524 0.033341937 -0.31789827 -0.004201792 0.32210505 0.4615481
-0.5003874 0.51082224 0.3604541 -0.22483912 -0.28355193 0.2581064 -0.40334094 0.112376384
0.12922202 0.081724 0.0027904948 -0.29324934 -0.40197626 0.35659778 0.3574682 -0.26587367
-0.07674288 -0.2706621 -0.22075976 -0.31996503 0.0820952 0.5942579 -0.34111863 -0.0658393
0.48574382 0.44358483 0.09367964 0.061042596 0.23446989 0.13891219 -0.041815795 0.33707547
-0.22198913 0.73070335 -0.40586957 -0.26146233 -0.4310209 0.63357556 -0.19107893 0.03878306
00000000: 4695 c93e 78a8 92be 57af 043e 46e1 2f3d
00000010: 6c8b 5cbd d9ff e93d 6257 0a3d 7849 b5be
00000020: bcbc a6be ccc2 883d 8b41 70bb a4e1 c13e
00000030: 5606 07bf 8cad 3a3e bcf5 103e b4a9 2c3f
00000040: 020f 83be 6c7c a33e 3c34 e83e 43f1 223e
00000050: 2343 df3d 2c71 dc3e 28cf 5cbc 8840 a0be
00000060: c5c9 ce3e 2399 1fbe d714 e43e dc59 1ebe
00000070: 47f5 30be cd41 dbbe 3f10 e1be 1442 1e3d
00000080: 818e b23c a148 e63e 2ea6 ccbd 38b2 b23e
00000090: 8e8f 32be 1dcc 633e 4682 2dbe fd90 393e
000000a0: 0c3b b5be 9641 e83e 244c ce3d 1816 00be
000000b0: 369c 83be 37e8 e03e e8b0 e23e 00e6 adbe
000000c0: 78e0 113d 8638 1ac0 6bd7 b23c 3352 8bbe
000000d0: b0d4 61be 430b 0c3f 1457 97be 6a0d 96be
000000e0: 1e7b 4e3b 2631 bb3d d471 163d a06c 953e
000000f0: b6b4 0cbf a6f5 d9bd 041a f83d 25df 5e3e
00000100: 4e98 f7be bd75 d7be 11b3 f1bd dce7 fb3c
00000110: 91d3 e2be 2acb 00bf 5e61 33be 39c8 0cbe
00000120: e251 c53e 0c63 45bf 4cb6 363e 020c 14bd
00000130: 2287 4bbe 0af3 dc3e da6a 07be 0fcb 5bbc
00000140: 45e0 963e e63b 563e 2f9c c43e b35b 44be
00000150: 50ef 5cbe 2bbb 3fbe 2b23 c5be 58cd afbe
00000160: 8674 0c3e a191 3dbe 79f1 3ebe 4db0 f6bd
00000170: 12de 013e 221c 613e 4857 b2be 5977 313e
00000180: 04df b6be ad28 de3d 2d63 ae3e 0ec4 9ebe
00000190: 3c44 033e b8a6 813e 2833 b83e 50f2 8ebe
000001a0: ea9c b0be 5413 70be 4a03 723e 1f35 793e
000001b0: 7b15 263e 7cce b63c 5668 75be 2de0 c5be
000001c0: 7ffd e0be dd28 c63d 074d 383d 43ed be3e
000001d0: 8cb2 9bbe 017a babe dbd7 913e 37d0 543d
000001e0: c39d 51be f9e7 b23e c20d 223d 4d41 133e
000001f0: 723d a8be b549 763c dd0e 04bf 30c0 c6be
00000200: 107e a53e fd19 20be f0a3 8c3e 813e 993e
00000210: 6296 48bd e603 373e 99db b3bd fc76 05bf
00000220: 7cfa bdbe ee46 b23e 95f3 90be d76b f0bd
00000230: 4226 35be 35f1 5f3e 479c 8fbd 3c20 0dbe
00000240: 09f1 24be 2122 7e3e eded c9be 1e99 e93c
00000250: 0a09 28be 7184 65bf d453 65bd 8c70 a03e
00000260: 30ac 6d3e 042b c63e efea 95be 8533 693e
00000270: 8424 c4be 459a 033f 8a28 94be b0f4 ffbe
00000280: c42f fc3d 5f56 b3be abe4 b03e 4402 9fbe
00000290: 0638 b7be 824d e0be 2e45 503e b0e0 843e
000002a0: 1cab a8be b8bc 96be a14c 913e 8de7 2e3e
000002b0: 064f bd3e 5e06 a6be 8511 e8be 28a2 b3be
000002c0: d483 82be a007 8f3d 7d34 423e 8d97 043e
000002d0: a7f7 84be 1d78 1b3e 72a8 ad3e 8c5d dcbd
000002e0: da46 9cbe fa68 99bd ab04 e13c 4713 a0be
000002f0: 0213 bb3e d6f4 b03e 0d09 223e 7659 833e
00000300: 79e8 033e 5c73 8bbe 09b0 fd3c 9bc6 8e3e
00000310: eade d23d 24f1 97be 94d8 923e ff54 5b3d
00000320: a02a 453e c5eb 6bbe 0519 6a3d 7fc8 b93e
00000330: e98b 7abe 6a94 6b3e 4684 f93d 12af 6c3e
00000340: d872 0cbe 3e84 fb3e 1a31 9d3e 8e91 083d
00000350: 90c3 a2be 30af 89bb f4ea a43e 0850 ec3e
00000360: 6319 00bf 3fc5 023f 718d b83e 3a3c 66be
00000370: b82d 91be 8626 843e b482 cebe 9725 e63d
00000380: c752 043e ea5e a73d bce0 363b c724 96be
00000390: d5cf cdbe fc93 b63e 1206 b73e 9820 88be
000003a0: 5f2b 9dbd 3994 8abe d90e 62be 75d2 a3be
000003b0: 8721 a83d 4921 183f 1aa7 aebe c1d6 86bd
000003c0: 6ab3 f83e 8d1d e33e 1cdb bf3d cd07 7a3d
000003d0: e018 703e ff3e 0e3e 0a47 2bbd 2895 ac3e
000003e0: 1e51 63be 600f 3b3f 23ce cfbe 64de 85be
000003f0: c5ae dcbe 0232 223f 32aa 43be fcda 1e3d

conv3.fc_self.weight f4 [30, 40]
0.22873887 -0.32103154 0.066782616 0.09864612 -0.24532904 -0.18333118 0.07279328 -0.26790658
0.280255 0.089747705 0.19221993 -0.22237624 -0.06385902 -0.10472772 0.21244614 0.5188775
-0.015387115 0.39616585 0.3137399 0.042323593 0.07427037 0.83423364 -0.42483544 -0.02492561
0.28596482 0.19789715 0.15654585 -0.40302604 0.02996508 0.0035179697 0.1394682 -0.15207589
0.051384605 -0.19617328 0.19651231 0.13266765 0.21124293 0.6848718 -0.12239004 0.37103644
-0.15976232 -0.11908451 -0.18332393 0.14000863 -0.18092744 0.1527829 0.035421602 -0.17577448
-0.15560625 -0.34179294 0.4050299 0.3400505 -0.3482875 -0.011181649 0.11662116 0.5618573
0.08616724 0.6082502 0.057407297 -0.35504693 0.4452346 -0.16986342 0.014231269 0.00665831
-1.1002471 0.26121655 0.47966385 0.103484415 -0.103711605 -0.51850945 -0.024915915 0.6010295
-0.3724025 -0.0798327 0.23850991 -0.36810887 0.09848791 -0.058845337 -0.12766947 -0.399458
-0.13280104 0.03332479 -0.3208842 0.18966481 0.2811576 -0.3325312 0.35586435 0.3168923
-0.277233 0.3198913 0.106035694 -0.40073025 -0.15100054 -0.1538667 0.34724653 0.3508787
0.09799164 -0.25047728 -0.03648509 0.050966583 -0.20621972 -0.3513289 -0.16779116 -0.24656965
-0.3801359 -0.109663114 -0.40573782 0.20448606 0.29323602 -0.040724095 -0.3305026 0.1116616
-0.2908307 0.030124811 -0.35849538 0.32885587 -0.21231285 -0.29457223 0.24840851 -0.32952937
0.17591038 0.26619914 0.068319984 -0.038582746 0.20354792 0.20377468 0.26157394 0.21043
0.022695603 0.8892464 0.36895144 -0.16067688 0.17024533 0.42947435 -0.25378242 -0.31617555
-0.46054897 -0.65565395 -0.084156156 -0.25107333 0.10957472 0.26548925 0.4929202 0.45826134
0.24917525 -0.28839663 -0.20451137 0.057041258 -0.7290624 -0.78186476 0.21625306 0.5521286
-0.18566114 0.17069136 0.05806959 -0.4004632 0.12009643 0.45427448 -0.014506769 -0.19306378
-0.27843305 -0.31166393 0.08916087 -0.04654329 -0.38691944 -0.23247273 -0.41381815 -0.015961176
-0.4137688 -0.08659388 -0.25901014 -0.26023504 -0.21461198 0.27502438 0.12281948 0.058253814
-0.42819884 -0.18679753 -0.32563806 0.27982277 0.2205912 -0.42546836 0.29712412 -0.35336122
0.13633965 0.15401147 -0.08202776 -0.3509239 -0.16093278 -0.26377875 -0.120237425 0.19574447
-0.4634415 -0.10516108 -0.29512092 0.17652272 -0.06983821 -0.022449095 -0.20584606 0.15360193
-0.49947715 -0.29685447 0.35072064 -0.40608096 -0.1699318 -0.26231647 0.35761562 0.38205212
0.38024336 0.37721026 0.3992141 -0.25098518 -0.038948048 -0.01517654 -0.27244353 0.3515617
-0.3903285 -0.055079624 0.27923894 0.020725552 -0.6085491 0.3429643 -0.15533748 -0.40710157
0.29214925 0.19704309 0.25970665 -0.21378343 -0.23605832 0.27418458 0.18565117 -0.6919174
0.26309958 -0.31993717 0.20802678 -0.25904974 -0.21257307 0.14339441 -0.20452182 -0.07233422
0.40252823 0.5166378 0.018401247 0.41560435 0.15352501 0.3910089 0.3424166 -0.29589915
-0.084569946 -0.15642346 0.34538123 -0.71574104 -0.9613117 0.6316376 -0.09267782 0.6805035
00000000: 863a 6a3e 3f5e a4be 53c5 883d fa06 ca3d
00000010: 8937 7bbe 2bbb 3bbe a514 953d 0d2b 89be
00000020: 957d 8f3e a5cd b73d 4dd5 443e 99b6 63be
00000030: 85c8 82bd 7d7b d6bd 7b8b 593e 28d5 043f
00000040: 3d1a 7cbc 40d6 ca3e 84a2 a03e 815b 2d3d
00000050: 101b 983d 5690 553f 0884 d9be cb30 ccbc
00000060: fb69 923e 8da5 4a3e 8e4d 203e 6e59 cebe
00000070: 5479 f53c bd8d 663b c0d0 0e3e c8b9 1bbe
00000080: aa78 523d a6e1 48be 863a 493e 07da 073e
00000090: 1150 583e c253 2f3f a1a7 fabd 7df8 bd3e
000000a0: bc98 23be 94e2 f3bd 45b9 3bbe 6c5e 0f3e
000000b0: 0b45 39be 1f73 1c3e 3e16 113d 3afe 33be
000000c0: 3f57 1fbe 7cff aebe 1460 cf3e 191b ae3e
000000d0: bd52 b2be 3c33 37bc 13d7 ee3d e1d5 0f3f
000000e0: 7378 b03d 49b6 1b3f ea23 6b3d b6c8 b5be
000000f0: caf5 e33e adf0 2dbe 452a 693c f42d da3b
00000100: e6d4 8cbf 2dbe 853e 8096 f53e a3ef d33d
00000110: c066 d4bd 09bd 04bf 761c ccbc 12dd 193f
00000120: 8aab bebe 547f a3bd f13b 743e c478 bcbe
00000130: 08b4 c93d cf07 71bd c9bb 02be c285 ccbe
00000140: fffc 07be 937f 083d ef4a a4be 7e37 423e
00000150: e4f3 8f3e 8841 aabe da33 b63e b53f a23e
00000160: 7cf1 8dbe cbc8 a33e 3e29 d93d 842c cdbe
00000170: e39f 1abe 3b8f 1dbe 4cca b13e 5fa6 b33e
00000180: d7af c83d 8f3e 80be 6471 15bd 56c2 503d
00000190: 432b 53be 62e1 b3be 72d1 2bbe c17c 7cbe
000001a0: 2ca1 c2be 0e97 e0bd debc cfbe cb64 513e
000001b0: 0823 963e 4fce 26bd a337 a9be d6ae e43d
000001c0: c3e7 94be 4fc8 f63c b58c b7be cc5f a83e
000001d0: 8a68 59be 2cd2 96be cd5e 7e3e 13b8 a8be
000001e0: da21 343e 414b 883e 59eb 8b3d f108 1ebd
000001f0: de6e 503e 4faa 503e 05ed 853e f67a 573e
00000200: 21ec b93c a7a5 633f 34e7 bc3e 7b88 24be
00000210: cb54 2e3e 10e4 db3e c5ef 81be c3e1 a1be
00000220: 13cd ebbe f0d8 27bf 105a acbd af8c 80be
00000230: b668 e03d 35ee 873e 0960 fc3e 3ba1 ea3e
00000240: cc27 7f3e b9a8 93be 6e6b 51be 18a4 693d
00000250: d5a3 3abf 4a28 48bf 7171 5d3e 4d58 0d3f
00000260: f41d 3ebe b7c9 2e3e 61da 6d3d 8309 cdbe
00000270: 1ef5 f53d aa96 e83e cdad 6dbc 83b2 45be
00000280: c78e 8ebe 6a92 9fbe f999 b63d 2da4 3ebd
00000290: 4e1a c6be 550d 6ebe f9df d3be 03c1 82bc
000002a0: 81d9 d3be 2258 b1bd fa9c 84be 873d 85be
000002b0: 3ec3 5bbe ffcf 8c3e c888 fb3d 8d9b 6e3d
000002c0: e13c dbbe da47 3fbe 08ba a6be ee44 8f3e
000002d0: a9e2 613e fdd6 d9be a720 983e c3eb b4be
000002e0: 9f9c 0b3e 2fb5 1d3e 2cfe a7bd 4cac b3be
000002f0: 90cb 24be 020e 87be 0a3f f6bd 3d71 483e
00000300: 3448 edbe b15e d7bd 171a 97be 5fc2 343e
00000310: 5607 8fbd 2ae7 b7bc 4fc9 52be d349 1d3e
00000320: 78bb ffbe 4ffd 97be a891 b33e d8e9 cfbe
00000330: 9a02 2ebe 584e 86be 6519 b73e 569c c33e
00000340: 42af c23e b421 c13e ca65 cc3e 2181 80be
00000350: fd87 1fbd 06a7 78bc b87d 8bbe e5ff b33e
00000360: 23d9 c7be 2c9b 61bd 68f8 8e3e a2c8 a93c
00000370: e0c9 1bbf 0499 af3e ca10 1fbe 9e6f d0be
00000380: 9694 953e aac5 493e 45f8 843e 0bea 5abe
00000390: 46b9 71be ec61 8c3e 571b 3e3e 8021 31bf
000003a0: fdb4 863e cece a3be f904 553e 2ba2 84be
000003b0: c1ac 59be fcd5 123e 2b6e 51be f723 94bd
000003c0: 2e18 ce3e 6042 043f 36be 963c 18ca d43e
000003d0: a935 1d3e 5232 c83e 3b51 af3e 1880 97be
000003e0: 0233 adbd 792d 20be cfd5 b03e ce3a 37bf
000003f0: 8618 76bf 00b3 213f decd bdbd 7a35 2e3f

conv3.fc_self.bias f4 [30]
-0.2906505 0.004332122 -0.17167114 -0.21139279 -0.116504125 -0.26380786 -0.06001139 -0.23873784
0.17286837 0.039106242 0.11861264 0.049527556 -0.21070863 -0.12075451 0.02370695 0.0179178
-0.08962851 0.07186209 -0.09528892 0.059846755 -0.20981167 -0.122175336 0.3768883 -0.29073045
0.043971304 -0.091543265 0.18343514 0.24524413 0.06283077 -0.40302783
00000000: 24d0 94be 79f4 8d3b 8fca 2fbe 5a77 58be
00000010: b799 eebd d311 87be 81ce 75bd b177 74be
00000020: 6804 313e de2d 203d 2feb f23d 68dd 4a3d
00000030: 01c4 57be 244e f7bd 1435 c23c 5ac8 923c
00000040: 278f b7bd 6e2c 933d d626 c3bd df21 753d
00000050: dfd8 56be 1037 fabd 81f7 c03e 9fda 94be
00000060: 411b 343d 097b bbbd 6cd6 3b3e 4721 7b3e
00000070: 6bad 803d aa59 cebe

conv4.fc_neigh.weight f4 [20, 30]
-0.3568591 0.43651298 0.16624331 -0.064736076 -0.54936254 -0.0069069127 0.3391943 0.15855436
-0.017996114 0.02847207 0.27669707 0.2934804 -0.3101793 0.6471633 -0.5503656 -0.34064716
0.35549784 -0.31769767 0.9475366 0.22995037 0.23903129 0.15821284 0.09940932 0.6532609
-0.07396025 0.7872152 -0.6860379 0.054144774 0.10126156 0.41216978 0.0154976 0.15050988
0.15123144 -0.48205778 -0.09124255 -0.4132576 0.3474209 -0.14630948 0.11182977 0.47726613
-0.23812664 -0.3827162 0.39081103 0.0032284285 0.14260691 0.30534396 -0.43922865 0.51316905
-1.222312 -0.048544336 -0.7548835 -1.2628796 0.3061389 -0.18563445 0.11213345 0.98735994
0.29776725 -0.21442956 -0.3055778 0.6669866 0.05401762 0.6485353 0.37292647 0.21798638
-0.27355134 0.4900354 -0.09809627 -0.5993896 0.1935873 -0.1691784 0.085905865 0.22903581
-0.4569548 0.09495216 -0.030628817 -0.40778762 -0.31364745 -0.45214945 -0.4954489 -0.24839686
-0.93224514 -0.22628427 -0.42162248 0.11134504 0.37767017 -0.78488934 0.06776267 -0.74040735
-1.2093866 -0.8296418 0.15161954 -0.110726796 0.18796958 -0.29500934 -0.27250275 0.3184163
-0.16522276 -0.43117318 -0.19928768 -0.35069025 -0.33126858 -0.564308 -0.3686694 -0.19423704
-0.45895237 -0.1405051 -0.23162527 -0.4735202 -0.6332052 0.3899615 -1.981941 -0.79468626
0.08930525 -0.20467736 -0.4907617 -0.273106 0.31788853 -0.2445521 -0.49793756 0.47442856
0.058582857 -0.12248638 0.08516189 -0.67407346 -0.2949903 -0.056851845 -0.32420564 0.3771905
-0.70473355 -0.028147025 0.29565594 -0.11388329 -0.088014655 -0.5263416 -0.3859906 0.6412644
-0.23211746 0.5856001 0.85312575 0.7384544 -0.27624768 0.07244764 0.50008214 -1.0483438
0.5784944 -1.7077693 0.123398304 0.64944696 0.12307021 -1.2287775 0.198821 -0.44475934
0.43689796 0.15238132 -0.052349206 -0.25554442 0.41680565 -0.6110188 -0.44343504 0.3361938
0.021770963 -0.14180839 0.16995484 -0.30604094 0.18800178 0.2996962 -0.14180942 0.18251744
-0.37101606 -0.118862204 -0.18249492 -0.17599015 -0.38889244 -0.5132742 -0.12961431 -0.5045079
-0.5098349 -0.47775188 -0.31823623 0.297791 -0.01093393 -0.8542524 -0.030289214 -0.13600412
-0.06983491 -0.0493204 0.705615 0.1755029 0.27281398 0.45583332 0.1981518 -0.249141
-0.15365282 0.0034891923 -0.011586449 0.31838012 -0.075062275 0.038914878 -0.6768825 0.1212483
0.0056248573 0.1703259 0.014893253 0.8193683 0.75267684 1.5513508 -0.17530322 -0.18617448
-0.25828254 1.1007887 -0.40393063 -0.0076583913 0.09152471 0.14538443 -0.2221842 -0.100814626
-0.09794906 0.64417493 -0.6754554 -0.015016281 0.06508525 -0.02569412 0.20921347 -0.89614826
0.26051202 -0.045508143 -0.35533425 0.6289614 0.52172756 0.18922772 -0.027682967 0.47979948
0.5545126 -1.5561576 0.40851334 -2.3824034 -0.019184092 -0.33934084 0.12522057 -2.211219
0.22113651 0.10971624 0.2851802 0.2168544 -0.019785115 0.61302704 -0.3353797 -0.15930507
-0.64234364 -0.19417116 0.42262498 0.24633864 -0.06418025 0.16957745 0.3511651 0.4090002
00000000: 3cb6 b6be a17e df3e b03b 2a3e 5994 84bd
00000010: 06a3 0cbf 6253 e2bb e0aa ad3e 135c 223e
00000020: 966c 93bc 423e e93c 3dab 8d3e 1043 963e
00000030: d2cf 9ebe 7eac 253f c3e4 0cbf 4e69 aebe
00000040: d003 b63e 45a9 a2be c291 723f 1c78 6b3e
00000050: 9ec4 743e 8c02 223e 1d97 cb3d 1b3c 273f
00000060: 7978 97bd ef86 493f 2ea0 2fbf e9c6 5d3d
00000070: 3962 cf3d eb07 d33e a5e9 7d3c 431f 1a3e
00000080: 6adc 1a3e 47d0 f6be 60dd babd 8096 d3be
00000090: 27e1 b13e 27d2 15be 0207 e53d 3a5c f43e
000000a0: 78d7 73be 61f3 c3be 6218 c83e 0b94 533b
000000b0: 8c07 123e 0b56 9c3e 94e2 e0be 0c5f 033f
000000c0: b874 9cbf 6dd6 46bd 0c40 41bf 0aa6 a1bf
000000d0: 3dbe 9c3e f516 3ebe 39a6 e53d 9fc3 7c3f
000000e0: f374 983e 6c93 5bbe b274 9cbe a2bf 2a3f
000000f0: 9441 5d3d 6906 263f 38f0 be3e d237 5f3e
00000100: ec0e 8cbe ece5 fa3e b2e6 c8bd 9971 19bf
00000110: c03b 463e 1a3d 2dbe 6aef af3d 5d88 6a3e
00000120: fbf5 e9be 4776 c23d 49e9 fabc 8ac9 d0be
00000130: 6696 a0be 2280 e7be 7aab fdbe bf5b 7ebe
00000140: 9ea7 6ebf 10b7 67be e7de d7be de08 e43d
00000150: fc5d c13e 82ee 48bf 28c7 8a3d 568b 3dbf
00000160: 2ecd 9abf 6863 54bf 2742 1b3e bbc4 e2bd
00000170: 197b 403e 770b 97be 7b85 8bbe 7607 a33e
00000180: 2830 29be bbc2 dcbe 1212 4cbe ac8d b3be
00000190: 099c a9be 7d76 10bf 3cc2 bcbe 13e6 46be
000001a0: cefb eabe 92e0 0fbe 2d2f 6dbe 3d71 f2be
000001b0: bc19 22bf 09a9 c73e 3eb0 fdbf 8f70 4bbf
000001c0: ace5 b63d f196 51be 1e45 fbbe 8dd4 8bbe
000001d0: 49c2 a23e de6b 7abe acf1 febe 4de8 f23e
000001e0: 94f4 6f3d 24da fabd 5b69 ae3d 1490 2cbf
000001f0: f808 97be 7bdd 68bd 48fe a5be 1d1f c13e
00000200: 6b69 34bf 9794 e6bc 3760 973e a43b e9bd
00000210: 0741 b4bd 53be 06bf 8fa0 c5be e729 243f
00000220: 33b0 6dbe e3e9 153f 7366 5a3f 590b 3d3f
00000230: 5670 8dbe 6e5f 943d 6205 003f 2130 86bf
00000240: 3618 143f 2f98 dabf 40b8 fc3d 2842 263f
00000250: 3c0c fc3d 9548 9dbf bb97 4b3e 7fb7 e3be
00000260: 17b1 df3e d909 1c3e 1f6c 56bd b8d6 82be
00000270: 8d67 d53e ba6b 1cbf eb09 e3be 9821 ac3e
00000280: 0559 b23c 3836 11be a408 2e3e 66b1 9cbe
00000290: 8a83 403e c871 993e 7d36 11be dae5 3a3e
000002a0: d1f5 bdbe 076e f3bd f3df 3abe c336 34be
000002b0: e91c c7be f065 03bf 9db9 04be 6e27 01bf
000002c0: 8a84 02bf e59b f4be dcef a2be 1078 983e
000002d0: 3a24 33bc 49b0 5abf 1621 f8bc aa44 0bbe
000002e0: 9b05 8fbd 3004 4abd 2fa3 343f 08b7 333e
000002f0: 46ae 8b3e fc62 e93e 4ee8 4a3e d11e 7fbe
00000300: 2a57 1dbe efaa 643b 17d5 3dbc b802 a33e
00000310: 40ba 99bd 3565 1f3d 2c48 2dbf 0751 f83d
00000320: b950 b83b ea69 2e3e d502 743c 1fc2 513f
00000330: 6eaf 403f aa92 c63f b082 33be 86a4 3ebe
00000340: 9c3d 84be a5e6 8c3f ffcf cebe 3ef3 fabb
00000350: 4f71 bb3d a8df 143e 4184 63be e677 cebd
00000360: 8499 c8bd a6e8 243f a5ea 2cbf d906 76bc
00000370: 6a4b 853d 7a7c d2bc 0e3c 563e f969 65bf
00000380: d561 853e bf66 3abd 5fee b5be 9d03 213f
00000390: f08f 053f e9c4 413e 64c7 e2bc 47a8 f53e
000003a0: 8af4 0d3f 2c30 c7bf a928 d13e 4c79 18c0
000003b0: f527 9dbc 15be adbe d239 003e 9d84 0dc0
000003c0: 9c71 623e e8b2 e03d 2403 923e 140f 5e3e
000003d0: 6514 a2bc 57ef 1c3f e3b6 abbe de20 23be
000003e0: a270 24bf ced4 46be 4d62 d83e 3240 7c3e
000003f0: ef70 83bd b6a5 2d3e e9cb b33e 7968 d13e

conv4.fc_self.weight f4 [20, 30]
0.18149018 -0.5987141 -0.30325785 -0.21090288 -0.28315172 0.42889392 0.25078458 -0.07576876
0.2956606 0.25286624 0.17487 0.12768933 0.45038927 0.45703486 0.42964348 0.10148371
-0.2910622 -0.55150586 -0.34421736 0.41320983 -0.1922132 0.32304838 -0.55926836 -0.18354432
-0.46830484 -0.45088074 -0.3365115 -0.5952026 -0.17589474 0.07390096 -0.33681995 0.48317802
0.14600255 -0.71242267 -0.35698214 0.4166567 -0.3508309 -0.43260446 -0.077908695 0.40881518
-0.4336803 -0.4843823 0.055130377 0.07319324 -0.15889564 0.031161077 0.18608801 -0.3142674
1.0236002 0.01524526 -0.26508376 -0.67272884 0.29581282 0.42034173 -0.0022588603 0.61852264
-0.38241205 0.22941253 -0.30815044 0.16657999 0.07425079 -0.2753996 -0.21115512 0.5074062
-0.24344198 0.2544152 0.80466026 -0.29303253 -0.28737888 0.06317393 0.39711827 0.23507543
-0.0049897144 -0.17777593 0.10072811 0.0012948309 0.2915607 -0.33754206 -0.86643046 -0.41495347
-0.49597788 -0.27606547 -0.3701836 -0.21727526 0.60420877 -0.33755487 -0.08902122 -0.87316954
0.021759126 0.31447494 -0.47224548 0.21261723 0.28165016 -0.26715788 0.061358288 -0.33869076
0.50362706 -0.7492696 -0.07108518 -0.48521993 0.49297985 0.08299189 0.04368564 -0.085881874
-0.6732745 0.2943116 0.40414363 0.20348306 -0.8035941 0.408314 0.07107242 -0.88801575
-0.19012685 -0.13181162 0.27423707 0.61685747 0.45425618 -0.5201793 -0.48324212 0.39314
-0.31606567 0.04961114 -0.28840843 0.22063765 -0.35621905 -0.27589428 0.4506408 -0.15167534
0.5401274 0.0480413 -0.27442744 0.3113497 -0.042907096 -0.15927202 -0.048558574 -0.7927668
0.061267026 -0.7286348 -0.32332924 -0.9365101 -0.20563738 0.098439604 -0.66671926 -0.41516173
0.06310914 0.039901447 0.15332614 -0.18450029 0.42611173 -0.09241859 0.027438853 0.36889243
0.021429203 0.39482403 -0.3035291 0.1223507 0.31877255 0.13971107 -0.24006607 0.09139096
0.23142673 -0.16510807 -0.40317413 -0.45268416 -0.010170556 -0.26246262 -0.28831938 -0.4023457
-0.22246353 -0.18978912 -0.14453785 -0.09275284 0.33829567 0.19218123 0.16368005 0.18812223
-0.410238 -0.070862025 -0.10493318 0.068466365 -0.43398184 0.6197303 0.2025791 0.692691
-0.008884313 0.2641908 0.28950885 -0.39435425 -0.20380461 0.0018244507 0.07576621 -0.44097215
-0.29876116 0.30718023 0.037860926 0.20040785 -0.024786515 -0.026282234 2.204648 0.18759196
-0.15829466 0.5723773 -0.31725895 0.5871922 0.10591223 0.6180044 -0.14525595 -0.13721156
-0.034666706 0.0758079 -0.19951738 0.029810213 0.05356308 0.48177743 0.24901465 -0.30025998
0.7396573 -0.1381876 0.32129455 0.20366204 -0.0056626094 0.41954058 0.4352162 -0.023734128
-0.17234106 -0.044981774 0.16294329 -0.2846787 0.6077032 -0.1374523 -0.046844337 0.15176843
0.2756259 -0.4055875 0.18257575 0.18576688 0.28877583 0.06738616 0.35731456 -0.39609924
0.6622867 -0.17994666 -0.11390709 0.2025207 -0.024310987 0.12742023 0.027587214 -0.4272374
-0.18099082 -0.25616032 -0.032733995 -0.24938302 0.41261736 0.42937297 0.23675488 0.023737429
00000000: 90d8 393e 5445 19bf 9d44 9bbe edf6 57be
00000010: 43f9 90be fc97 db3e d666 803e a72c 9bbd
00000020: d360 973e af77 813e 1f11 333e fec0 023e
00000030: 6c99 e63e 7900 ea3e 3bfa db3e b1d6 cf3d
00000040: 1b06 95be 7d2f 0dbf 423d b0be 3d90 d33e
00000050: 89d3 44be 9966 a53e 362c 0fbf 0bf3 3bbe
00000060: a7c5 efbe d7d9 e6be 3c4b acbe 335f 18bf
00000070: c01d 34be 6359 973d aa73 acbe 1c63 f73e
00000080: b181 153e 5561 36bf 5dc6 b6be 0754 d53e
00000090: 1ca0 b3be 557e ddbe 988e 9fbd 3950 d13e
000000a0: 580b debe f500 f8be 64d0 613d 56e6 953d
000000b0: 8ab5 22be 8445 ff3c db8d 3e3e a8e7 a0be
000000c0: 5505 833f 41c7 793c 0fb9 87be f537 2cbf
000000d0: c774 973e 0837 d73e 6309 14bb 8057 1e3f
000000e0: 83cb c3be 1eeb 6a3e e5c5 9dbe f293 2a3e
000000f0: cc10 983d 2d01 8dbe 0c39 58be 5fe5 013f
00000100: db48 79be b642 823e 37fe 4d3f 5c08 96be
00000110: 5323 93be 5561 813d 1653 cb3e 9db7 703e
00000120: c280 a3bb e50a 36be 8a4a ce3d 51b7 a93a
00000130: 7247 953e 50d2 acbe 63ce 5dbf c874 d4be
00000140: d0f0 fdbe 7458 8dbe b488 bdbe 687d 5ebe
00000150: 6dad 1a3f fed3 acbe c250 b6bd 0a88 5fbf
00000160: 3240 b23c dc02 a13e 29ca f1be 55b8 593e
00000170: 7334 903e ebc8 88be d452 7b3d e068 adbe
00000180: b4ed 003f 22d0 3fbf 1b95 91bd bf6e f8be
00000190: db67 fc3e a7f7 a93d b7ef 323d d6e2 afbd
000001a0: b85b 2cbf 03b0 963e eaeb ce3e dd5d 503e
000001b0: 58b8 4dbf 880e d13e 6b8e 913d 0055 63bf
000001c0: 9db0 42be a0f9 06be cd68 8c3e 5fea 1d3f
000001d0: 4494 e83e 782a 05bf 836b f7be a549 c93e
000001e0: 5cd3 a1be 0d35 4b3d 45aa 93be d6ee 613e
000001f0: 5862 b6be 0442 8dbe 64ba e63e c850 1bbe
00000200: ca45 0a3f f4c6 443d c181 8cbe 3a69 9f3e
00000210: 5abf 2fbd 3418 23be 5be5 46bd c4f2 4abf
00000220: 22f3 7a3d cf87 3abf 698b a5be 20bf 6fbf
00000230: 9b92 52be b49a c93d 1dae 2abf 1490 d4be
00000240: 5d3f 813d b36f 233d 8701 1d3e a5ed 3cbe
00000250: 512b da3e f545 bdbd 72c7 e03c 78df bc3e
00000260: 4c8c af3c 6026 ca3e 2b68 9bbe 0193 fa3d
00000270: 2836 a33e 6b10 0f3e e1d3 75be 2f2b bb3d
00000280: 21fb 6c3e 1712 29be d76c cebe 38c6 e7be
00000290: 67a2 26bc 8061 86be 999e 93be 4100 cebe
000002a0: 7bcd 63be 1458 42be bb01 14be 33f5 bdbd
000002b0: 1735 ad3e 28cb 443e be9b 273e 1da3 403e
000002c0: b70a d2be 1c20 91bd 35e7 d6bd 1838 8c3d
000002d0: de32 debe a5a6 1e3f e570 4f3e 3354 313f
000002e0: 828f 11bc 0444 873e 813a 943e cde8 c9be
000002f0: 28b2 50be 6822 ef3a 512b 9b3d 1ac7 e1be
00000300: 39f7 98be ba46 9d3e 0f14 1b3d b737 4d3e
00000310: 170d cbbc d74d d7bc f418 0d40 1b18 403e
00000320: ff17 22be 5287 123f c46f a2be 3a52 163f
00000330: 83e8 d83d 8935 1e3f fabd 14be 3081 0cbe
00000340: adfe 0dbd 2c41 9b3d 494e 4cbe 8c34 f43c
00000350: f664 5b3d 88ab f63e b2fd 7e3e adbb 99be
00000360: 2e5a 3d3f 0d81 0dbe b880 a43e c88c 503e
00000370: 698d b9bb 06ce d63e a8d4 de3e 136e c2bc
00000380: 2d7a 30be cf3e 38bd 9bda 263e 68c1 91be
00000390: 7092 1b3f 4cc0 0cbe d9df 3fbd 2f69 1b3e
000003a0: d71e 8d3e 2aa9 cfbe 23f5 3a3e ac39 3e3e
000003b0: 6dda 933e c101 8a3d eff1 b63e 85cd cabe
000003c0: 9f8b 293f f043 38be 1f48 e9bd 9661 4f3e
000003d0: d627 c7bc 737a 023e 95fe e13c dcbe dabe
000003e0: a855 39be 7227 83be 1514 06bd 435e 7fbe
000003f0: 9542 d33e c6d6 db3e df6f 723e ff74 c23c

conv4.fc_self.bias f4 [20]
-0.11169963 -0.19724903 0.03573647 -0.20784578 0.26066333 -0.016233167 -0.42926687 0.36877513
0.3967121 -0.32170466 0.19169576 0.3376984 -0.12286022 0.109855026 -0.05760661 0.49389234
-0.22107312 0.0044918745 -0.1782405 -0.18284707
00000000: c7c2 e4bd a6fb 49be 6860 123d 86d5 54be
00000010: aa75 853e 6bfb 84bc dec8 dbbe 18d0 bc3e
00000020: d91d cb3e 79b6 a4be e54b 443e cee6 ac3e
00000030: 249e fbbd acfb e03d e9f4 6bbd 75df fc3e
00000040: fe60 62be 9330 933b ad84 36be 433c 3bbe
